trained-models/aoc-grid-four-rooms.pth (torch_old, 558365 bytes, 18 tensors)

body.cnns.0.weight f4 [16, 1, 4, 4]
0.028175613 0.16619974 -0.35170752 -0.017854918 -0.4086037 0.40207082 0.4067666 -0.29005888
0.0008601547 -0.5078553 -0.5406199 -0.45198742 -0.2414603 -0.20412385 -0.32847917 0.36954913
-0.3233429 -0.5615675 0.45562267 0.570396 0.2586535 -0.14999716 0.119313404 -0.2708455
-0.07619366 0.10810038 -0.33718342 -0.3182798 -0.01691615 0.83149 -0.14836785 0.16282143
0.31493968 -0.5564467 -0.021657405 -0.0065210816 0.18486065 0.40494356 0.19955084 0.3556574
-0.0025824702 -0.12390961 0.47228956 -0.25071913 -0.61463034 -0.22479536 -0.44950464 0.21157834
-0.22011827 0.15807894 -0.079111256 -0.0027084106 0.26019812 -0.5204185 -0.42714095 -0.0027788365
-0.19947655 0.2428495 -0.18330057 -0.40071645 -0.69654113 -0.60790586 -0.6036107 -0.10233942
-0.24238929 0.2515714 0.22433223 -0.29806268 -0.10810508 -0.15435012 0.24351543 -0.28864276
0.13608952 0.11282249 0.50101143 -0.6276088 0.54265857 -0.070929654 -0.50632286 0.3356636
-0.027745565 -0.5756577 -0.21675819 -0.16341838 0.018094057 -0.3237798 0.031010682 0.092070684
0.5693443 0.13572364 -0.51473397 0.17123495 0.40455794 -0.46888113 -0.22884 0.30101183
0.24033675 0.19754836 0.27064025 -0.117745705 -0.25382456 -0.59215057 0.51867723 -0.10968397
-0.16799223 0.293383 -0.07441866 0.406061 -0.5497733 0.15868185 -0.16296701 0.31872472
-0.14781874 -0.3161652 -0.72076756 0.4602704 0.042975787 -0.40087143 0.1016111 -0.53410965
0.08461422 -0.22992246 0.42558736 0.45551237 -0.011183666 0.021917857 -0.4554622 -0.101904325
0.81123626 -0.123444736 -0.20881838 0.20428263 0.011459215 -0.38950258 -0.19902332 -0.46947372
-0.5557658 0.082789205 -0.17413078 -0.36998197 0.31535184 -0.3539771 0.2838184 0.34743038
0.29942846 0.28810993 0.07304169 -0.28685567 0.23523146 -0.38700745 -0.20087391 0.20173854
0.3315925 -0.72163904 0.017051911 -0.110558555 -0.13976581 0.46870673 -0.29512694 -0.113907404
-0.32868496 -0.13764563 -0.22810581 -0.14576423 0.120736435 -0.4156251 0.48234436 0.11667839
0.1964924 -0.26679385 0.34294146 -0.29284433 -0.265912 -0.06181143 0.83626926 0.037035767
0.09272077 0.41472542 -0.33816838 0.6507481 0.04789653 -0.11173597 0.32697806 0.3402398
0.26052022 0.20685576 -0.057187 -0.3508666 -0.012826775 0.04875797 0.11888473 -0.48295048
-0.28268385 0.293159 0.52724653 0.59585446 -0.063927956 0.0029489081 -0.32005364 -0.3301692
0.09857661 -0.46652114 0.05477972 -0.0033158248 -0.07040971 -0.55147463 0.2679147 0.40019605
-0.026981026 0.10118766 0.10963331 -0.13129659 0.69417554 0.3518642 0.45798534 -0.58799326
0.20765038 -0.1345685 -0.26172927 0.10932516 -0.08346205 -0.2904778 -0.12214048 -0.3857959
-0.01949852 -0.3349101 0.27163061 0.04741592 -0.042748697 -0.23358531 0.5194374 0.36811495
-0.33392376 -0.6293585 -0.08990924 0.132602 0.39095777 -0.48645943 -0.34662876 -0.42684934
-0.50272673 0.28656954 -0.6250835 -0.05275232 0.5474802 0.00770569 0.13423845 0.21589267
-0.52884096 -0.11121314 -0.27974227 0.07322065 0.22498378 0.022831142 -0.15648483 0.4989797
00000000: 8bd0 e63c 4430 2a3e 0213 b4be 7a44 92bc
00000010: 8134 d1be 3adc cd3e b643 d03e 9982 94be
00000020: 017c 613a ce02 02bf 1166 0abf e56a e7be
00000030: 5e41 77be d805 51be 6c2e a8be 8b35 bd3e
00000040: 338d a5be e3c2 0fbf 6047 e93e 7905 123f
00000050: 3b6e 843e db98 19be 965a f43d 43ac 8abe
00000060: 6c0b 9cbd bb63 dd3d 4ea3 acbe 92f5 a2be
00000070: bd93 8abc 87dc 543f beed 17be a9ba 263e
00000080: c63f a13e 4a73 0ebf df6a b1bc ccae d5bb
00000090: 1c4c 3d3e c354 cf3e 0e57 4c3e ba18 b63e
000000a0: a93e 29bb 52c4 fdbd f0cf f13e 425e 80be
000000b0: 6a58 1dbf c130 66be 7925 e6be fea7 583e
000000c0: af66 61be 72df 213e 1505 a2bd 977f 31bb
000000d0: b038 853e 263a 05bf 38b2 dabe 241d 36bb
000000e0: 9543 4cbe 8aad 783e 25b3 3bbe b52a cdbe
000000f0: 8550 32bf b89f 1bbf 3b86 1abf 5497 d1bd
00000100: e634 78be f7cd 803e 59b7 653e ac9b 98be
00000110: 3266 ddbd f50d 1ebe 1c5c 793e fcc8 93be
00000120: 0d5b 0b3e 7a0f e73d 4942 003f f8aa 20bf
00000130: aceb 0a3f 9143 91bd 609e 01bf 19dc ab3e
00000140: ab4a e3bc 4e5e 13bf dcf5 5dbe 2657 27be
00000150: fd39 943c 77c6 a5be 1d0a fe3c 8e8f bc3d
00000160: 8cc0 113f 23fb 0a3e 9bc5 03bf 3758 2f3e
00000170: 3822 cf3e 3011 f0be 0855 6abe 391e 9a3e
00000180: d61a 763e 1e4a 4a3e 5c91 8a3e a924 f1bd
00000190: 4bf5 81be 2e97 17bf 08c8 043f fda1 e0bd
000001a0: 2806 2cbe 4c36 963e cf68 98bd 3ae7 cf3e
000001b0: f1bd 0cbf 7f7d 223e d3e0 26be e32f a33e
000001c0: cc5d 17be 68e0 a1be 3984 38bf 90a8 eb3e
000001d0: 6107 303d 053f cdbe 7b19 d03d 69bb 08bf
000001e0: 384a ad3d cb70 6bbe 96e6 d93e eb38 e93e
000001f0: b23b 37bc 148d b33c 5732 e9be 37b3 d0bd
00000200: 2ead 4f3f 98d0 fcbd 7cd4 55be 772f 513e
00000210: 6ebf 3b3c e26c c7be c5cc 4bbe dc5e f0be
00000220: ab46 0ebf 638d a93d 574f 32be 476e bdbe
00000230: cc75 a13e 7d3c b5be a550 913e 65e2 b13e
00000240: b04e 993e 2583 933e e296 953d bfde 92be
00000250: 84e0 703e d725 c6be e4b1 4dbe 8c94 4e3e
00000260: 7ec6 a93e 56bd 38bf 73b0 8b3c 866c e2bd
00000270: c51e 0fbe 54fa ef3e e11a 97be 4948 e9bd
00000280: 6549 a8be faf2 0cbe 9294 69be 3843 15be
00000290: aa44 f73d d0cc d4be d7f5 f63e 14f5 ee3d
000002a0: 4e35 493e 3499 88be 0696 af3e b1ef 95be
000002b0: 9e25 88be fb2d 7dbd be15 563f d1b2 173d
000002c0: 63e4 bd3d e456 d43e 6824 adbe 6d97 263f
000002d0: 272f 443d d4d5 e4bd ab69 a73e e933 ae3e
000002e0: e862 853e ffd1 533e ea3c 6abd c9a4 b3be
000002f0: 6527 52bc 70b6 473d d679 f33d 4945 f7be
00000300: f0bb 90be f018 963e a1f9 063f eb89 183f
00000310: a9ec 82bd 7842 413b 12de a3be f00b a9be
00000320: 89e2 c93d dcdb eebe b360 603d 4f4e 59bb
00000330: f732 90bd 712d 0dbf 1e2c 893e 7fe6 cc3e
00000340: 5007 ddbc 7a3b cf3d 6e87 e03d 9d72 06be
00000350: 7db5 313f 8b27 b43e 0e7d ea3e ba86 16bf
00000360: 4da2 543e 53cc 09be 6101 86be dfe5 df3d
00000370: 27ee aabd 82b9 94be ca24 fabd 0a87 c5be
00000380: 5cbb 9fbc 5679 abbe 2b13 8b3e 3237 423d
00000390: 4219 2fbd fd30 6fbe d9f9 043f 9079 bc3e
000003a0: 0ef8 aabe a31d 21bf 5622 b8bd d2c8 073e
000003b0: 9e2b c83e 3611 f9be 5379 b1be ff8b dabe
000003c0: b3b2 00bf 3eb9 923e 7905 20bf d112 58bd
000003d0: aa27 0c3f 0380 fc3b ce75 093e f812 5d3e
000003e0: 1f62 07bf b7c3 e3bd 613a 8fbe b5f4 953d
000003f0: 2662 663e 6008 bb3c 8f3d 20be 447a ff3e

body.cnns.0.bias f4 [16]
-0.13578516 0.07498004 -0.13687837 -0.028932923 -0.046604987 -0.053970087 -0.22674593 0.021800337
-0.10663691 -0.13067709 0.07824018 -0.14896126 -0.11808393 -0.055396132 0.02487019 -0.12029157
00000000: 440b 0bbe 238f 993d d829 0cbe bd04 edbc
00000010: dfe4 3ebd bd0f 5dbd 1630 68be 9f96 b23c
00000020: 7464 dabd 37d0 05be 633c a03d 4d89 18be
00000030: fdd5 f1bd 0ee7 62bd 92bc cb3c 6d5b f6bd

body.cnns.1.weight f4 [16, 16, 2, 2]
-0.023732862 0.031208841 0.032122992 0.09151162 -0.05821458 0.021916639 -0.2850744 -0.10899527
-0.026106797 -0.20346317 -0.014988076 0.11846024 -0.104647286 -0.33915746 0.2563159 0.056071423
-0.21532555 -0.21250811 -0.20874141 0.028351426 -0.1400428 0.27148673 -0.18188263 -0.49097624
0.010807253 -0.023497224 -0.032956973 -0.08927795 0.21710072 -0.06105908 -0.27919522 0.11897073
-0.39691302 0.03664578 0.1021724 -0.1748332 0.2199985 -0.13751137 -0.22498402 -0.036351785
0.05897592 -0.24704985 0.08173328 -0.2296059 0.017016008 -0.04402298 -0.48225284 -0.14380194
-0.32305825 -0.25960192 -0.18274775 -0.09340105 -0.11022041 0.093465194 0.2642165 -0.082245484
-0.39713314 -0.2542043 -0.1367498 -0.05052675 -0.0025439814 0.16016935 -0.23529235 -0.046876773
0.050772484 -0.17475085 -0.009845957 -0.03004365 0.07958409 0.09674842 -0.3306164 0.18459523
-0.08384688 0.24838117 0.11692832 0.14080471 0.020183736 0.13932407 -0.2059973 0.09043319
0.118401736 -0.14533679 0.2670042 -0.25769302 -0.10655418 0.021506708 0.407517 -0.11867462
-0.03408707 -0.23327482 -0.1847881 0.025359638 0.022782333 -0.13741693 -0.31609806 -0.15821299
-0.21608129 -0.050398648 0.3946025 0.0015032553 -0.22337021 -0.24170418 -0.15054432 -0.101402774
-0.27233672 0.10921532 -0.19902276 0.1679485 -0.13422778 -0.025365975 0.024041789 -0.08837751
0.16400298 -0.28127435 0.101458535 -0.21486923 -0.26824784 -0.19707173 -0.06643769 -0.1820365
-0.33070377 0.12522767 -0.17369513 -0.278192 -0.36496115 -0.08120611 0.24844213 -0.07903641
-0.03726486 0.00065936707 0.052599926 -0.22747184 -0.030116327 -0.17447396 -0.15790275 -0.36894196
0.018626766 0.20380875 -0.06961276 -0.26675245 -0.42216438 -0.29965612 -0.032681163 0.04207487
-0.33301193 0.14955053 -0.06499861 -0.32653537 -0.35174632 0.10506014 0.10274154 -0.20718697
0.17318892 -0.12360129 -0.4571251 0.31431475 -0.27987662 0.028075391 0.18615727 -0.0790324
0.06906607 -0.1070119 -0.025135092 0.2127728 -0.008634085 -0.12258082 0.06577882 -0.19787645
-0.18852296 -0.09008338 0.1942522 -0.048318375 0.0013052828 -0.069902636 -0.24120723 -0.104403205
0.041046273 0.2934679 -0.025709402 -0.16467446 -0.27318603 -0.056775603 0.33906257 -0.03875629
0.17990929 -0.01616529 -0.19699879 -0.12912597 0.025369952 -0.19470668 0.003396768 -0.094564565
-0.24443094 0.14162906 0.3808901 0.11701059 0.1731651 -0.24942878 -0.3215424 -0.3492627
-0.058685213 -0.15782253 0.11877992 0.09076713 -0.25522798 -0.1335897 0.10844159 -0.25888944
-0.061947342 -0.23271103 0.107727714 0.2776276 0.12035351 -0.09080716 -0.18105161 0.09541226
0.032923058 -0.32232165 0.029732341 0.0660824 0.09449818 -0.1675516 0.09808493 -0.32486105
-0.260677 0.080209054 -0.25395855 -0.13143423 -0.24029692 0.15627874 -0.29441202 -0.12901695
-0.20785339 -0.020016601 -0.078416646 -0.25177777 0.042775095 0.09489253 -0.09873486 0.019140491
-0.07168669 0.013957969 -0.1859578 0.22196865 -0.12502328 -0.118292764 -0.13503338 -0.2510297
-0.0440087 -0.19621524 -0.12103769 -0.011736589 0.033622853 -0.3261854 0.38559946 0.086644344
00000000: 6b6b c2bc afa9 ff3c 6693 033d 726a bb3d
00000010: 6972 6ebd 868a b33c 46f5 91be ea38 dfbd
00000020: ecdd d5bc a658 50be 8c90 75bc 489b f23d
00000030: 5151 d6bd 0ca6 adbe d63b 833e 26ab 653d
00000040: 4d7e 5cbe ba9b 59be 4fc0 55be 4041 e83c
00000050: 6167 0fbe 4f00 8b3e 713f 3abe 3d61 fbbe
00000060: e810 313c 407d c0bc e4fd 06bd 5cd7 b6bd
00000070: a74f 5e3e 1619 7abd adf2 8ebe eda6 f33d
00000080: 2f38 cbbe e319 163d c33f d13d 7907 33be
00000090: 4947 613e c8cf 0cbe 3662 66be 9ce5 14bd
000000a0: bc90 713d a3fa 7cbe c763 a73d cf1d 6bbe
000000b0: 2865 8b3c 7151 34bd d8e9 f6be d140 13be
000000c0: e467 a5be 8bea 84be 3a22 3bbe 0d49 bfbd
000000d0: 3dbb e1bd ae6a bf3d 6347 873e 5270 a8bd
000000e0: 0955 cbbe 1127 82be 2408 0cbe 23f5 4ebd
000000f0: edb8 26bb 6f03 243e 7af0 70be dc01 40bd
00000100: cff6 4f3d e3f1 32be f050 21bc 1a1e f6bc
00000110: fcfc a23d 0924 c63d 8e46 a9be 8806 3d3e
00000120: eab7 abbd a257 7e3e 1d78 ef3d 1c2f 103e
00000130: 5d58 a53c f8aa 0e3e f5f0 52be 0935 b93d
00000140: 9c7c f23d 2bd3 14be c6b4 883e 57f0 83be
00000150: 1439 dabd d62e b03c 11a6 d03e ae0b f3bd
00000160: e29e 0bbd 98df 6ebe 1739 3dbe 04bf cf3c
00000170: 04a2 ba3c 06b7 0cbe 9bd7 a1be 9602 22be
00000180: 6a44 5dbe d06e 4ebd 5709 ca3e e108 c53a
00000190: 29bb 64be 4d81 77be 4a28 1abe 42ac cfbd
000001a0: b86f 8bbe 48ac df3d 9fcc 4bbe b1fa 2b3e
000001b0: 0273 09be 4ecc cfbc 49f3 c43c 45ff b4bd
000001c0: 66f0 273e 3103 90be 7ec9 cf3d ae06 5cbe
000001d0: c857 89be 2ccd 49be 7c10 88bd c767 3abe
000001e0: 0152 a9be af3b 003e 23dd 31be 2f6f 8ebe
000001f0: 30dc babe 644f a6bd 9d67 7e3e d7dd a1bd
00000200: 0aa3 18bd 60d9 2c3a 0573 573d 61ee 68be
00000210: 84b6 f6bc 4da9 32be 42b1 21be f6e5 bcbe
00000220: 2997 983c 3eb3 503e 2291 8ebd c793 88be
00000230: ee25 d8be 876c 99be afdc 05bd b356 2c3d
00000240: 8a80 aabe c623 193e fe1d 85bd a52f a7be
00000250: 1818 b4be c529 d73d 286a d23d d228 54be
00000260: 7058 313e ac22 fdbd 4d0c eabe dded a03e
00000270: fd4b 8fbe 5dfe e53c 03a0 3e3e bddb a1bd
00000280: 8372 8d3d 0e29 dbbd 1ce8 cdbc 1de1 593e
00000290: fa75 0dbc a70b fbbd 0cb7 863d 20a0 4abe
000002a0: 2a0c 41be a37d b8bd 0cea 463e 7de9 45bd
000002b0: 0616 ab3a 1d29 8fbd 07ff 76be 59d1 d5bd
000002c0: 2320 283d 6d41 963e 869c d2bc 6ca0 28be
000002d0: 0adf 8bbe 898d 68bd 9c99 ad3e eabe 1ebd
000002e0: 243a 383e 126d 84bc 0dba 49be 9939 04be
000002f0: a5d4 cf3c 3061 47be 4f9c 5e3b 11ab c1bd
00000300: 1b4c 7abe 3507 113e 0704 c33e 40a3 ef3d
00000310: 3152 313e 426a 7fbe 35a1 a4be 90d2 b2be
00000320: e85f 70bd 3b9c 21be e342 f33d 1ee4 b93d
00000330: 3ead 82be bdcb 08be a016 de3d 288d 84be
00000340: 7fbc 7dbd cd4b 6ebe 59a0 dc3d 3425 8e3e
00000350: e77b f63d 1bf9 b9bd 9865 39be 8167 c33d
00000360: 54da 063d 5807 a5be 3d91 f33c 3656 873d
00000370: 4388 c13d a692 2bbe c0e0 c83d 3054 a6be
00000380: 7577 85be a544 a43d db06 82be b296 06be
00000390: 6510 76be 8907 203e 2cbd 96be 051d 04be
000003a0: 85d7 54be dbf9 a3bc e898 a0bd 04e9 80be
000003b0: f034 2f3d 0457 c23d 8135 cabd 85cc 9c3c
000003c0: 79d0 92bd f7af 643c b96b 3ebe c04b 633e
000003d0: 1a06 00be 7a43 f2bd 3146 0abe f786 80be
000003e0: 7742 34bd a6ec 48be 9ce2 f7bd d24a 40bc
000003f0: 1eb8 093d c601 a7be 4b6d c53e 9772 b13d

body.cnns.1.bias f4 [16]
-0.08319792 -0.011723863 -0.11210585 -0.09751609 -0.1020136 -0.06681197 -0.18398555 -0.05151628
-0.10547772 -0.047581892 -0.07804171 -0.040134687 -0.102575146 -0.12353213 -0.0590565 -0.11563241
00000000: ac63 aabd 7215 40bc c097 e5bd 84b6 c7bd
00000010: 82ec d0bd b7d4 88bd b566 3cbe bc02 53bd
00000020: b404 d8bd 3be5 42bd 55d4 9fbd 4564 24bd
00000030: eb12 d2bd 6afe fcbd 3be5 71bd afd0 ecbd

body.fc.weight f4 [128, 784]
-0.07502838 -0.010762085 -0.03521435 -0.049514975 0.036449473 -0.030030124 0.024758339 -0.05631071
0.012510839 0.026765028 0.021479813 -0.07048673 0.0543825 0.057499044 -0.06570556 -0.0409492
0.009762823 -0.10808239 -0.05766509 -0.061618637 0.061632123 -0.10963833 -0.025890082 -0.03417211
-0.11186398 0.0984928 -0.057054453 -0.010299952 0.06587239 0.03296151 -0.04907606 -0.0933906
-0.013137196 -0.0660954 -0.0037965572 -0.017968863 0.050724063 0.07327157 -0.0918345 -0.042275358
0.09230953 0.03970688 0.017310001 -0.015781105 -0.0022052447 0.009372147 -0.016270008 0.032986253
-0.062768735 0.019503046 -0.059647273 -0.096189305 0.015445437 -0.0063700634 -0.06730763 0.037895586
-0.029578906 0.018486189 0.0073796688 0.016782679 0.015452543 -0.06724339 -0.04632893 -0.020267101
-0.024380999 -0.04227923 0.0028538494 -0.120671466 0.053519547 -0.123509765 0.014808808 0.046246335
-0.05447099 0.046679802 -0.028856171 0.022909425 -0.0028173486 -0.037144165 0.050187815 -0.005110987
-0.032741312 0.10206721 0.0063969237 -0.13654467 -0.0836537 0.012925758 0.011885879 0.09148022
0.0048708497 -0.089703456 -0.029580995 -0.07540334 -0.024365101 0.00055744284 0.06860122 0.05349247
-0.009622915 0.092733234 -0.087438844 0.033292204 -0.023198862 -0.06466919 -0.05905663 -0.104761615
-0.03525231 -0.084442295 -0.053673368 -0.004762558 0.021338362 -0.0052928925 -0.012400173 0.020882148
-0.05136975 -0.017677518 -0.06243761 0.014288208 -0.034596816 0.09548977 -0.04861565 -0.042177267
-0.023655854 -0.03229678 -0.059220433 0.03649522 0.021366324 -0.07390909 0.06084299 -0.0064108097
-0.023613688 -0.04098921 -0.002672357 0.055675134 -0.0847017 -0.11636601 -0.024326637 -0.12098156
-0.11019386 0.09564068 -0.017662335 -0.102363564 -0.044831045 0.014866708 0.0030203809 0.0011010497
-0.0049417433 -0.018217942 -0.021921668 0.008628313 -0.03332215 -0.051025856 0.07465346 0.03484259
-0.06589312 -0.04208265 -0.05866444 0.013160917 -0.08515691 0.029623158 -0.03295436 -0.043349013
-0.06250531 -0.06940433 0.03311044 -0.06687704 -0.034965865 -0.050634544 0.020233605 -0.0474988
-0.034634497 0.06881122 -0.04310752 -0.019194767 -0.10926258 -0.09145451 -0.064875335 -0.018119007
-0.0016143587 -0.021722453 -0.0059032748 0.048500273 -0.09987449 0.016153893 -0.023415465 -0.0793532
-0.06813916 -0.0026337255 0.05591127 0.025512164 0.04950531 0.009437064 -0.023895008 -0.009412418
0.03789334 -0.058621213 -0.046888366 0.0013301828 -0.09063811 0.0023949656 -0.043472297 -0.13956194
0.018776083 -0.008936972 -0.06460239 -0.02156541 -0.12791786 -0.036781568 -0.08487644 -0.04673193
-0.06917367 -0.031627413 -0.012547381 0.026180977 -0.09374691 -0.0007892014 0.07968816 -0.056238182
-0.08290686 -0.045488015 0.007164115 -0.020198807 0.069581814 0.14087065 -0.079673804 -0.08337034
0.0035769152 -0.0004934905 -0.11413447 0.013010379 0.03662906 -0.042384274 -0.0048478455 -0.08583138
0.054647855 -0.022950793 -0.10210083 -0.018958168 0.0033574544 0.013988498 -0.011568929 -0.020603128
-0.068454504 0.014911279 -0.08961069 -0.026357435 0.008328485 -0.012202177 -0.026659133 -0.057791118
0.06848106 -0.04263803 -0.039831433 0.033400103 -0.011148662 -0.019851653 0.0069522024 0.04594497
00000000: 7ba8 99bd 7553 30bc ec3c 10bd 37d0 4abd
00000010: 0b4c 153d bc01 f6bc 00d2 ca3c 0fa6 66bd
00000020: 43fa 4c3c 5542 db3c 6ff6 af3c 595b 90bd
00000030: 2fc0 5e3d 1e84 6b3d a390 86bd 59ba 27bd
00000040: 3ff4 1f3c 4d5a ddbd 3b32 6cbd d363 7cbd
00000050: f771 7c3d 108a e0bd 7017 d4bc 0ef8 0bbd
00000060: f118 e5bd 98b6 c93d eeb1 69bd 21c1 28bc
00000070: 1be8 863d a602 073d fb03 49bd 9243 bfbd
00000080: 653d 57bc 065d 87bd a9cf 78bb 7033 93bc
00000090: 09c4 4f3d 680f 963d ba13 bcbd ed28 2dbd
000000a0: c70c bd3d aea3 223d b4cd 8d3c 6047 81bc
000000b0: de85 10bb a28d 193c ae48 85bc 981c 073d
000000c0: e58c 80bd dac4 9f3c b350 74bd e6fe c4bd
000000d0: dc0e 7d3c f7bb d0bb 95d8 89bd 6738 1b3d
000000e0: 764f f2bc 5970 973c 26d1 f13b d47b 893c
000000f0: aa2c 7d3c e7b6 89bd 67c3 3dbd 3107 a6bc
00000100: a9ba c7bc fc2c 2dbd a607 3b3b 9a22 f7bd
00000110: 5037 5b3d b0f2 fcbd a5a0 723c cc6c 3d3d
00000120: f91c 5fbd 5233 3f3d c763 ecbc 8cac bb3c
00000130: 44a3 38bb 7b24 18bd bd91 4d3d 117a a7bb
00000140: c11b 06bd 9d08 d13d 499d d13b 5ed2 0bbe
00000150: a252 abbd 8fc6 533c fdbc 423c fb59 bb3d
00000160: a69b 9f3b 72b6 b7bd d853 f2bc 116d 9abd
00000170: 5299 c7bc 5b21 123a cc7e 8c3d ec1a 5b3d
00000180: 6ea9 1dbc ecea bd3d 2313 b3bd 685d 083d
00000190: 8a0b bebc 4871 84bd 5de5 71bd 428d d6bd
000001a0: ba64 10bd 15f0 acbd 9bd8 5bbd 3b0f 9cbb
000001b0: cacd ae3c 0070 adbb 182a 4bbc 0a11 ab3c
000001c0: 1669 52bd 71d0 90bc 94be 7fbd 1719 6a3c
000001d0: 64b5 0dbd 2490 c33d 3421 47bd 12c2 2cbd
000001e0: ecc9 c1bc a149 04bd 2091 72bd 037c 153d
000001f0: 6e08 af3c a65d 97bd 8036 793d c511 d2bb
00000200: 7e71 c1bc 4de4 27bd b622 2fbb 9c0b 643d
00000210: 1678 adbd 4d51 eebd a848 c7bc 2ec5 f7bd
00000220: 52ad e1bd 43df c33d 9ab0 90bc fda3 d1bd
00000230: c2a0 37bd 7e93 733c 95f1 453b 1951 903a
00000240: 59ee a1bb cb3d 95bc 1295 b3bc c55d 0d3c
00000250: cf7c 08bd 7d00 51bd eae3 983d 1bb7 0e3d
00000260: f9f2 86bd db5e 2cbd 204a 70bd e3a0 573c
00000270: bf66 aebd 44ac f23c 27fb 06bd bc8e 31bd
00000280: c902 80bd db23 8ebd d09e 073d d4f6 88bd
00000290: 5e38 0fbd 2b66 4fbd f2c0 a53c 1a8e 42bd
000002a0: e7dc 0dbd e6ec 8c3d 8391 30bd 583e 9dbc
000002b0: 0fc5 dfbd 814c bbbd 5cdd 84bd 506e 94bc
000002c0: e498 d3ba 49f3 b1bc 4270 c1bb 39a8 463d
000002d0: ff8a ccbd 2b55 843c cad1 bfbc ee83 a2bd
000002e0: 8b8c 8bbd 959a 2cbb 3703 653d e3fe d03c
000002f0: 14c6 4a3d ea9d 1a3c 77bf c3bc 8b36 1abc
00000300: 0c36 1b3d cc1c 70bd 040e 40bd 8759 ae3a
00000310: 79a0 b9bd dbf4 1c3b 0210 32bd 53e9 0ebe
00000320: 4dd0 993c 616c 12bc 424e 84bd f1a9 b0bc
00000330: e6fc 02be 45a8 16bd b3d3 adbd fb69 3fbd
00000340: edaa 8dbd bf8b 01bd 8893 4dbc 7d79 d63c
00000350: 61fe bfbd 69e2 4eba 8c33 a33d 025a 66bd
00000360: 12cb a9bd a451 3abd f4c0 ea3b f877 a5bc
00000370: e980 8e3d 6540 103e 052c a3bd 12be aabd
00000380: ae6a 6a3b 965d 01ba 55bf e9bd 7c29 553c
00000390: 5a08 163d 229b 2dbd adda 9ebb 5dc8 afbd
000003a0: 6ed6 5f3d 4d03 bcbc 3d1a d1bd 294e 9bbc
000003b0: bd08 5c3b 0330 653c 9b8b 3dbc e4c7 a8bc
000003c0: e031 8cbd 704e 743c cf85 b7bd 8ceb d7bc
000003d0: 3374 083c a4eb 47bc 4164 dabc 61b6 6cbd
000003e0: cc3f 8c3d 37a5 2ebd 4926 23bd 8cce 083d
000003f0: e1a8 36bc ef9f a2bc 4dcf e33b cb30 3c3d

body.fc.bias f4 [128]
-0.036089417 -0.022286367 -0.022291716 -0.06432011 0.12183387 0.18380643 -0.04679333 -0.081724845
0.1391644 -0.035043873 -0.03723162 0.047033366 -0.028278219 -0.051510774 -0.06429346 -0.047605354
0.119377255 0.032055277 0.17153275 -0.034917466 -0.023284512 -0.056694347 -0.022688093 -0.0027513022
-0.0016917054 -0.039932583 0.015948674 -0.07916883 -0.0346052 -0.019969141 -0.03564473 0.024741737
0.0024006902 -0.026534233 -0.025927091 -0.02281998 0.08577593 -0.076096416 0.12898587 0.04147617
-0.078267135 -0.038146082 0.09313687 0.33762994 -0.022866098 -0.043330215 -0.04481467 -0.06030808
-0.05905751 -0.049589887 -0.01593517 -0.03959336 0.015167601 -0.013722816 -0.043366686 -0.0073565524
0.025020925 -0.051756784 -0.09233511 -0.0544783 -0.042429596 -0.03936804 -0.019845076 -0.027229417
-0.07367372 -0.046669036 -0.08921886 -0.041501034 0.009697921 0.0068695364 -0.046927594 -0.019998465
0.03268089 -0.0016925659 -0.059390176 -0.057187088 -0.03573535 0.025129944 -0.046745304 -0.027538888
-0.020197319 -0.0049642734 -0.038253624 -0.038656954 0.050281126 -0.03441705 -0.016269516 -0.04999216
-0.0465088 0.12162459 -0.05948457 -0.07970148 -0.021352282 -0.051635906 -0.06282465 0.08880814
-0.036774278 -0.039815668 -0.040422957 -0.03495111 -0.027981147 -0.03671657 -0.039079044 -0.07680586
0.08561519 -0.065502755 -0.07197794 -0.0014315158 0.074588485 -0.053367503 -0.02254084 -0.055163402
-0.039964378 -0.044477448 -0.055900935 -0.009161518 -0.036163077 0.06787342 -0.047349423 0.12488385
-0.008820025 -0.07437412 -0.03644299 -0.017811313 0.038839526 0.049671464 -0.0009273804 -0.07063643
00000000: 7fd2 13bd e691 b6bc 1e9d b6bc 43ba 83bd
00000010: 0984 f93d c137 3c3e 5daa 3fbd 5b5f a7bd
00000020: 1d81 0e3e 2a8a 0fbd 2f80 18bd 0fa6 403d
00000030: b9a7 e7bc f6fc 52bd 4aac 83bd d5fd 42bd
00000040: 107c f43d 654c 033d 48a6 2f3e 9e05 0fbd
00000050: 29bf bebc 5538 68bd 61dc b9bc 314f 34bb
00000060: 37bc ddba 5990 23bd cba6 823c 4423 a2bd
00000070: 2fbe 0dbd 5396 a3bc 3500 12bd 2faf ca3c
00000080: e654 1d3b 525e d9bc 0d65 d4bc f7f0 babc
00000090: 4aab af3d 70d8 9bbd df14 043e ebe2 293d
000000a0: 854a a0bd 113f 1cbd 8bbe be3d d5dd ac3e
000000b0: af51 bbbc 067b 31bd 968f 37bd 9b05 77bd
000000c0: 4ae6 71bd c41e 4bbd 798a 82bc a62c 22bd
000000d0: 8881 783c a9d5 60bc 44a1 31bd 3c0f f1bb
000000e0: aff8 cc3c ecfe 53bd 311a bdbd a324 5fbd
000000f0: a8ca 2dbd 6240 21bd 2492 a2bc 3a10 dfbc
00000100: 3fe2 96bd 0828 3fbd 61b8 b6bd fdfc 29bd
00000110: 07e4 1e3c d919 e13b 2637 40bd d2d3 a3bc
00000120: 66dc 053d 16d9 ddba 1d43 73bd 023d 6abd
00000130: 3b5f 12bd 50dd cd3c 0178 3fbd 3c99 e1bc
00000140: d974 a5bc 58ab a2bb d5af 1cbd c156 1ebd
00000150: 95f3 4d3d e5f8 0cbd a647 85bc 94c4 4cbd
00000160: 0380 3ebd 5016 f93d 18a6 73bd 883a a3bd
00000170: fbea aebc 2c80 53bd 36aa 80bd 0be1 b53d
00000180: a0a0 16bd c115 23bd 8b92 25bd e528 0fbd
00000190: b838 e5bc 1d64 16bd 5911 20bd 644c 9dbd
000001a0: 0457 af3d 4f26 86bd 2c69 93bd b3a1 bbba
000001b0: d9c1 983d e297 5abd 91a7 b8bc 05f3 61bd
000001c0: b0b1 23bd fc2d 36bd 61f8 64bd 311a 16bc
000001d0: bc1f 14bd 3801 8b3d 78f1 41bd 1bc3 ff3d
000001e0: de81 10bc 7551 98bd 3f45 15bd 08e9 91bc
000001f0: 3216 1f3d 4e74 4b3d 721b 73ba d5a9 90bd

actor_head.fc.weight f4 [16, 128]
-0.013155892 -0.02051763 -0.01599593 -0.0706462 -0.022648534 0.0005273899 0.002290096 0.0066020577
0.011990114 -0.0036506602 -0.08231074 0.013693931 -0.04915236 0.023657823 -0.057563618 -0.020484474
0.0031659391 0.013146439 0.020184128 -0.019393414 0.016129147 0.00073040545 -0.018952461 -0.02138172
0.032161113 0.00076527125 -0.017995229 -0.004188478 -0.021599015 0.019897303 0.028570836 0.020388858
-0.057865944 -0.06356392 -0.018036896 -0.0013536651 -0.047672447 -0.019877044 0.005868838 -0.00066472526
-0.018404674 -0.0018560711 -0.004745842 0.019927435 -0.018376712 -0.017640986 -0.020053709 -0.016694503
-0.019645242 -0.026920991 -0.08846193 -0.0185873 0.057321236 0.008011264 -0.018475696 -0.02256233
0.039360568 -0.009322116 0.021682257 -0.013644635 0.012443248 0.021354768 0.0021107164 -0.10841331
-0.018569376 -0.013968925 -0.0013021796 -0.020283805 -0.11280879 0.04051032 -0.003372706 -0.02126204
0.005224821 0.050073612 -0.00066695747 -0.02015698 0.04272445 0.080471635 -0.027157549 0.013554083
0.030194793 -0.075172536 -0.030023903 0.030643951 0.03688508 0.13120152 -0.019243175 -0.008833173
-0.0013270834 -0.068100356 0.007872183 -0.01175997 -0.019012777 -0.019958934 0.00067639805 0.03185954
-0.01697534 -0.0017701834 -0.021044679 0.016323 0.004826911 -0.033212952 -0.00013077674 -0.022633197
-0.033659905 -0.019830067 -0.00029630208 -0.04030353 0.0758831 -0.021232557 -0.029330121 -0.019520536
-0.02041098 -0.034556728 -0.020656157 -0.01956689 -0.01936974 0.039953515 0.003942596 -0.00837018
-0.015667109 -0.0013571149 0.035717208 -0.019961102 -0.008384386 -0.01380268 0.07656195 -0.0042957477
0.054023314 0.07787538 0.01468661 0.15292032 -0.06253597 -0.13791145 -0.026145758 0.024978597
0.003908795 0.047593255 0.005100671 0.10019687 0.03680535 -0.016424365 0.020018958 0.036963217
0.1401665 0.024992896 -0.0004769232 -0.019178258 0.059933536 -0.005721713 0.07122553 0.019870136
-0.0139985075 -0.0007193265 -0.021220312 0.061021455 0.016564563 -0.0203209 0.0069994964 0.07859431
0.06555708 0.06902076 0.025844596 0.012236705 -0.103978075 0.022698617 0.0010646627 -0.019160341
0.02104769 0.05612092 0.0823712 -0.13139212 -0.019342704 -0.00057675433 0.020540545 0.03335453
0.0584055 0.021253165 0.06980691 -0.019652395 -0.056484405 -0.06808837 0.072609425 0.020288678
0.099564455 0.015902836 0.0279886 -0.020246336 -0.02046992 -0.02029456 -0.0008700372 0.04830789
0.028137514 0.006353721 0.04705983 0.02001085 0.0011690184 0.037232254 -0.036425125 -0.020413656
0.034995057 0.083328746 -0.0007920284 0.020276697 -0.002048414 0.09164501 0.00955848 0.00693848
-0.026553001 0.10036693 0.0077980147 -0.048201103 -0.03288877 0.024130812 -0.015778426 0.06366808
0.025884263 -0.13307905 0.027377589 0.05513241 0.020645525 0.019753424 0.049960796 0.014111436
0.029272683 -0.0002630842 0.018435864 0.02871133 0.035325825 -0.025541443 -0.0009936248 0.03341388
0.0004692514 0.018941762 -0.040389325 0.05227306 0.016725156 0.018508734 0.026077898 0.02004521
0.02066969 -0.05262232 0.02375892 -0.018630067 0.017582048 0.12285382 0.036646094 0.053713974
0.03936132 0.04905858 -0.028073084 -0.01925776 -0.054440364 -0.036409196 0.0547151 0.050669376
00000000: cf8b 57bc 9714 a8bc e609 83bc f4ae 90bd
00000010: 6b89 b9bc 8940 0a3a 6f15 163b 1356 d83b
00000020: 2f72 443c ea3f 6fbb 8992 a8bd 825c 603c
00000030: fc53 49bd 0dce c13c d4c7 6bbd 0ecf a7bc
00000040: a57b 4f3b 2964 573c 2f59 a53c f0de 9ebc
00000050: 4621 843c ae78 3f3a 3142 9bbc b828 afbc
00000060: 5fbb 033d 7c9c 483a bb6a 93bc 803f 89bb
00000070: 6bf0 b0bc abff a23c 630d ea3c 8906 a73c
00000080: d704 6dbd cd2d 82bd 1dc2 93bc 776d b1ba
00000090: 2f44 43bd 2fd5 a2bc 624f c03b f540 2eba
000000a0: 66c5 96bc 6947 f3ba 0283 9bbb dc3e a33c
000000b0: c28a 96bc d483 90bc ad47 a4bc e9c2 88bc
000000c0: 0fef a0bc 6989 dcbc 872b b5bd 6544 98bc
000000d0: acc9 6a3d ad41 033c 585a 97bc a3d4 b8bc
000000e0: 8c38 213d cabb 18bc fd9e b13c bf8d 5fbc
000000f0: c4de 4b3c 32f0 ae3c f253 0a3b cc07 debd
00000100: ce1e 98bc ebdd 64bc e6ad aaba 392a a6bc
00000110: 4b08 e7bd 26ee 253d 9e08 5dbb bb2d aebc
00000120: fa34 ab3b fd19 4d3d c2d6 2eba 4020 a5bc
00000130: d5ff 2e3d 50ce a43d 8279 debc f211 5e3c
00000140: 125b f73c 0ff4 99bd b0f4 f5bc 0609 fb3c
00000150: cf14 173d b159 063e dda3 9dbc 03b9 10bc
00000160: 88f1 adba 3378 8bbd 54fa 003c e4ac 40bc
00000170: afc0 9bbc eb80 a3bc 4e50 313a 267f 023d
00000180: de0f 8bbc 8005 e8ba e465 acbc d0b7 853c
00000190: 102b 9e3b 4e0a 08bd 1d21 09b9 4169 b9bc
000001a0: f8de 09bd aa72 a2bc fe58 9bb9 5015 25bd
000001b0: 9968 9b3d e6ef adbc b945 f0bc 88e9 9fbc
000001c0: ed34 a7bc 5b8b 0dbd 1a37 a9bc be4a a0bc
000001d0: 4aad 9ebc 4ca6 233d e430 813b 1423 09bc
000001e0: 4f58 80bc 38e1 b1ba 354c 123d 7785 a3bc
000001f0: aa5e 09bc a324 62bc 83cc 9c3d 58c3 8cbb
00000200: 8d47 5d3d 217d 9f3d 1ba0 703c 2597 1c3e
00000210: dc12 80bd a938 0dbe a12f d6bc ea9f cc3c
00000220: 5915 803b 25f1 423d 8823 a73b 0434 cd3d
00000230: 35c1 163d 648c 86bc ccfe a33c be66 173d
00000240: cf87 0f3e e7bd cc3c 8c0b fab9 b91b 9dbc
00000250: de7c 753d 357d bbbb b1de 913d b2c6 a23c
00000260: ff59 65bc 2f91 3cba 38d6 adbc a2f1 793d
00000270: 68b2 873c 0478 a6bc 085c e53b 0ef6 a03d
00000280: ca42 863d c25a 8d3d 0cb8 d33c 767c 483c
00000290: 75f2 d4bd 73f2 b93c 278c 8b3a 26f6 9cbc
000002a0: 356c ac3c 0ddf 653d 3bb2 a83d a88b 06be
000002b0: 9774 9ebc 5431 17ba a544 a83c c29e 083d
000002c0: 9b3a 6f3d 1e1b ae3c edf6 8e3d 0ffe a0bc
000002d0: 315c 67bd ea71 8bbd 40b4 943d 7134 a63c
000002e0: 73e8 cb3d aa46 823c 5948 e53c a5db a5bc
000002f0: 89b0 a7bc c740 a6bc 3513 64ba 7ede 453d
00000300: a580 e63c e032 d03b cfc1 403d cbed a33c
00000310: c039 993a d980 183d 8332 15bd 8a3a a7bc
00000320: fa56 0f3d 43a8 aa3d 20a0 4fba 511b a63c
00000330: af3e 06bb 61b0 bb3d 2c9b 1c3c 305c e33b
00000340: ae85 d9bc 2d8d cd3d 7d86 ff3b 856e 45bd
00000350: 60b6 06bd fbad c53c c241 81bc 6964 823d
00000360: 3c0b d43c e045 08be f746 e03c 86d2 613d
00000370: ce20 a93c efd1 a13c b1a3 4c3d a733 673c
00000380: 44cd ef3c 90ee 89b9 cf06 973c 0634 eb3c
00000390: d0b1 103d 4a3c d1bc 843c 82ba fedc 083d
000003a0: db05 f639 c12b 9b3c 476f 25bd 471c 563d
000003b0: 3203 893c a19f 973c 51a1 d53c da35 a43c
000003c0: 7b53 a93c 808a 57bd 11a2 c23c 159e 98bc
000003d0: 3a08 903c c99a fb3d 371a 163d 2f03 5c3d
000003e0: 5639 213d a6f1 483d 86f9 e5bc 73c2 9dbc
000003f0: dcfc 5ebd cf21 15bd f11c 603d b18a 4f3d

actor_head.fc.bias f4 [16]
0.008567517 0.045638036 -0.11811301 0.067309335 -0.02990971 0.05825604 0.054792963 -0.028038159
0.038103282 0.018301995 -0.028416824 0.014469646 -0.013944561 -0.053931385 -0.1880085 0.12605326
00000000: c55e 0c3c f3ee 3a3d 3ce5 f1bd 7ad9 893d
00000010: 3505 f5bc e39d 6e3d 966e 603d 48b0 e5bc
00000020: 3012 1c3d 11ee 953c 66ca e8bc 1812 6d3c
00000030: ba77 64bc 28e7 5cbd 4d85 40be 1b14 013e

qo_head.fc.weight f4 [4, 128]
0.06487 0.027771546 -0.047247496 0.04842564 0.030583782 0.14001119 -0.009131303 0.060431976
0.11707694 0.109944336 0.06831287 0.015932897 -0.10864559 -0.05673257 0.105533876 -0.075485475
0.054422945 0.08157231 0.041652247 0.09068937 -0.014882104 -0.003998675 0.0067737005 -0.09788835
0.19138488 -0.030805163 0.030339532 0.17279708 -0.039797887 0.046293203 -0.0018776169 -0.04161456
0.008607104 0.07290912 0.1506516 0.07090506 0.13492358 -0.06408124 0.039872564 0.0052134558
-0.10457871 0.041736156 0.056399956 0.13166171 -0.1303746 0.048095755 0.031763703 0.0889242
-0.040182535 0.04694905 0.067969605 -0.20705582 0.06053369 0.041186627 -0.024076348 0.023912508
0.045034718 -0.045915682 -0.020805709 0.101587676 0.00599582 0.0036395593 0.06591015 0.024426015
0.015706224 -0.1422685 0.0426699 -0.0485944 0.057194177 -0.007696461 -0.031021543 0.030333377
-0.0048243627 0.09715707 -0.07503845 0.21604796 0.09562754 0.12281017 -0.09923995 0.10530879
-0.07319147 0.027332155 -0.042356256 -0.12860751 0.009369601 0.02501303 0.10092426 0.0058714477
-0.027872836 0.11987917 -0.051928345 0.011448093 -0.11805504 0.009465251 -0.0136540625 0.04732492
-0.08810372 0.028372584 -0.08118737 0.008278558 -0.10898824 0.064538755 -0.1469482 0.10842237
0.0057548215 0.19682282 -0.10870582 -0.11456664 0.1029698 -0.038780376 -0.06991821 0.11742972
-0.12883589 -0.11531352 0.030403951 0.09984256 0.037079815 0.13168284 0.06199508 0.07678937
0.0536225 0.036253147 -0.07678924 0.079982 0.0040054326 -0.0046693617 -0.018153252 0.029238176
-0.008351855 0.032148767 -0.07851016 0.051001836 0.05063297 0.10378724 -0.053147532 0.06250213
0.0030030815 0.15708181 -0.03818699 0.0045250515 0.00046779602 0.08613217 0.07360677 0.05677245
0.04516988 0.031881854 0.11639886 -0.11308163 0.014822392 0.075588405 0.08997911 0.035982314
0.0147512555 -0.10423568 0.018575966 -0.019947829 -0.054278746 0.024132349 0.031063367 -0.032028247
0.003643191 -0.1709653 -0.08620037 0.036056824 0.0061537432 0.09451536 0.11694503 0.032939777
0.045380846 0.04441266 0.008520829 0.09456264 -0.034812387 0.02607283 -0.16699642 -0.16430584
0.03700596 -0.15780742 -0.033406086 0.009596405 0.02210043 0.076416515 -0.20290236 -0.05659676
0.13242693 -0.13742651 0.010317192 0.029057572 0.08341683 0.006699013 0.021073587 0.03824178
0.096561365 -0.024854131 0.02238723 -0.09237668 0.05647781 0.03485571 -0.16795497 -0.025269426
0.02091901 0.014772625 0.06527536 -0.07424178 -0.04259285 0.11433341 -0.03422046 0.015317662
0.027413554 0.0251498 -0.025010392 -0.005947571 -0.007624073 0.12468169 -0.04820964 0.17445435
0.06400761 0.15615986 -0.06522104 0.02195552 -0.11098903 -0.02794259 0.11053579 0.040025663
0.000822973 0.02331323 -0.03930232 0.02097904 0.023419483 -0.013637028 -0.08292833 0.0737865
0.044325724 0.010071789 -0.12839815 -0.056478467 0.06878519 -0.027283223 0.058851305 0.042463068
-0.15451035 0.06431053 -0.03274276 0.14301111 -0.091126926 0.06796174 -0.123304896 0.0013370368
0.10418028 0.08040608 0.041500654 -0.12629674 0.009338561 0.14195403 0.11143095 -0.02807045
00000000: 90da 843d 2781 e33c 9786 41bd f759 463d
00000010: d78a fa3c 185f 0f3e 769b 15bc 8587 773d
00000020: 09c6 ef3d 7f2a e13d 9ee7 8b3d b585 823c
00000030: 9481 debd 6960 68bd 2522 d83d 2198 9abd
00000040: 98ea 5e3d 620f a73d 8c9b 2a3d 59bb b93d
00000050: 11d4 73bc 5107 83bb ebf5 dd3b b079 c8bd
00000060: 66fa 433e 1c5b fcbc 9c8a f83c b8f1 303e
00000070: 1c03 23bd f19d 3d3d 5e1a f6ba 0774 2abd
00000080: d004 0d3c 6051 953d 6a44 1a3e ac36 913d
00000090: 6829 0a3e 063d 83bd 6a51 233d a3d5 aa3b
000000a0: 5d2d d6bd 88f3 2a3d a403 673d 54d2 063e
000000b0: eb80 05be 0e00 453d a81a 023d e41d b63d
000000c0: 7196 24bd a64d 403d a633 8b3d 7106 54be
000000d0: 2df2 773d 4fb3 283d c33b c5bc 2ae4 c33c
000000e0: 5376 383d 1512 3cbd bc70 aabc 330d d03d
000000f0: 9578 c43b ac85 6e3b e7fb 863d 1119 c83c
00000100: 57aa 803c d5ae 11be a2c6 2e3d ec0a 47bd
00000110: 7144 6a3d 9832 fcbb e420 febc b47d f83c
00000120: b015 9ebb 49fa c63d c2ad 99bd ad3b 5d3e
00000130: 5fd8 c33d e683 fb3d 513e cbbd 23ac d73d
00000140: 69e5 95bd afe7 df3c c17d 2dbd b0b1 03be
00000150: f482 193c 20e8 cc3c 61b1 ce3d 4665 c03b
00000160: 9355 e4bc 3683 f53d d1b2 54bd c890 3b3c
00000170: d7c6 f1bd 2414 1b3c 4ab5 5fbc c6d7 413d
00000180: b96f b4bd 9f6d e83c 9045 a6bd caa2 073c
00000190: 3a35 dfbd e52c 843d 9779 16be 8c0c de3d
000001a0: f192 bc3b ec8b 493e 28a1 debd eaa1 eabd
000001b0: d5e1 d23d 2cd8 1ebd 4731 8fbd fe7e f03d
000001c0: 8eed 03be 7f29 ecbd b511 f93c 427a cc3d
000001d0: 01e1 173d ded7 063e 8eee 7d3d bf43 9d3d
000001e0: 44a3 5b3d 2e7e 143d ad43 9dbd 9acd a33d
000001f0: 0140 833b 7201 99bb 21b6 94bc e684 ef3c
00000200: 38d6 08bc 6dae 033d efc9 a0bd 4de7 503d
00000210: 8464 4f3d 688e d43d 3ab1 59bd 1e01 803d
00000220: 59cf 443b 0eda 203e f669 1cbd e246 943b
00000230: 8542 f539 1066 b03d 25bf 963d 3b8a 683d
00000240: 0d04 393d 8c96 023d 8762 ee3d 5797 e7bd
00000250: 9ed9 723c 18ce 9a3d f846 b83d 3162 133d
00000260: 40af 713c 8479 d5bd a02c 983c a169 a3bc
00000270: 6453 5ebd 34b1 c53c 9a78 fe3c 0d30 03bd
00000280: 9ac2 6e3b 8711 2fbe d289 b0bd 52b0 133d
00000290: 57a5 c93b 4591 c13d e080 ef3d dceb 063d
000002a0: 44e1 393d 0dea 353d f29a 0b3c 0faa c13d
000002b0: 6f97 0ebd b096 d53c 1c01 2bbe ca3f 28be
000002c0: 9093 173d 4598 21be d2d4 08bd 3d3a 1d3c
000002d0: f60b b53c 4380 9c3d a3c5 4fbe 01d2 67bd
000002e0: ed9a 073e 89b9 0cbe 7109 293c 250a ee3c
000002f0: 71d6 aa3d 6583 db3b 84a2 ac3c 6aa3 1c3d
00000300: f7c1 c53d e49a cbbc 6d65 b73c fc2f bdbd
00000310: 4755 673d dcc4 0e3d 63fc 2bbe d401 cfbc
00000320: 585e ab3c e108 723c 17af 853d 130c 98bd
00000330: d775 2ebd a327 ea3d c12a 0cbd eef6 7a3c
00000340: 6492 e03c f406 ce3c 98e2 ccbc d7e3 c2bb
00000350: 5cd3 f9bb 1d59 ff3d 7977 45bd 29a4 323e
00000360: 6c16 833d 5fe8 1f3e 9c92 85bd 10dc b33c
00000370: 374e e3bd dce7 e4bc 9760 e23d f3f1 233d
00000380: c8bc 573a 63fb be3c 78fb 20bd 3cdc ab3c
00000390: 37da bf3c d76d 5fbc 54d6 a9bd 601d 973d
000003a0: e48e 353d 2504 253c ce7a 03be f755 67bd
000003b0: 40df 8c3d 1181 dfbc 110e 713d c1ed 2d3d
000003c0: f637 1ebe 3db5 833d 461d 06bd 8171 123e
000003d0: c1a0 babd 862f 8b3d 4787 fcbd 833f af3a
000003e0: 785c d53d f1ab a43d 97fc 293d ef53 01be
000003f0: c400 193c 665c 113e e935 e43d 00f4 e5bc

qo_head.fc.bias f4 [4]
0.07916286 0.05509935 0.022507306 0.21866012
00000000: 2320 a23d dbaf 613d 3e61 b83c 70e8 5f3e

beta_head.fc.weight f4 [4, 128]
0.032006714 -0.28861302 -0.07441567 -0.3411731 0.1565386 -0.19733678 -0.03289291 0.119996816
1.3164995e-05 -0.11934756 0.0941747 -0.05653159 -0.0783808 -0.05607754 -0.15202953 0.08536837
-0.26214105 0.12278889 0.055436548 0.0016933075 0.0043515125 0.1662395 0.0628481 0.14197971
-0.12782246 0.04211852 0.08768041 -0.17530052 0.10422444 -0.02226449 -0.15411706 -0.07457319
0.02709151 0.10139033 0.062288906 0.08509625 0.07236603 0.07203496 -0.11117944 0.0233786
-0.052120615 -0.069832146 -0.12659408 -0.05070497 -0.0889308 -0.10776767 0.06320805 0.059550323
-0.033391237 0.025187198 0.0810395 0.119816 0.083120346 -0.10522884 0.06503144 -0.054060888
-0.06203231 0.033063903 0.031057134 0.09586941 -0.11836506 0.083751835 0.049566932 -0.10304036
-0.083276674 -0.005728908 0.025244353 0.1385472 -0.090487465 0.1478771 -0.058040664 0.10342405
0.038514163 -0.023619454 -0.05270802 0.04346717 0.06592272 -0.19676602 -0.009088378 0.0044340403
0.053976618 -0.13574776 -0.06888594 -0.12401286 -0.03172369 -0.16875471 -0.12271552 -0.102719866
-0.009532279 0.16192427 0.12644568 0.087603785 0.04273601 -0.105473936 0.11896885 0.2031603
-0.1575698 0.13224605 -0.028658254 0.06271917 0.18761352 0.07814864 0.08549111 -0.06376309
0.008476239 -0.15371525 -0.07513267 -0.05349079 0.02138277 0.014674002 0.076629035 0.08363873
0.097904444 -0.01666178 0.055260073 -0.09132005 -0.05945881 -0.19899787 -0.026301501 -0.24378334
-0.064591974 0.09964597 -0.0418835 -0.10026617 -0.018974287 -0.032024488 0.0738625 0.103581704
0.041343264 -0.15320367 -0.055347867 -0.09615934 0.03123474 -0.055879362 0.063318476 -0.00559894
0.078153916 0.014382521 -0.06349901 -0.09659619 -0.010897611 0.026375553 -0.15049133 0.093704514
0.008387551 -0.088081524 0.0778638 -0.008102289 0.0541935 -0.09306615 -0.051701166 0.27137896
0.16028754 -0.06341558 0.06944554 0.24893953 -0.024182312 -0.023044053 -0.06897234 -0.25409397
0.20029588 -0.0013927965 -0.04079565 -0.20813948 0.1539348 -0.09609878 0.005028764 -0.2116429
0.027109826 0.111610234 -0.020146847 -0.15805125 0.06891651 -0.08712535 0.04343893 0.10565182
0.033268053 -0.0123166405 0.021881482 0.057060853 -0.011260983 -0.14676948 0.13474037 -0.040381096
-0.07706222 0.062095664 -0.10167428 0.039617214 0.060172375 -0.07174132 -0.030393094 -0.11131538
-0.04101815 0.049584128 -0.01926101 -0.08596897 -0.048523284 -0.22047389 0.17577468 -0.0046207164
-0.09370669 0.039827164 -0.037432633 0.046235252 0.07164262 -0.3135093 0.0023551043 0.060408026
0.06664776 -0.08895254 0.08351215 -0.04570289 0.13366671 -0.12988766 0.003854192 0.118584424
-0.056238577 -0.18044709 -0.051898904 0.011281485 -0.16096348 0.07244531 0.11648319 0.17089106
0.09037187 -0.023181155 -0.0263471 0.029055849 0.0076898457 -0.14595075 0.054597247 0.01193961
0.05938582 0.21830754 0.020750856 0.056538805 0.14554554 0.03139315 0.089947805 0.059937604
-0.08964517 0.07025029 0.15009214 0.047450583 0.023125406 -0.003894522 0.10425938 0.013815684
0.07824939 -0.008084858 -0.10283888 0.13083377 -0.039435286 -0.025148619 -0.14851484 0.10592541
00000000: 7919 033d 16c5 93be 3e67 98bd 3eae aebe
00000010: a84b 203e a712 4abe b7ba 06bd e4c0 f53d
00000020: 39df 5c37 7e6c f4bd aade c03d ab8d 67bd
00000030: 1d86 a0bd 90b1 65bd a1ad 1bbe 9dd5 ae3d
00000040: 5a37 86be be78 fb3d 6f11 633d f9f1 dd3a
00000050: 2297 8e3b b03a 2a3e 81b6 803d 2163 113e
00000060: e4e3 02be 7884 2c3d c991 b33d fb81 33be
00000070: a073 d53d 0564 b6bc ddd0 1dbe d4b9 98bd
00000080: 04ef dd3c bca5 cf3d a722 7f3d f146 ae3d
00000090: a434 943d 1187 933d 0cb2 e3bd 7a84 bf3c
000000a0: 6d7c 55bd 2804 8fbd e1a1 01be 04b0 4fbd
000000b0: 5a21 b6bd 4cb5 dcbd 3973 813d 0aeb 733d
000000c0: 40c5 08bd 6255 ce3c 0af8 a53d 1762 f53d
000000d0: 003b aa3d 3882 d7bd 342f 853d f36e 5dbd
000000e0: 9715 7ebd 046e 073d 886b fe3c 2e57 c43d
000000f0: 6169 f2bd 1586 ab3d b206 4b3d d306 d3bd
00000100: f68c aabd 90b9 bbbb 3fcd ce3c 51df 0d3e
00000110: 7e51 b9bd 186d 173e 0cbc 6dbd fdcf d33d
00000120: 07c1 1d3d 967d c1bc 5de4 57bd a20a 323d
00000130: 7e02 873d 087d 49be 6ce7 14bc 6d4b 913b
00000140: 9616 5d3d 7601 0bbe 1214 8dbd 74fa fdbd
00000150: b3f0 01bd 09ce 2cbe 4652 fbbd cb5e d2bd
00000160: 472d 1cbc 7acf 253e fa7a 013e 9d69 b33d
00000170: f40b 2f3d b802 d8bd f1a5 f33d 4109 503e
00000180: fa59 21be 826b 073e b7c4 eabc e872 803d
00000190: c21d 403e 650c a03d f715 af3d 3996 82bd
000001a0: ecdf 0a3c 8867 1dbe 28df 99bd 2919 5bbd
000001b0: eb2a af3c 3a6b 703c afef 9c3d c84a ab3d
000001c0: 2082 c83d 497e 88bc 6358 623d 0206 bbbd
000001d0: 158b 73bd 19c6 4bbe 3f76 d7bc 57a2 79be
000001e0: cc48 84bd 3013 cc3d 088e 2bbd 5a58 cdbd
000001f0: f76f 9bbc 1c2c 03bd 3945 973d a522 d43d
00000200: 8e57 293d 6ce1 1cbe 72b4 62bd 30ef c4bd
00000210: ffdf ff3c c2e1 64bd 1ead 813d 5077 b7bb
00000220: 290f a03d aaa4 6b3c c50b 82bd 39d4 c5bd
00000230: e58b 32bc 8b11 d83c 661a 1abe 27e8 bf3d
00000240: f06b 093c 1664 b4bd 0e77 9f3d 77bf 04bc
00000250: 01fa 5d3d 7799 bebd 9ac4 53bd 2ff2 8a3e
00000260: 6b22 243e 07e0 81bd 7739 8e3d 01ea 7e3e
00000270: fc19 c6bc e2c6 bcbc 5f41 8dbd 9b18 82be
00000280: 5d1a 4d3e 7f8e b6ba 5719 27bd 8422 55be
00000290: 16a1 1d3e 70cf c4bd 54c8 a43b ebb8 58be
000002a0: 6d15 de3c e893 e43d 000b a5bc 30d8 21be
000002b0: 1924 8d3d c76e b2bd 05ed 313d fb5f d83d
000002c0: 1544 083d bccb 49bc cb40 b33c a4b8 693d
000002d0: fc7f 38bc bd4a 16be 61f9 093e a666 25bd
000002e0: ccd2 9dbd 0658 7e3d 9b3a d0bd a945 223d
000002f0: 4f77 763d 1ded 92bd f0fa f8bc 51f9 e3bd
00000300: a602 28bd ba18 4b3d 44c9 9dbc 8010 b0bd
00000310: 5ac0 46bd e8c3 61be 47fe 333e 6169 97bb
00000320: 4be9 bfbd cf21 233d f652 19bd 2d61 3d3d
00000330: 5eb9 923d 4a84 a0be 1858 1a3b 686e 773d
00000340: 9f7e 883d c02c b6bd 6b08 ab3d f432 3bbd
00000350: eddf 083e 4501 05be 9d96 7c3b 64dc f23d
00000360: 6c5a 66bd 1fc7 38be f293 54bd fad5 383c
00000370: 9cd3 24be 355e 943d bd8e ee3d 11fe 2e3e
00000380: e314 b93d 68e6 bdbc e0d5 d7bc 8806 ee3c
00000390: 1afb fb3b 1d74 15be 5da1 5f3d 5b9e 433c
000003a0: 8c3e 733d 038c 5f3e b3fd a93c 3c95 673d
000003b0: e409 153e 1b96 003d 8e36 b83d 2281 753d
000003c0: e397 b7bd 62df 8f3d c1b1 193e 8b5b 423d
000003d0: 7e71 bd3c 3d3b 7fbb f185 d53d 2e5b 623c
000003e0: 3741 a03d 5a76 04bc 319d d2bd 4af9 053e
000003f0: e586 21bd 7a04 cebc 4614 18be 6cef d83d

beta_head.fc.bias f4 [4]
-0.06183262 -0.04839172 -0.028085807 -1.1468338
00000000: 3444 7dbd 6536 46bd 3514 e6bc 73cb 92bf

_po_xs.fc.weight f4 [4, 128]
-0.037017584 -0.086999 0.13826658 0.06558101 0.015470086 0.10174833 0.1141448 0.0002755192
-0.03017922 0.0059057698 -0.034136016 -0.23694523 0.04326972 0.012751678 0.052931048 -0.057618644
-0.06451309 0.10126544 0.06680126 0.13215789 -0.12636416 -0.09051931 -0.009113402 0.06059363
-0.039424337 -0.03587772 -0.16929422 -0.024553237 0.10268573 -0.079348765 0.10223695 -0.049493004
0.0691571 0.010174925 -0.052944914 0.038322087 -0.090599105 0.10524309 0.06308783 0.027571049
-0.06400711 0.09064672 0.030256031 -0.1818437 0.055742335 0.029464938 0.06683824 -0.09929135
-0.07733105 -0.12909773 -0.14617988 0.0017040453 -0.121399455 0.123478666 -0.091755554 -0.12007278
0.0904819 0.10247826 -0.04595286 -0.1630473 0.020542271 -0.0887293 -0.120354004 0.017669458
-0.17753014 0.015653709 -0.21096377 -0.007869848 -0.07667834 -0.031479705 -0.0764906 -0.009772586
-0.024609039 -0.062343065 -0.06315527 -0.10403365 -0.009581482 -0.020836083 -0.059278358 0.0011533705
0.08388319 -0.03859041 -0.09492607 -0.117159314 -0.07206897 -0.014985728 0.0061925063 0.1566021
-0.027742166 -0.073217794 -0.073483676 0.04678362 -0.013080801 0.08723054 -0.0062148483 -0.103741474
0.20217636 -0.0046774247 -0.09659989 -0.10024325 -0.18535699 0.08272946 -0.031233767 0.09210166
-0.09015459 0.01709712 0.012581921 -0.0522789 0.086875625 -0.103066735 -0.15165184 0.078448825
-0.05162276 0.1277443 0.004616899 0.09098164 0.07682219 -0.0860397 0.08025083 0.016918115
-0.0776683 0.13548446 0.06377267 -0.08830418 -0.05454974 0.10832414 0.08226681 0.07586033
0.023407705 0.113883756 -0.051347867 0.0021859158 0.029425241 0.15115091 -0.20649283 0.13860966
0.12716345 -0.02312081 -0.18166113 0.008914963 -0.009808241 -0.082770295 0.0723165 0.052483115
0.07739665 0.19131808 -0.15017717 0.042547483 -0.038257 0.07424213 -0.03906384 0.07429127
0.05670124 -0.06713502 -0.06988156 -0.15143374 0.017298989 -0.036692582 -0.017938908 0.02248104
-0.0029822842 0.16614674 0.0804399 -0.14426254 0.06830753 -0.047866266 0.12691343 0.034472704
-0.009115798 0.050405778 0.13645288 0.12005048 -0.0017956798 0.07603957 0.12065139 0.006067063
-0.10232224 -0.07024654 -0.02145083 0.0017164423 -0.020854872 -0.11114249 -0.032650273 0.048025504
-0.09177076 -0.16155034 -0.040512018 0.067631334 -0.030131858 0.1761373 -0.069905125 -0.026797168
-0.07527851 -0.041373182 0.10938075 -0.032566268 0.010148277 -0.004945228 -0.050996944 0.09893109
0.05137178 0.23355624 0.15825403 0.040414512 0.09883866 0.14956085 0.1211059 0.030633135
-0.008395205 -0.03879638 -0.110082306 0.11591141 0.0073187393 0.013013821 0.16820276 0.011700871
-0.15026797 0.098284364 0.027494919 0.048778355 -0.058861945 0.054443754 -0.03426468 0.01087986
0.030455241 -0.042099334 -0.07992816 0.055141743 -0.1628214 -0.06384272 0.050057396 -0.06081602
-0.0016555712 0.0992806 -0.12677291 0.013194447 0.0034438092 0.064647295 -0.15732521 -0.1073962
0.0534417 0.11056921 0.008651855 0.1721352 -0.03641748 -0.023344904 0.12049671 -0.031030754
-0.056689143 0.07027726 -0.04498547 0.011435178 -0.019371578 0.09534568 -0.0556327 0.07194081
00000000: c09f 17bd 882c b2bd c195 0d3e 564f 863d
00000010: 3e76 7d3c 6e61 d03d c0c4 e93d 9073 9039
00000020: 693a f7bc 3085 c13b 35d2 0bbd c5a1 72be
00000030: 973b 313d 6aec 503c 3ace 583d 8701 6cbd
00000040: 701f 84bd 4164 cf3d 19cf 883d 6654 073e
00000050: 9b65 01be 3062 b9bd 6150 15bc 0731 783d
00000060: 6a7b 21bd 84f4 12bd 775b 2dbe df23 c9bc
00000070: e54c d23d 9b81 a2bd 9b61 d13d 2db9 4abd
00000080: 3da2 8d3d bbb4 263c c4dc 58bd 9ff7 1c3d
00000090: 068c b9bd b089 d73d 3134 813d aedc e13c
000000a0: 2916 83bd fda4 b93d 7fdb f73c 3c35 3abe
000000b0: 1352 643d 7460 f13c 7de2 883d 4359 cbbd
000000c0: be5f 9ebd 3232 04be 2eb0 15be 465a df3a
000000d0: 47a0 f8bd 62e2 fc3d 56ea bbbd b8e8 f5bd
000000e0: 934e b93d 1fe0 d13d 1139 3cbd dff5 26be
000000f0: 4448 a83c b5b7 b5bd 297c f6bd 8abf 903c
00000100: 76ca 35be 353c 803c e306 58be 89f0 00bc
00000110: 8909 9dbd ddf0 00bd 1ba7 9cbd 321d 20bc
00000120: e598 c9bc 715b 7fbd 8d57 81bd 980f d5bd
00000130: a6fb 1cbc 6fb0 aabc ddcd 72bd b12c 973a
00000140: f3ca ab3d fa10 1ebd 9968 c2bd 39f1 efbd
00000150: e598 93bd b386 75bc 82ea ca3b 4d5c 203e
00000160: 8a43 e3bc 36f3 95bd 9c7e 96bd 2ea0 3f3d
00000170: db50 56bc eda5 b23d eda5 cbbb 6976 d4bd
00000180: 5207 4f3e 1545 99bb 2ad6 c5bd 554c cdbd
00000190: 39ce 3dbe 106e a93d f5dd ffbc cc9f bc3d
000001a0: f8a2 b8bd 420f 8c3c 6724 4e3c 6622 56bd
000001b0: d9eb b13d a714 d3bd 9f4a 1bbe c7a9 a03d
000001c0: 6372 53bd 67cf 023e 5b49 973b 9554 ba3d
000001d0: f454 9d3d 9535 b0bd 8c5a a43d dc97 8a3c
000001e0: 8f10 9fbd 70bc 0a3e 3f9b 823d d2d8 b4bd
000001f0: 8c6f 5fbd 0cd9 dd3d 807b a83d a95c 9b3d
00000200: 84c1 bf3c e33b e93d 2452 52bd 9541 0f3b
00000210: 340d f13c 4ec7 1a3e db72 53be b1ef 0d3e
00000220: 2337 023e da67 bdbc 6005 3abe 1110 123c
00000230: bfb2 20bc 7983 a9bd ac1a 943d 89f8 563d
00000240: 2382 9e3d e3e8 433e 0bc8 19be 4546 2e3d
00000250: 5fb3 1cbd 420c 983d 6801 20bd 0526 983d
00000260: 8f3f 683d 167e 89bd 101e 8fbd 7211 1bbe
00000270: 9cb6 8d3c f64a 16bd 9ef4 92bc 282a b83c
00000280: 6d72 43bb 5f22 2a3e adbd a43d 8fb9 13be
00000290: d1e4 8b3d 6b0f 44bd 98f5 013e 4033 0d3d
000002a0: 6e5a 15bc 4a76 4e3d 4eba 0b3e 07dd f53d
000002b0: 045d ebba a2ba 9b3d 1318 f73d 37ce c63b
000002c0: 538e d1bd 6bdd 8fbd a7b9 afbc 3ffa e03a
000002d0: d6d7 aabc ac9e e3bd 4bbc 05bd 64b6 443d
000002e0: 4ff2 bbbd 746d 25be eeef 25bd 4c82 8a3d
000002f0: 16d7 f6bc 565d 343e 6b2a 8fbd bc85 dbbc
00000300: 9f2b 9abd ed76 29bd 0403 e03d 3564 05bd
00000310: f544 263c 940b a2bb 2ce2 50bd 629c ca3d
00000320: 376b 523d 5e29 6f3e 580d 223e b089 253d
00000330: ec6b ca3d 7b26 193e 5f06 f83d 57f2 fa3c
00000340: 0b8c 09bc f4e8 1ebd d572 e1bd f662 ed3d
00000350: 09d2 ef3b ec37 553c 583d 2c3e 03b5 3f3c
00000360: d9df 19be 5049 c93d 063d e13c d0cb 473d
00000370: 3919 71bd 6a00 5f3d 1f59 0cbd 7141 323c
00000380: 457d f93c 5a70 2cbd 60b1 a3bd 4fdc 613d
00000390: a7ba 26be f9bf 82bd fc08 4d3d 381a 79bd
000003a0: c0ff d8ba a153 cb3d c2d0 01be 862d 583c
000003b0: 88b1 613b cd65 843d dc19 21be 8af2 dbbd
000003c0: afe5 5a3d 1c72 e23d 83c0 0d3c 3644 303e
000003d0: 7f2a 15bd d03d bfbc fbc6 f63d 3534 febc
000003e0: e032 68bd 86ed 8f3d af42 38bd 9d5a 3b3c
000003f0: 25b1 9ebc 9944 c33d 1ddf 63bd b455 933d

_po_xs.fc.bias f4 [4]
0.0 0.0 0.0 0.0
00000000: 0000 0000 0000 0000 0000 0000 0000 0000
