trained-models/our-ppoc-mujoco-billiard.pth (torch_old, 244286 bytes, 63 tensors)

body.layers.0.weight f4 [64, 10]
00000000: 4acd ebbd d373 6a3e 422e f53e 485e 1b3e
00000010: bb19 5cbe 865f e4bd 27c7 2f3e 6a1b 743d
00000020: df4b 0a3c 3bc9 7cbe 6220 1abc ef07 0abe
00000030: 3ac4 0c3d 1aa7 053d 23a7 5abc 0235 debd
00000040: fa4b cabd ec82 433d 8086 5c3d a5ed 2abe
00000050: 26c0 60be 1929 943d 3968 80be 472b 293e
00000060: 75e3 27be 5ff5 c23d 0262 f93c bbcf 963c
00000070: f370 14bc d73c 21be b9ec 08be 5bf7 babd
00000080: 4542 603e 6c32 04bd 6517 ae3d 1374 21bc
00000090: 747b 113d b0d3 1ebc 3260 47bd 07a5 8d3d
000000a0: a425 33be dbb6 6cbb ea5c 82be ac4b 86be
000000b0: b4a9 4ebe a651 19be ec36 bbbd 5e2c a9bd
000000c0: 93f5 42bd 7a12 89be f671 30be d014 c53c
000000d0: 1fb0 85be e389 f93d 1c83 c8bd e6ab 6abc
000000e0: 98b2 62bd 4c32 a6bd f9ea 80bd bbac ae3c
000000f0: 7643 3b3c 31ec 9a3d d3db 423d 804c 01bd
00000100: 9619 68be c34e 64bd 426c 1e3e 9e15 283e
00000110: de60 793b 1c40 9cbe 8880 5bbe 3050 8ebd
00000120: 1e0c 303e 2398 0cbe 63e2 3cbe 411d 80be
00000130: ddf2 c93c 264e f13d 62fc c33b 1c82 113d
00000140: 9eed 3b3e c341 d63d a726 be3a 051f f13d
00000150: 0f69 f1bc 0c78 dabc 5f46 f53d d4cf 753c
00000160: 0419 be3d 6bcc 703e 1db9 ddbd 1719 a3bd
00000170: eb13 1ebf 146e d3bd 7d79 473d 6d7f 4cbe
00000180: 3555 453d 9e1c d3bd 40fb 15bd 131f bdbd
00000190: 0eb4 703d b7c5 143d d614 c8bc abdd afbe
000001a0: 74ea b03e 1fde 443d 7e6b 8fbd 19b3 de3d
000001b0: 62c9 4a3d a326 ecbd 4b78 8f3d 0cc3 f73d
000001c0: f918 6bbe d878 833b b140 8cbd d285 cfbd
000001d0: 2320 9bbd d3c8 3abd bbe5 dabc be84 e2be
000001e0: a2e8 6cbc 9126 1d3d c04c c8bd e547 903e
000001f0: ef96 a9be 13f5 c33c 81d6 da3d 8317 34bc
00000200: 9f47 513c 831c d13e c079 a63b 87da b6bd
00000210: d4c9 bbbc 5869 833e 05b9 26be 7122 90bd
00000220: a3dc e3bd f81e a9bc 3eb9 6dbd e873 003f
00000230: 726a 34be b944 9c3a 50d0 923e c887 a7bd
00000240: 8fa3 debe d60e 84be dd06 683c 1837 1c3d
00000250: 4361 b6bc 9917 7cbe d390 21be 2bdd d7bd
00000260: 35af 18be 9677 9e3d 1e8c 6f3e e4c1 e3bd
00000270: 5f65 05bd 5760 823d d81c adbc bef6 9ebe
00000280: 4232 3dbe 6162 243e 111b 8c3d 1263 19be
00000290: 651e 563e 3e89 f43c 88ce 9b3b b293 953c
000002a0: 58c5 0c3c 0674 03be 2ab4 90bc 5ecc f3bb
000002b0: b997 253d e910 89bd 0d39 7c3e 5a31 92bd
000002c0: 729b 45be 9f26 9a3c 28e4 023d 33e4 093f
000002d0: 42ea 9bbe baf3 f4bd 5608 5e3e b1c7 ce3d
000002e0: a5fe 55be e5b2 19be 7520 edbc a491 003d
000002f0: 4ec7 85bb 5a95 da3c 2daf 1e3e b7c7 593d
00000300: 666a d23e 5677 19be 4b2a e8bd 6b63 863d
00000310: 291f 403d 9f35 8f3d 61b2 7f3d e1bb 903c
00000320: 696a 4d3e 453a 363d 0aa0 253d 158c 59be
00000330: 40a3 0bbe a5c0 d73d 894d c93d 5404 b2bd
00000340: 2768 9dbc 30ae 45be 1ec0 a03e 3dd1 7e3e
00000350: 7d92 ab3d 6cca ddbd ec1d babc 3e97 72be
00000360: 4fbf 22bd 1168 6ebd b6c4 543c 012a 033c
00000370: dd35 dcbe 079b 6a3d 2eee f1be 394f debc
00000380: 5028 23be 7f34 903d 4a68 a2bd 7d5c 2dbd
00000390: e949 863d c95d 6e3e d6f0 423e 8146 3dbd
000003a0: 8bae 8dbd 5990 353d 4a61 45be d7a1 9d3c
000003b0: 9adf d03d fdcf 163c 271b f9bc af23 da3e
000003c0: 4640 01bd df2b c8bc 3771 a7bc c070 a9bc
000003d0: 4a47 053e 8c22 f6bd fec4 18bc b9d7 753d
000003e0: 49bb 8e3e 252b 093e 4258 b23d e3a8 82bd
000003f0: 688a 67be 1429 6dbe e3fb 3f3d f994 923b
-0.11513765 0.22895746 0.47886854 0.15172684 -0.2149419 -0.11151032 0.17165814 0.059596457
0.008440941 -0.24686138 -0.009407135 -0.13479589 0.034366824 0.032630064 -0.013345513 -0.10849954
-0.09877773 0.04773228 0.053839207 -0.16692217 -0.21948299 0.07234401 -0.25079516 0.16520415
-0.16395362 0.09519457 0.030442242 0.0184096 -0.009060132 -0.15745865 -0.13371553 -0.091292106
0.2190028 -0.03227465 0.08500556 -0.009854334 0.035518125 -0.009694025 -0.048675723 0.06916242
-0.17494828 -0.0036119733 -0.25461513 -0.26229608 -0.20181924 -0.14972553 -0.09141335 -0.082604155
-0.04759748 -0.2677191 -0.17230973 0.024057776 -0.26110932 0.12184503 -0.09790632 -0.01432321
-0.0553461 -0.08115062 -0.062948175 0.021322599 0.011429658 0.07564581 0.047572922 -0.031567097
-0.2266601 -0.055739176 0.15470985 0.16414496 0.0038052122 -0.30517662 -0.2143575 -0.06948888
0.17192122 -0.1372991 -0.18445735 -0.2502232 0.024651939 0.11782484 0.005981014 0.035524473
0.18352363 0.10461762 0.0014507369 0.11773495 -0.029469041 -0.026668571 0.11976313 0.015003163
0.09282115 0.2351548 -0.10826323 -0.0796377 -0.6174914 -0.1032373 0.048699845 -0.19970484
0.048176963 -0.10308193 -0.036616564 -0.092344426 0.058765464 0.036321368 -0.024423998 -0.34348807
0.34553874 0.048063394 -0.070029244 0.10874004 0.04950846 -0.11530807 0.07005366 0.12097749
-0.22958745 0.0040122084 -0.068482764 -0.10132946 -0.07574489 -0.045601677 -0.026720872 -0.442419
-0.014459761 0.038366858 -0.09780264 0.2817985 -0.33122966 0.023920571 0.106854446 -0.010991934
0.012773423 0.40842065 0.0050804317 -0.089283995 -0.022923388 0.25666308 -0.16281517 -0.07037819
-0.111260675 -0.02064465 -0.05803799 0.5017686 -0.1761873 0.0011922336 0.28674555 -0.08180195
-0.4348416 -0.2579257 0.014161793 0.03813848 -0.022263175 -0.24618377 -0.15777902 -0.10540231
-0.14910586 0.07737653 0.23393294 -0.11120966 -0.032567378 0.063660316 -0.021131918 -0.31047624
-0.18476203 0.16053154 0.068411 -0.14979199 0.20910032 0.029850598 0.004754845 0.018258903
0.008591972 -0.12837228 -0.017664034 -0.007440134 0.040427897 -0.066926785 0.24631138 -0.07138319
-0.19297579 0.018817244 0.031955868 0.5386383 -0.30452162 -0.1196055 0.21682867 0.10096682
-0.2089792 -0.15009649 -0.02894614 0.031388894 -0.004082597 0.026682544 0.15496512 0.05316898
0.410968 -0.1498693 -0.11336192 0.06561931 0.046904717 0.06992649 0.062425975 0.017667713
0.20060124 0.044489164 0.04043583 -0.21244843 -0.13636494 0.10534791 0.09829242 -0.08692232
-0.019214703 -0.19304729 0.31396574 0.24884506 0.0837755 -0.108296245 -0.022719346 -0.23690507
-0.039733227 -0.058204714 0.012986353 0.00800562 -0.43009844 0.05727675 -0.4725203 -0.027137386
-0.15933347 0.07041263 -0.07930048 -0.04232453 0.06557066 0.23277964 0.19037184 -0.046209816
-0.06918057 0.044327114 -0.19275394 0.01924221 0.101988986 0.009204862 -0.030408455 0.4260535
-0.031555437 -0.024434982 -0.020439727 -0.020683646 0.13015476 -0.12018308 -0.00932431 0.060020182
0.27877262 0.13395365 0.0870824 -0.06379869 -0.22611392 -0.23160201 0.046871077 0.0044733253

body.layers.0.bias f4 [64]
00000000: 7bd6 283c 22cb 9f3c d60e 173e 8029 443c
00000010: d2be 20be e5d9 57bd c9a7 a03d b653 c6bd
00000020: 8d4f 89bd 36a2 0fbe 1dc4 df3d 893b 453e
00000030: f7a3 0abf 5326 f9bd 0bd5 573e 4f04 1a3e
00000040: f213 88bd 894f 013e 9124 763e 1bd7 eebb
00000050: 545a edbb bbcf 013e 805f ca3e 36f8 80bd
00000060: 1c70 58ba 39c1 973d 0612 09bd ba3c 79bd
00000070: b52c a33e 9521 813e d102 cb3c 650b 933e
00000080: 9ccb 36bf 5fdb 80bd 48e9 c13e 98ca e9bd
00000090: cdb1 e9bd ecad 2d3d 9ead 333e a0d2 8e3d
000000a0: 67d5 c33d f90b 583e ca11 bf3e 9bfd a3be
000000b0: c495 443e 6b1e 02bd 4693 a6bd 5043 d53e
000000c0: 4a1f fa3e 0811 82bc d533 c7bd af5a 003e
000000d0: b142 973e c52f 8dbe 5968 02be f106 16be
000000e0: ecb9 27bd 004b 97bc 1316 12bd 5d15 7cbd
000000f0: 0d83 e9bd 8c7c 173e d6fb 003e 02fa f13d
0.010305042 0.019506041 0.14751753 0.011972785 -0.15697792 -0.052698035 0.078445025 -0.09683935
-0.06704626 -0.14026722 0.109260775 0.19260992 -0.5415644 -0.12165513 0.21077363 0.15040706
-0.06644429 0.12627997 0.24037386 -0.007288826 -0.007243434 0.12676899 0.39525986 -0.062973425
-0.00082564517 0.07409901 -0.033464454 -0.06084893 0.31870046 0.25220934 0.024781616 0.2871963
-0.71404433 -0.06291842 0.37873292 -0.11415595 -0.11410866 0.042402193 0.17546698 0.06973767
0.09562188 0.21098317 0.3731826 -0.32029423 0.19197756 -0.03176729 -0.08133559 0.41652918
0.48851997 -0.015877262 -0.09726683 0.12534593 0.2954307 -0.27575508 -0.12735118 -0.14651085
-0.040948793 -0.01846838 -0.035665583 -0.06154381 -0.11401949 0.14793605 0.12596068 0.11815263

body.layers.1.weight f4 [64, 64]
00000000: 4e07 42be 7a03 92bd 10e1 9dbd 970f 083d
00000010: 3a4f fabc 300c be3c e681 6abd cf8a abbd
00000020: 2fb1 313e 76a2 7abe 7f89 a83d e130 f53d
00000030: 9c91 3f3b 58dd af3d b8a4 1fbd 47e4 c73d
00000040: bafc 21bd f474 8f3d 61c9 d6bd d7ea 2a3e
00000050: 1e67 68bd dd95 a03d 1a62 1cbc 345d 3d3c
00000060: 26be e9bd 470c cbbd 3a98 0dbe ca12 0bbd
00000070: 7c09 28be 8218 223b f0ef bd3b f5bb 23be
00000080: 6943 6fbe b1c0 0cbe 83e1 e33d bdfe d1bd
00000090: f061 7dbe 5d65 41be 19b3 99bd d549 0bbe
000000a0: ead4 dd3b d6b5 813d cc22 173e 8892 c6bd
000000b0: 4510 28be 258b 17be 1c8b 97be 34da 35be
000000c0: c030 75bc 1c5c a1be b323 34be 8b2b 74be
000000d0: e2ce ec3b 35d2 0fbb 3024 363d 5151 cabc
000000e0: ef01 9b3d bfca c4be 144d 7ebd 7816 ff3d
000000f0: 1731 a3bd 66ca 55bc 20fe 523d 9012 523d
00000100: 0394 86be 2be8 b8bc 9d57 e03e e20b acbb
00000110: 9495 ab3d ee42 aabe 6202 09bc b8b3 003d
00000120: 6a9e edbd f226 babe c6f8 5d3e 905f 813e
00000130: 7a8c 123e 01c0 493e 5d9a 153e f7fe 1a3d
00000140: 224c e13c 1c9b 3d3d 29f7 693e 11db b1be
00000150: 7e36 64be 33ab 93bd 086b fe3e 345f 393b
00000160: 4308 ad3d 4832 083e 2190 ef3d a398 dabd
00000170: 252f 443b e2a9 e3bd de16 c2bd c3bb 1ebd
00000180: c875 1abe 1dd2 05bc 4ee8 19bd b0e6 fd3d
00000190: afe9 163e 8159 953e ba00 953d 9435 0bbe
000001a0: 30bc 65be c129 8b3e 7e15 ea3e c55d 9f3e
000001b0: 3d43 aa3e 4e69 953d 1591 b3bd eebb 7c3e
000001c0: 1b4a 1e3f 43e3 8cbe 1efe 89be 8a6f 193e
000001d0: f4e0 c63d e55e adbe 412e bb3c 157e 343e
000001e0: a6a8 86be f50d 263e e2a1 f6be 0903 c1bd
000001f0: b01f 91be bab5 913e b0d4 283e 64af ee3d
00000200: 45ed e93e ced7 d1bc 12ed 40be 373d 443e
00000210: f0a8 babd bbb5 a53c 588a e037 660b e4bc
00000220: 7a83 a2be f28e 4f3e 92b7 30be 18b6 46be
00000230: 752f 5fbe 75f9 ef3d 4560 183e 4520 c73c
00000240: 21d0 c03d 3940 b73d 1566 933e b45e 4f3e
00000250: 0074 3d3d 0172 9abd 0f4b adbe ee39 893d
00000260: 3477 823e 4572 27be 3264 d33d e972 74bd
00000270: bc77 db3d 1cd3 563e 2d7b cf3e 913e ba3d
00000280: 27f8 1b3d 3ee1 34bd 569c 85be 436b af3d
00000290: 6ff5 bcbe 4dcc 893c 1fa9 4bbd 22a5 6a3d
000002a0: 186d ccbd e41a 133e d509 2bbe 8d88 eabe
000002b0: 1094 80bb 8cdf d03d 06e8 893e 0790 21bf
000002c0: 7fd4 d8be f3ee 8e3d f5e5 4bbd aebc 38be
000002d0: bb0b a6bd 1057 f73d 87b4 5bbd d5f9 553b
000002e0: 9049 9f3b 81c6 4dbe 6ce2 9bbc aa97 943d
000002f0: 0280 c0bd 2972 bebe b018 11be e4d6 12be
00000300: c5c9 24bd 6436 4f3e b29e 4c3d 095c 52be
00000310: bf24 d13d e5e4 193c 3e59 63bc f3c3 bf3d
00000320: 89b3 2fbe 1042 153e 642e 6dbe 660e 5bbe
00000330: fa20 f43c 962a 833c e12d 53be 3660 033e
00000340: e174 ddbd 45e0 d53c b561 afbd 005d c5bd
00000350: 83a0 c9be ac8c 553d 7571 213e cb07 88be
00000360: a066 18be 411c 8c3d fe7d 12be 7911 993c
00000370: 243f 9b3d 0904 523d b3ec cb3d b959 c63d
00000380: 42ca d1bd 6e23 bcbd 7976 823d 5563 dd3d
00000390: 27c6 88be b4ba d63c 6534 c63c 67c1 753e
000003a0: 13a9 d8bc 41c7 9cbd 819a 22be d59b 27be
000003b0: 72da cebd c4e7 6e3c 75d3 e73d c226 843c
000003c0: 624a 6a3d 74c5 c1bd 1331 80bd 7b49 3b3d
000003d0: 21dc 983d 11c1 00be 0d52 f6bd b1a0 9b3b
000003e0: 0fba 693e fa99 0cbe 4380 623d f3f4 0c3e
000003f0: b2f3 01be 2c0e 653e 6109 453e f017 94bd
-0.18948099 -0.07129569 -0.07708943 0.033217993 -0.030555356 0.02319917 -0.057252787 -0.08376085
0.17352746 -0.24476036 0.0822935 0.119722135 0.0029231077 0.0858714 -0.038975447 0.09760337
-0.03954766 0.07004729 -0.10487629 0.16691147 -0.056738965 0.07841084 -0.009544874 0.011557866
-0.11413221 -0.09914451 -0.13827601 -0.033953466 -0.16409868 0.0024733846 0.005796425 -0.15989669
-0.23365559 -0.13745381 0.11126997 -0.102536656 -0.24744391 -0.18886323 -0.07504863 -0.13602383
0.006769766 0.063335106 0.14759368 -0.09695917 -0.16412456 -0.14799173 -0.2959832 -0.17759019
-0.014965236 -0.31515586 -0.17591743 -0.23844735 0.007226811 -0.0021945362 0.044468105 -0.024696978
0.07568728 -0.38435933 -0.062085226 0.124554574 -0.079683475 -0.013048744 0.051511884 0.051287234
-0.262848 -0.022571644 0.43816844 -0.00525044 0.08378139 -0.33254188 -0.0083623845 0.031421393
-0.11602481 -0.36357838 0.21676931 0.2526822 0.143114 0.1970215 0.14609666 0.03784081
0.027502123 0.046290502 0.2284819 -0.34737447 -0.22286412 -0.07210388 0.49691033 0.0028285505
0.084488414 0.13300431 0.11697412 -0.106736444 0.0029935327 -0.11116387 -0.09477018 -0.038753282
-0.15083992 -0.008167771 -0.03757506 0.12397516 0.1473758 0.2916985 0.07275529 -0.13594657
-0.22435069 0.27180293 0.45719522 0.31126228 0.33254424 0.07295476 -0.087679066 0.24681064
0.61831826 -0.27517137 -0.2695169 0.14983955 0.09710875 -0.3386146 0.022849204 0.17626221
-0.26300544 0.16216262 -0.48170382 -0.09424407 -0.28344488 0.2845896 0.16487384 0.11654547
0.45688835 -0.025615599 -0.18840435 0.19163977 -0.091142535 0.020228257 2.6767302e-05 -0.027837466
-0.31740934 0.20269373 -0.17257527 -0.19405401 -0.21795447 0.11717502 0.14880474 0.02430738
0.094146974 0.089477964 0.2878882 0.2025097 0.046253204 -0.07541276 -0.33846328 0.06700502
0.2548157 -0.16352184 0.10321845 -0.0596799 0.10716197 0.2097897 0.40523663 0.09093965
0.038078453 -0.04416012 -0.26095837 0.085653804 -0.36906 0.016821051 -0.049721833 0.05728639
-0.099817455 0.14365727 -0.1670297 -0.45807305 -0.0039239004 0.10198888 0.26934832 -0.63110393
-0.42349622 0.0697917 -0.04977985 -0.18040726 -0.08107706 0.12077153 -0.05363896 0.0032650132
0.0048610643 -0.20095254 -0.019028865 0.0725549 -0.093994156 -0.37196472 -0.14169574 -0.14339787
-0.040231485 0.20235592 0.04995603 -0.20542921 0.10212087 0.009392952 -0.013876257 0.09363546
-0.17158331 0.14575982 -0.23162228 -0.21392211 0.02980088 0.016011517 -0.2062297 0.1282967
-0.108133085 0.026107917 -0.08563558 -0.09636879 -0.39380273 0.05213611 0.15765937 -0.26568446
-0.14882898 0.068413265 -0.14305875 0.01868509 0.075804025 0.05127338 0.09957256 0.09685082
-0.10243656 -0.09186445 0.06370253 0.10809962 -0.26713678 0.026212074 0.024194906 0.23999558
-0.026447808 -0.07655192 -0.15879251 -0.16368039 -0.10100259 0.014581624 0.11319629 0.016131762
0.057199843 -0.09461489 -0.0625936 0.045724373 0.07463861 -0.12573649 -0.12027369 0.0047493805
0.22824882 -0.13730612 0.0552981 0.13765316 -0.12690619 0.22368687 0.19241859 -0.07231128

body.layers.1.bias f4 [64]
00000000: 477a a5bd 1663 993e 8e60 963e 8414 58be
00000010: 6084 033e 0104 b83c 1d1d 10be 3d25 d93d
00000020: 275a 7fbd 79c0 773d b1fe 0a3e eaeb 5b3c
00000030: f883 a9ba 0ed3 07be d58d a3bd a62d 01be
00000040: 479d 4f3e 7163 a3bd 3ace 1d3e d8f0 bdbd
00000050: f12e 10be 6b0b e1bd e89d cabd 4aa5 e53d
00000060: 41c3 973e ef95 6b3e 879e 443e 843f 81bc
00000070: 17f6 fb3d d256 ffbc dfcf afbd 7f27 3f3c
00000080: 9ba9 a43e bf3e 96bd 9107 41bd 8f6d 76bd
00000090: a47d c33d 9d53 273e 1b63 2bbc c4a5 183e
000000a0: 238a 6d3d 313c 133e 1c80 2ebe 0bf6 b3bd
000000b0: 1e7a bcbd d977 873e 7db1 033e e369 fabd
000000c0: 538c 2b3d 9bbe 0a3e 3a84 893e 614a e0bd
000000d0: f3ef 213c 00c3 40bd 1f66 72bd e0af f83c
000000e0: 310c 62bd a2bb c33e 40a4 033e 6e86 c7bd
000000f0: 421f 38be 8d04 21bd 9a6e bc3d f384 21bd
-0.08079963 0.2995841 0.2937054 -0.21101576 0.12843466 0.022462847 -0.14073606 0.10602806
-0.062341835 0.06048629 0.1357372 0.0134229455 -0.0012933007 -0.13264105 -0.07986037 -0.1261507
0.2027484 -0.07977951 0.154107 -0.09274453 -0.14080407 -0.10988506 -0.098933995 0.11213167
0.29641154 0.23006414 0.19201098 -0.015777357 0.12302797 -0.031169329 -0.0858457 0.011667131
0.3216065 -0.073361866 -0.047126357 -0.060163077 0.095454484 0.1634049 -0.01046064 0.14906985
0.057993066 0.1437843 -0.17041057 -0.08787163 -0.092029795 0.26458624 0.12860675 -0.122272275
0.04188187 0.13549273 0.26858693 -0.10951687 0.0098838685 -0.047060966 -0.05917942 0.030357301
-0.055187408 0.3822909 0.12855625 -0.09742437 -0.17980674 -0.03931098 0.09200783 -0.03943343

pmu_body.layers.0.weight f4 [64, 10]
00000000: 5664 393d aa66 00be b016 1abf 6281 b7bb
00000010: afdd 4bbd fbc6 95bd 43fe b5bd 012c a43d
00000020: e0d0 893d 0497 5e3e 871c 06be 6dd5 f83d
00000030: 7e70 9b3d 8858 61bc cd46 763e 9763 5d3e
00000040: 95fe 64bc 53f4 093c 3243 b43d 575e bebc
00000050: 71ea 85bc b397 ebbd 037e 883d e17e 503d
00000060: ee53 39bc 4188 3f3d 3f2e 1a3d 7adb 063c
00000070: 50ee 283e 3f0a 8fbc 3217 933c 43fe 2fbe
00000080: 4dcd 16be 82d4 e3bd bc69 8a3c d17f 01bd
00000090: 561a 2fbd 5688 4abc a855 603d 9437 43be
000000a0: 09af 9f3d 655c 1c3e f5aa 48be f308 f8bc
000000b0: 2d7f 16be b594 503d 8979 88be 174f f1bc
000000c0: aa7c 273d 120b 283d 2d71 2b3d d342 463e
000000d0: fb33 38bd 7bef 863e e5a0 c8bd d55c 09bd
000000e0: 387d 34be 448e 72bd 0d99 15be 7fe1 94bd
000000f0: dd84 07ba e4ba 30bc 104e 03bd a9b7 3dbd
00000100: 3ed7 b1bd aaf2 30be efa4 71bd 58a5 adbd
00000110: 5389 68be 0f0d 043e c309 e4bd e198 333e
00000120: 43b1 94bc 06c9 da3c 3752 65be 23c2 1bbd
00000130: 4899 17be 3ce6 613e cdd1 d93c 1cb2 c3bd
00000140: 4a21 03bd d517 8dbd be7c b13e c024 533d
00000150: ce40 a83d a196 953e 0f60 bf3a 17a7 c4bb
00000160: 5456 0a3b adf4 7f3b 2103 cf3c 2b17 d53c
00000170: 2405 25be 1c54 ecbd 70a8 fb3b 1054 7d3e
00000180: 535d fbbc 405e f8bc a825 e83c a190 533c
00000190: 2f7a eabb d434 e2bd 6708 7f3e c34e 073d
000001a0: 150b 2fbd 68be 2c38 bb8e 10be be0c ac3d
000001b0: d883 a9bc a8bd 81bd 301f 8ebc 5534 023d
000001c0: 6a0e 923d 9222 0abd 8541 8f3d 2b04 1fbe
000001d0: 5b1b 2f3e 14e2 a63d b1f3 673c 8793 98be
000001e0: 06a5 26be d212 c7bc 4e10 ddbc 5b19 1d3e
000001f0: 0b45 2c3d adef d63d 3a87 2c3e 9514 d1bb
00000200: a6dc df3d 41e1 013e 7931 653d f7e6 543d
00000210: 90ba 9e3e 567e abbd fa4f 2bbe f63f e8bd
00000220: 8b76 2c3e ccc8 613c 7cf4 2abd 6df3 9bbe
00000230: 4fd6 3c3e 6583 9fbc a8a1 a33d e72a 1dbe
00000240: 3ae7 433e 9d03 08be 8704 a5bd 1398 9a3b
00000250: 19e2 88bd f682 ef3e 6234 6b3b 756a 94bd
00000260: 18e5 eb3e 3c1e eebd 7089 ad3d e05c 023e
00000270: d5cb 92bd a9d3 0f3c 686b d4bd c2f3 433d
00000280: 36ce 12bd 7b70 bb3d cb45 df3e 999b 5cbd
00000290: 605d 253d 8890 d43d 6dcf 6f3d b3b1 f03d
000002a0: 0999 f7bd 7d00 d63d 3673 74be 96fa 12be
000002b0: 11b2 96be fb0a 5a3d 3121 973d f1dc 46be
000002c0: d77f 80bc d244 043b 6446 21bd 6f1f 983b
000002d0: 20b7 833d 7d3e 40bd ed7b e2bd 3157 c13d
000002e0: 68a5 7b3d 990e 12bd 8859 4b3e 2579 513d
000002f0: accf 363c 50f1 c3bc 46cb 15be efc5 e13d
00000300: d54b f6be 8860 92bd 8385 febd 6e50 74bd
00000310: 6b25 5bbd 98ab 92bc b672 613d fe94 b7bd
00000320: b242 273d c38b 283d f7c2 92bd 7e4c 59be
00000330: 331b 373d f80b c23c f17e 933d d649 523d
00000340: b88c 49be e252 7abe b308 6e3d dfb2 7f3c
00000350: c956 36be d041 b1bd 6532 0c3c 3a22 fe3c
00000360: 0fa7 293e b561 22be d88f 93bd 35ad 453d
00000370: c82a 2b3e df87 d23d 28db 9ebd 4dcc 8b3d
00000380: 8fa8 2cbe e719 883e 25ad cc3d 57bf 533e
00000390: 4bf9 a63c 6c06 e63c 39c6 203e 9580 d73d
000003a0: 58ab e6be f209 833d add1 273e b890 d23b
000003b0: d051 1a3d f343 b1bc 9244 b33d 03b6 753d
000003c0: 7548 183c 255c e83d 0a85 25bc 6238 5cbe
000003d0: d8f0 01bd 8a8c 4a3e e03b c3bd 0b3a 30be
000003e0: 03ce 02bd a052 3b3e 5fb6 e03d 2888 563d
000003f0: 40a4 fe3d 74b7 87be 90d2 9a3e 67aa 883d
0.045261703 -0.12539163 -0.6019087 -0.0056001404 -0.04977196 -0.07313343 -0.08886387 0.080162056
0.06729293 0.21737295 -0.1309682 0.12150083 0.075898156 -0.013754018 0.24050446 0.21620022
-0.013976713 0.008420068 0.08801879 -0.023238344 -0.016347142 -0.11503544 0.0666466 0.05090225
-0.011311514 0.0467608 0.03764176 0.008231038 0.16497159 -0.01746094 0.017955396 -0.17186837
-0.14726754 -0.11124517 0.016896121 -0.031616036 -0.042749725 -0.012361607 0.05476919 -0.1906417
0.07797057 0.1526962 -0.19596465 -0.030277705 -0.14696951 0.050923068 -0.26655224 -0.029456658
0.040890373 0.041026182 0.04185598 0.19361429 -0.044971447 0.26354584 -0.09796313 -0.033535797
-0.17625892 -0.059217706 -0.14609165 -0.072695725 -0.00051696395 -0.010786746 -0.032056868 -0.04631773
-0.08683632 -0.17280069 -0.058995184 -0.084788024 -0.22708635 0.12895606 -0.111346744 0.17538787
-0.018150931 0.026707184 -0.22394644 -0.03802694 -0.14804566 0.22060484 0.026589299 -0.09555456
-0.03201417 -0.06889311 0.34665483 0.05154872 0.082154855 0.29216483 0.0014600771 -0.006001364
0.0021108584 0.003905575 0.025270047 0.026012024 -0.16115242 -0.1153948 0.0076799914 0.24739099
-0.030684149 -0.03031838 0.028338268 0.0129129 -0.0071556787 -0.110452324 0.24905549 0.033034097
-0.042735178 4.1185325e-05 -0.14116947 0.08400868 -0.02069275 -0.06335002 -0.017348856 0.03178819
0.071316555 -0.033724375 0.06994919 -0.15528934 0.17100279 0.0814859 0.014157222 -0.29800054
-0.16273889 -0.024300966 -0.026985314 0.15341704 0.042058032 0.10494933 0.1684846 -0.0063806274
0.10930757 0.12683584 0.055955384 0.051978078 0.3100171 -0.08373706 -0.16729727 -0.113403246
0.16842096 0.013780784 -0.041737065 -0.30459157 0.18441127 -0.019471833 0.07989818 -0.15348397
0.19131175 -0.13282628 -0.08057504 0.0047178357 -0.0668375 0.46779603 0.0035889377 -0.072468676
0.46073222 -0.116268605 0.0847348 0.12730742 -0.07167784 0.008778491 -0.103720486 0.047839887
-0.03584119 0.09152313 0.43607935 -0.053859327 0.040372252 0.1037913 0.058547426 0.117526434
-0.12089736 0.10449312 -0.23872074 -0.14353403 -0.2943273 0.053233128 0.07379378 -0.1942022
-0.015685959 0.0020182622 -0.03937377 0.004642419 0.06431413 -0.046934593 -0.11058793 0.094404586
0.06143704 -0.035658453 0.19858372 0.051140923 0.011157911 -0.023918778 -0.14628324 0.11024081
-0.4810473 -0.07147318 -0.12427809 -0.059647016 -0.05350248 -0.017904088 0.055041037 -0.08963965
0.04083509 0.041148912 -0.07166093 -0.21220586 0.044703674 0.023687348 0.072019465 0.051339947
-0.19682586 -0.2444568 0.058113765 0.015606611 -0.17806543 -0.08655131 0.008556937 0.03102218
0.16567634 -0.15857585 -0.072051704 0.048260886 0.16715539 0.102798216 -0.077566445 0.06826077
-0.16861175 0.26582262 0.09993962 0.20678459 0.020382544 0.028079234 0.15700616 0.10522572
-0.450526 0.06398381 0.16388579 0.006425943 0.03767568 -0.021638846 0.08753313 0.059988033
0.009294619 0.113457 -0.01010252 -0.21505883 -0.031723827 0.19780174 -0.095329046 -0.17209642
-0.03193475 0.18293238 0.109722845 0.052375942 0.12433672 -0.2650715 0.3023877 0.06673127

pmu_body.layers.0.bias f4 [64]
00000000: af08 7d3e 7034 d63b 933f 693d 4d5b 91bd
00000010: 342a 263d d170 d4bc c662 5f3d db10 6e3d
00000020: 4298 073e 9199 b93d b30a 21bd bf45 14be
00000030: 5a0a debc caad 0a3e d0eb 1c3e 0499 a13d
00000040: 9991 c73d 0946 733c dd5d f7bb a340 d93d
00000050: b85f 6cbd b19d 8dbc cc7c 3ebc 0f1c 093e
00000060: c724 92bc 5b1f f8bc 23cb 82bd 545e f03d
00000070: 9168 a93d 29f0 c9bc a60d f23d 3d6b 813c
00000080: 9eb0 1d3d bddc a73b 400a 13bd bf60 e23c
00000090: a529 22bb 5a03 303e 983d ac3d 6244 963d
000000a0: cb1e f93d 6121 dc3d d55c 12bd 084a af3b
000000b0: 8883 b73d 9bbf 133d 9576 1e3e 6eca a53d
000000c0: 7afe ae3d 4ef4 0c3e 9641 1ebd df28 503e
000000d0: 8bb2 5a3b 923a 5f3d f91a 5a3d 8f18 f0bd
000000e0: cc5e 26bd b06e ee3d a794 903d 0831 cc3c
000000f0: 7312 f43d e372 263e c9f4 c4bd 255d 00bc
0.24710344 0.0065370128 0.056945395 -0.07097492 0.04056759 -0.025932701 0.054537557 0.058121543
0.13241675 0.090624936 -0.039316844 -0.14479731 -0.027104545 0.13542858 0.1532433 0.078905135
0.097445674 0.014848241 -0.007549031 0.106080316 -0.057708472 -0.017287107 -0.011626434 0.1338961
-0.017839802 -0.030288389 -0.063864015 0.11736742 0.082718976 -0.02465065 0.118190095 0.015798206
0.038498513 0.0051227496 -0.035898447 0.027634023 -0.002474406 0.17188779 0.084101856 0.07337262
0.121640764 0.10748554 -0.035733063 0.0053494014 0.089606345 0.0360714 0.15474923 0.08095251
0.08544631 0.1376507 -0.038636766 0.20328091 0.003337058 0.054499216 0.05324838 -0.11723434
-0.04061775 0.11642206 0.07059603 0.024925724 0.119175814 0.16254763 -0.096170016 -0.007834707

pmu_body.layers.1.weight f4 [64, 64]
00000000: 51cf 9fbd 35c7 5dbd 9d8d 9b3d 9f8c 28be
00000010: 9606 22be e4db e4bc ecf1 d43d 5d61 533e
00000020: 7eae 293e 23a2 53be 5de6 17bd 22ea 17bd
00000030: 7c9e bbbd fc17 0fbd 7f28 943e f367 983e
00000040: d2f5 143e 781a 8ebd 211b 173d e88a 85bd
00000050: 3708 5bbc 4bb1 963d 1c5c a53c 45db 8dbe
00000060: e48e 1bbd 44ee 303e b241 883d f00a bc3d
00000070: 5939 0a3e b713 96bd 4fb2 aabd 2a96 1dbe
00000080: 116d 793d 9c8c 63bd 0a4e 1dbd 9831 fcbd
00000090: 6fbf f9bd 1cee 90bd 30ab 63bd 3c35 ab3d
000000a0: e507 90bd 63c5 3cbe bc89 d7bc dd67 9fbc
000000b0: 3893 f23d 7309 c2be b384 0abe e7c4 a03d
000000c0: 341f 283d a40e 0ebe dd46 c13c e007 163e
000000d0: af34 8bbd 5696 903d 9a69 a83e 2408 d6bd
000000e0: 81a0 5c3d 9d76 013e 96ab 96bd bd36 863d
000000f0: 272b 81be 1c9b 56bb 36bf bcbd 4547 013e
00000100: 3913 74be a4e4 eebb 42b7 f8bc 5125 e9bc
00000110: 4ee3 debd f0cd 413e 8e68 5b3e e519 dfbd
00000120: 37ca a73c 69d7 5a3d 03c0 3dbd 66e8 5a3d
00000130: 5de4 a53d fcf6 503d dbc1 373e 8f93 2f3e
00000140: de5a a6bc c4d2 3d3e 166f 85be f2f6 5d3d
00000150: ce1e bd3d d837 06be db21 adbd f493 e8bd
00000160: 23ea 56bc 786a a3bd 458f f0bd 0dfb 3e3e
00000170: 4669 dd3d 5440 05be 982a 6abd af62 74be
00000180: b5ef 0a3e 8ec3 093c 0328 853e 2159 153e
00000190: bb7b 6cbe e9ed 1e3e 65da 433c 09df 513e
000001a0: f479 ea3d 8a83 3b3d c1e9 d23c 8173 c8bd
000001b0: 31c0 1abe 36aa b33d 3386 373e e750 043e
000001c0: eff7 15be 39e7 9ebd f74e 31be 9bc2 b03d
000001d0: 1f85 513e 1582 2e3e 28ed 8d3c 8d04 b4bd
000001e0: e335 16be 7621 243e 3312 06be cf8f d23d
000001f0: 5523 dabd 4faf 693e b157 093c 4c7f 023e
00000200: dbd4 373e c002 15bd e617 8e3d c0ff 403e
00000210: 1ae4 69bb bf00 713e 2d94 86bc 08f7 a53d
00000220: 7baa 9ebd 23dd cb3d 402c 5fbe 3253 783b
00000230: 0084 47bd e94c 0dbd 69e0 8e3e df27 d93d
00000240: 0f35 b6bd 0ca0 bc3a 014f 8fbb ff98 a93e
00000250: 899c e63d 931e 893d 1d2b 0fbd 81dd d53d
00000260: 3569 2f3d f8ba 31bd d0dd 603c 69d9 c9bd
00000270: 28be 953c 546b f93d 2ac1 033d b2b7 263e
00000280: d5d3 10bd c3b0 82be 542b a3bc df17 42be
00000290: f512 afbd a701 a93d 31eb 74be 8faf c1bd
000002a0: 4c25 6b3e 356c 123e 06b3 893d 4507 a2bd
000002b0: 6205 ec3b e5ac f2bc 416a e1bd fa1a 12bd
000002c0: 9324 483e 7651 b73d f8d4 8abb 92b3 af3d
000002d0: b795 293e bbd3 663d 72ef 28be bce9 17be
000002e0: d9fd 23be 43ab 563e 441e ac3a b148 65bd
000002f0: 256f 673e c89b 493d f98d 7abc ef15 0f3e
00000300: 596a b5bc 9586 a0bc 4e0c b4bd 5843 28be
00000310: e58d d3bd dcd8 78bd b0bd 96bd eab2 733d
00000320: ba33 873e 87b0 2abd f1c8 113e d66f d3bc
00000330: 466e bc3d 89f6 103d 19f0 783d 014b 5b3d
00000340: ec97 34be d84d 2c3c 0616 bc3d 9784 5bbe
00000350: a053 02be dbd1 79be e4bb c13d e381 3b3d
00000360: 20ae 633e cf30 353e 9c33 c53d b0f1 2a3d
00000370: a23d b33d 1af9 fdbd 26bd 6fbe 5af5 693c
00000380: 4507 d0bd d317 0cbe 2fcb 8f3d 5bf0 51be
00000390: 3c0a bb3d dcf1 953d 28a7 8a3d 7023 eebc
000003a0: 9f13 5b3e 1d1f 473e 93f8 39bc 13fc 043e
000003b0: eabb 103d 837a a73d 6f32 d6bb 00ed 293d
000003c0: 7a56 913b aabe 59be ce95 a13c 6e39 5f3e
000003d0: 83ef fa3c 4ddb aa3d 992b d83d 0174 35bd
000003e0: c7dd d6bd 85ad 8a3d d33b 693e 2a04 ad3d
000003f0: 8114 d93d 42f5 173e 39fe 263c 98a7 8abd
-0.07803214 -0.054145057 0.0759537 -0.16459893 -0.15822825 -0.027936883 0.103977054 0.2064261
0.1657047 -0.20667319 -0.037084926 -0.03708852 -0.09161088 -0.034934983 0.28937146 0.29766807
0.14546898 -0.06938642 0.036891107 -0.06520635 -0.013368658 0.07358035 0.020185523 -0.27706352
-0.037978068 0.17278391 0.066531554 0.09181774 0.13498439 -0.07327979 -0.08334791 -0.15389314
0.06089503 -0.055554017 -0.038404502 -0.12314147 -0.12194716 -0.07076666 -0.05558318 0.08359763
-0.07032756 -0.18434672 -0.026310794 -0.019458706 0.11844486 -0.37897834 -0.13527183 0.07850056
0.041045383 -0.13872772 0.02359336 0.14651442 -0.06797158 0.07059924 0.32893068 -0.104507715
0.053864006 0.12642904 -0.07356946 0.06553409 -0.25228235 -0.003274626 -0.09216158 0.12624843
-0.23835458 -0.0072904397 -0.030360822 -0.028460177 -0.10883199 0.18926215 0.21426603 -0.10893611
0.020482166 0.053428087 -0.046325695 0.05344429 0.081001975 0.051016793 0.17945044 0.17146133
-0.020307 0.18537432 -0.26061314 0.054190584 0.09234391 -0.1310724 -0.08453723 -0.11356345
-0.013117346 -0.07979292 -0.117460765 0.18650456 0.10811095 -0.1301282 -0.057169527 -0.2386577
0.13568003 0.00840844 0.2600709 0.14584781 -0.23094074 0.15520443 0.011953925 0.20495237
0.11449042 0.045779742 0.025746228 -0.097876556 -0.15112378 0.087726995 0.17922287 0.12921487
-0.1464536 -0.07758946 -0.17315279 0.08630868 0.20460938 0.1704181 0.017324999 -0.087899305
-0.14668994 0.1602839 -0.1309288 0.102813356 -0.1065127 0.22820781 0.008382724 0.12743872
0.17952292 -0.036379576 0.06938152 0.18847561 -0.0035688938 0.23535441 -0.016428078 0.08103758
-0.0774736 0.09954288 -0.21794224 0.0037891385 -0.04870987 -0.034497175 0.27905586 0.10603308
-0.08896839 0.0014390959 -0.0043734317 0.3312454 0.112603255 0.06695285 -0.034953225 0.10442639
0.042824943 -0.043391198 0.013724759 -0.09855921 0.01827915 0.12178674 0.032166637 0.16281012
-0.03535827 -0.25525483 -0.019918121 -0.18954419 -0.08548538 0.08252268 -0.23917843 -0.09457313
0.22963446 0.1429909 0.06723599 -0.07911543 0.00720279 -0.029623458 -0.110065944 -0.035670258
0.19545202 0.08951084 -0.0042368136 0.08579172 0.16561018 0.056354266 -0.16497591 -0.14835256
-0.16014804 0.20963769 0.0013131578 -0.055977527 0.22600992 0.04922083 -0.015292638 0.13973211
-0.022145437 -0.019595424 -0.087914094 -0.1643194 -0.103297986 -0.06075369 -0.07360399 0.059496798
0.26406652 -0.041672256 0.1423681 -0.025810163 0.092007205 0.035391364 0.06077585 0.053538326
-0.17636079 0.010516606 0.09183888 -0.21437298 -0.12727213 -0.2439646 0.094596654 0.045778167
0.22234392 0.176944 0.09628984 0.041734397 0.0875199 -0.12401028 -0.23411998 0.014279688
-0.101576366 -0.13680963 0.07021176 -0.20501845 0.091328114 0.07321522 0.06770164 -0.029069632
0.21394204 0.19445463 -0.011350769 0.12986784 0.03533546 0.08177664 -0.006536774 0.041485786
0.0044353576 -0.21264139 0.019724753 0.21799251 0.030631786 0.083426096 0.105551906 -0.044300083
-0.104915194 0.067713775 0.22776727 0.0844806 0.10599614 0.14839652 0.010192447 -0.06770247

pmu_body.layers.1.bias f4 [64]
00000000: ba2f 7c3c 225b 033e 374f 10bd 9473 9d3d
00000010: 2a94 023e e61f 153e 4787 f13d c1f7 18bd
00000020: c8be 473d 994d 7dbd 25ec 3c3d 35ae 763d
00000030: a8e7 f93c 643e 2ebd 8f7b d93b e852 153d
00000040: f281 8b3d 0b49 a03d e18a 46bd 184d 82bd
00000050: 8cd0 973d dcf3 cc3d 76ac 80bc 3062 df3d
00000060: 0100 db3d b8ea d83b 013b e5bc 6aa3 e5bd
00000070: b779 013e 8cdd 013d 81e8 8e3d db70 7dbd
00000080: 573f dd3c 5424 aa3d d738 07bd 68af df3c
00000090: c35c 243d 2238 223d 4447 b2bd 51a9 f0bd
000000a0: 8007 4f3d 2091 7b3d 8e4d dcbc c4fb 32bd
000000b0: ee3f cb3d 85db 403c 396f 763c 89a0 083e
000000c0: 676b adbd 7c82 81bd b336 783c cda2 073c
000000d0: 7f70 98bb 1ffd 9c3c ba22 22bd 03d2 9e3d
000000e0: 204a eabc 39cc 2fbd 8cd7 bfbc 8999 9dbd
000000f0: ab19 8d3d 01e9 31bc 1f48 fd3d acdd 0c3c
0.015392238 0.12827733 -0.035231795 0.076880604 0.12751833 0.1456295 0.1179338 -0.03734565
0.048765928 -0.06184158 0.046123642 0.06022473 0.03050597 -0.04253997 0.006637044 0.03645602
0.068118945 0.07826432 -0.04847229 -0.06362361 0.07412824 0.1000745 -0.015707236 0.109074
0.1069336 0.0066197775 -0.027982237 -0.112128094 0.12644087 0.031705424 0.0697794 -0.061875205
0.027007742 0.0830771 -0.03301319 0.02730532 0.040127527 0.039604314 -0.08704999 -0.117510445
0.050544262 0.0614177 -0.02689245 -0.043697134 0.09924303 0.011771088 0.015041166 0.1334249
-0.08467751 -0.06323716 0.01514976 0.008278561 -0.0046520825 0.019163666 -0.0395839 0.077549
-0.028599799 -0.04291937 -0.02341821 -0.076953 0.068896614 -0.010858775 0.12367272 0.008597773

actor_head.fc.weight f4 [8, 64]
00000000: 30e3 bfbc c3db cf3e 6fcf d2be 90e2 d5bc
00000010: f509 2fbe 7119 21bd dd51 06bc 9b21 a6bc
00000020: b3a9 e2bc c365 fbbe c8c0 a53c e486 47bd
00000030: a4a4 493d ef20 99bb 5507 b73c 93da a5bd
00000040: 2016 34be c7b8 2dbc c662 bb3d 698c afbb
00000050: 430f 9a3d f9a3 943d d85d ebbc d5b4 e83d
00000060: 4791 92bc 3572 15bd 3deb 253e b167 f83c
00000070: fa15 21bd 97b4 b53d 3ea0 193e 7335 933e
00000080: 90c2 843e 173a 383c 7912 a3bc f6fc 373d
00000090: 2bca 39bd 5630 bbbe 73f2 4bbe ce2f 4fbe
000000a0: afa9 ddbd 4c32 2e3d 4f43 94be 607b 2a3d
000000b0: a36f 4bba 829d 38be 7f88 bb3d 63ec 23bc
000000c0: b280 1fbe 00bc 373c 7f45 073d 1bd4 6ebc
000000d0: 9ae6 053b 982a 5dbd 6d22 d0bc 223c 20be
000000e0: f958 0b3c 08ab 2d3d f7ca 813d c2ec 9e3d
000000f0: 39fc 4e3e 6ca3 60be 0361 93bd bd43 3fbe
00000100: b3cc abbc 5f6f 773e e55f b6bd 3a39 4dbe
00000110: 930e 903a 51d4 74be 150e 4f3d a781 273e
00000120: 6fe1 d13b a4f1 f5bd 823e a33d 05aa 30be
00000130: e245 68bd 0014 783c af11 4f3d 8a59 edbd
00000140: 9751 3b3e e9e4 3b3d fba3 01be 7bc5 4b3c
00000150: f14b b53c 71bb a43d 70f1 50be 8cc8 0b3e
00000160: eabd ff3d d941 f63c efbe a63d 6afd 3d3e
00000170: 91aa cd3d 1259 3e3e 0606 0f3e abd8 3f3e
00000180: ae90 a23e 8ba5 743c c963 fb3b 6f7d d1bd
00000190: 2183 bb3d a9e0 e3bd f809 16bd 0d6a 013c
000001a0: 943f 3ebe 0104 0bbd b586 12bb 4d97 50be
000001b0: 5c7f e23a c1fa a43c 160e 2cbe 9d7f 34bc
000001c0: 7729 e8bb 1af2 61bd aea5 dc3d e23d 013c
000001d0: fe15 233b 116f 8f3a 2ba5 06bb 2cc4 0b3e
000001e0: e0e7 c43a e64a 333e eb5e ee3d afb1 773d
000001f0: d633 043d 379a 1abe 9389 6e3c 9882 d0bc
00000200: b705 7e3d 3f2c 5b3e bbda 20be 5529 88be
00000210: f157 36bd 51bf bdbe 70d4 c83d ec1b a63d
00000220: 2c5e ab3c 988f 28bf a01e 213d 4c3a 0a3d
00000230: 515f 103d 091e a3bc a02c 193a 6866 14be
00000240: edc7 82be 4119 8eba 60fe afbd 77b6 1abd
00000250: 070e 93bd b915 5cbd 2b05 1dbe d359 003e
00000260: 6f41 703c d4b8 79bd 4e1c e23d 9497 1ebe
00000270: 4655 febd e1ba 86bd e521 71bd 2acd 703e
00000280: 8ae2 683e 9bbe d93c d54d 073d ea8f 03bc
00000290: d468 7fbe f610 8ebe e3ef bcbe bfd3 0fbe
000002a0: bfde 30be ffc3 823d dd37 2cbe 2181 abbd
000002b0: 0a23 c03b 15b4 973d cf7a 313e ebcc bbbc
000002c0: a359 debd ab54 7ebe 0321 223d 6a5b cdbb
000002d0: 88d6 653b 4f35 e2bc 442e 3dbd faf0 973c
000002e0: e549 343a 44de 973d 1826 1a3e 3793 1abd
000002f0: 50b0 d4bb de81 a8be 0f90 8cbc 3135 1fbe
00000300: 853a e43c a87f 983e 7475 a7be 55f4 bfbd
00000310: 5b49 d2bd ee23 17be cf79 a03d 29cc bb3d
00000320: 1b23 85bc e71d 6ebd 6188 fbbc 4583 b4bd
00000330: d7ab b13d 473b a43c bea1 59bd 81e3 32bc
00000340: a996 a63d 1716 e03a e598 c1bc 9728 c4bc
00000350: c62b 0bbc 97d3 38bd 580b 57be f300 ad3e
00000360: 567c 4f3e 3409 623e ecdd e7bd 642a be3e
00000370: 5ad1 4e3d fcbe de3d 72a5 233e 412c 4cbd
00000380: 0db4 a53e 2c53 52bd f5dd 7f3c b8c3 53bd
00000390: be4b 86bd 27ed 923d d6de 483d 6561 f3bd
000003a0: 45e8 40be ac27 463d ae21 2c3e b6f2 f9bd
000003b0: a69c edbb 6736 4d3d db59 123e 19c7 9bbc
000003c0: 5c9d 9c3c b315 7d3d c2b4 233e 3b20 4abc
000003d0: f792 9abb ba23 023d cd08 ea3b 3f9b 1f3e
000003e0: 9b03 6e3d 73da 81bd 1b8a 513e fbfa 4dbd
000003f0: 4330 53be 3236 38be faa0 663e 64f2 9aba
-0.023423761 0.40597352 -0.41173884 -0.02610901 -0.17093642 -0.039330903 -0.008198229 -0.020279696
-0.02766881 -0.49101076 0.020233527 -0.048712626 0.04922928 -0.0046731154 0.022342363 -0.0809833
-0.17586565 -0.010603136 0.09149699 -0.0053573144 0.07522442 0.07257838 -0.028731272 0.11362616
-0.01789154 -0.03648587 0.16203018 0.030322881 -0.0393276 0.088723354 0.15002534 0.28751716
0.2592969 0.011244318 -0.01990627 0.044918977 -0.045358818 -0.36560315 -0.19916706 -0.2023308
-0.1082338 0.042528436 -0.28957602 0.041621566 -0.00077604706 -0.18028834 0.09156894 -0.010005089
-0.15576437 0.011214256 0.03302526 -0.014576937 0.0020431639 -0.0539957 -0.02540704 -0.15647939
0.008505099 0.042399436 0.063375406 0.07760002 0.20213403 -0.2193734 -0.07196238 -0.18678184
-0.020971632 0.24163578 -0.08905009 -0.20041361 0.0010990672 -0.23909117 0.05055054 0.16358052
0.0064050476 -0.1200898 0.07970907 -0.17252357 -0.05670727 0.015141487 0.050553974 -0.11589344
0.18292843 0.045872603 -0.1266021 0.01243722 0.022130938 0.08043564 -0.20404601 0.13650721
0.12487395 0.030060695 0.081418864 0.18553701 0.100422986 0.18588665 0.13967142 0.18734996
0.31751007 0.014932047 0.0076718074 -0.10229003 0.0915587 -0.11126835 -0.0366306 0.00789882
-0.1857894 -0.033939365 -0.0022358124 -0.20370217 0.0017280388 0.0201391 -0.16802248 -0.0110167535
-0.007085021 -0.055162527 0.107737884 0.007888289 0.0024884935 0.0010943135 -0.0020545225 0.13649052
0.0015022717 0.1750904 0.11639198 0.060472187 0.032275997 -0.15097891 0.014559167 -0.025452897
0.06201717 0.21403597 -0.15708439 -0.26594034 -0.04451746 -0.37060025 0.09806144 0.081107944
0.020918928 -0.65844107 0.039335847 0.033747002 0.03524715 -0.019911783 0.00058431365 -0.1449219
-0.25543156 -0.0010841266 -0.0859344 -0.03777167 -0.0718041 -0.053731654 -0.15334003 0.12534265
0.014664038 -0.06096728 0.11040555 -0.1548751 -0.12418608 -0.06578613 -0.058870215 0.23515764
0.22742668 0.026580146 0.03303321 -0.008029917 -0.24942333 -0.27747315 -0.3690177 -0.14045618
-0.17272471 0.063850395 -0.16818185 -0.08374239 0.005863552 0.07407395 0.17332004 -0.022924861
-0.108569406 -0.24836986 0.039582264 -0.006267001 0.0035070498 -0.02761331 -0.0461867 0.018547524
0.0006877466 0.07415441 0.15053594 -0.03773805 -0.0064907447 -0.3291158 -0.017158536 -0.15547635
0.027859936 0.29784894 -0.32706797 -0.093727745 -0.10267898 -0.147598 0.07835733 0.091698
-0.016252091 -0.058133986 -0.030704679 -0.088141 0.08675354 0.020047797 -0.053132765 -0.010918499
0.08134205 0.0017096427 -0.023632476 -0.023945136 -0.008494323 -0.045123663 -0.21000421 0.33789787
0.20262274 0.22073823 -0.11321625 0.37141716 0.050492622 0.10876271 0.15981081 -0.04984689
0.3236393 -0.05134885 0.0156168835 -0.051700324 -0.065574154 0.071741395 0.049040638 -0.11883811
-0.18838604 0.048377678 0.16809723 -0.122044966 -0.00725134 0.05010071 0.1429209 -0.019015836
0.019118004 0.061788272 0.15986922 -0.012336786 -0.0047172266 0.031772353 0.0071421624 0.15586565
0.058108907 -0.06340494 0.2046284 -0.05028818 -0.20623879 -0.17989424 0.22522345 -0.0011821506

actor_head.fc.bias f4 [8]
00000000: 5bc2 333d a1e2 463e fa89 053e 1b14 4c3e
00000010: 7523 423c 3150 733e 0087 05bc 2dd4 db3d
0.043886524 0.1942239 0.13040915 0.19929545 0.011849274 0.2376106 -0.008149862 0.10733829

qo_head.fc.weight f4 [4, 64]
00000000: 7739 de3d 6525 d1bb 10fe 343c 05e4 d8bc
00000010: 2c54 503b 541f 253a a476 6d3d fd9f da3b
00000020: b758 91bd 0f26 d7ba cfc6 343e 7bce 80bc
00000030: b091 9b3c b1aa c4bb 762f 513c 9b05 a9bd
00000040: 17d3 00bb 9816 393e ae3d bdbc 5b81 32bd
00000050: 3d72 c43d b558 683d e116 893c d777 a03b
00000060: 2bd1 163d 5429 203d b405 38bc 1923 abbc
00000070: 6d26 f3bb 10e4 893d b3d0 9bbc f8a8 e4bb
00000080: a518 963d 827b 1f3e 8abe 453d 3960 ca3b
00000090: 1d55 d8ba 0dfa e339 d4e5 133c b3fc b73a
000000a0: 8881 173d 0a6d 873d a1a4 c5bc ef91 debc
000000b0: 4f9e 57bc 6c58 cb3d 97b4 88bc 714e 303e
000000c0: 1756 123d 7798 953c 52ba 653d b144 043e
000000d0: 69e7 54be 96fa f03c 3751 39be 1dd9 8a3a
000000e0: 9cdb 9d3c 5ffb 133f c2a2 4cbb e8c7 d9ba
000000f0: 4442 c93d b4ad 9abc 31b6 beba fe71 093c
00000100: f990 ad3d 85e0 68bb 6efc 1b3d 7b7d b3bc
00000110: 2ec1 3b3b ae51 84bb be48 723d c2f4 0339
00000120: bb9a c5bc 5d7d 33bb 2416 173e c15a ffbc
00000130: 1ae3 b43c 0fae 2f3d d85b 143d 086a a2bd
00000140: e5df b73b d152 3839 ef9f 02bd dfe4 c9bc
00000150: bdd8 c53d 5fae 6f3d 1dd2 553c ffd3 8039
00000160: 9b25 3e3d 4138 753d efd9 813a 3c63 c0bc
00000170: ad12 873c e0df 3c3d f7df 8639 b354 a1bb
00000180: 9ffe 823d c0e4 f33d 5c1d 643c deb4 df3c
00000190: 53f4 643a 80b0 65bb 2b7f 90bc 28c5 a73b
000001a0: 370c 553c e0f1 b43d bf08 adbc 2c48 14bc
000001b0: 5302 8c3d 69e0 c33d f2b5 8bbc 108b ffbd
000001c0: a356 a53c 4db7 f93b 691a 543d d338 c9bd
000001d0: e3aa 893e 9f24 f8bb 5a37 febd 10b5 2a3b
000001e0: dbbe 143d a2ec 003f deab 84bb 85d3 573d
000001f0: 4c1f 153e 497d 5cbb 45a4 7cbb 8337 483b
00000200: 0084 d53d 36ca 07bc 0b7b 793c 2a2c f5bc
00000210: 333b 123d 6144 0b3c a2d7 7c3d ec8d 213c
00000220: 2694 c0bd f354 00bc d4f9 1f3e 559c 06bd
00000230: 467a 353a 1ce2 81bd 1ed0 953d 2ba0 d8bd
00000240: a00e cebb 71bf 37be de37 93bd 0f4e 40be
00000250: 3e47 023e 226b 603d 8525 a93c e18a 02bb
00000260: 4581 433d f5a6 6a3d 1266 25bb 705e 01bd
00000270: 2393 09bd b186 3f3c d701 3dbc 011c 153d
00000280: 22fe 313d e94f c23c 7f16 24be 10c3 fdbc
00000290: e6c0 b53c bebd 4cbc 4ee4 aa3c 1ead 1e3c
000002a0: 9a53 2a3c fded e03d 67b8 04bd ab66 94bc
000002b0: e54d 653c 869c bd3d c7ed b8bc 5ea4 7ebd
000002c0: e176 e63c bed7 a83c 4ae0 773d a143 5ebd
000002d0: fd24 d2bb b317 043d 4f29 d1bd 7e7e 8f39
000002e0: 9ffa 8a3d f9bc ef3e 6859 44bb c95d 7dbd
000002f0: fbd5 be3d 0c0f aabc 3386 6e3b 663e d6bb
00000300: ee71 ae3d 6a2e 82bc 1e01 56bb 797f 53bc
00000310: 51f9 a33c 5855 3dbb fb8d 883d 0a4c a23b
00000320: d55b e03c 5c8a d9b9 bc38 333e 6b35 20bd
00000330: 5452 023d 2f69 37bd 82a7 073d 4fe5 92bd
00000340: b473 903b 2982 24bd 46ab 2ebd 7dd6 8c3d
00000350: fc9b e83d 70c1 723d b5ed 073d 5711 bb3b
00000360: 59da 313d e200 153d 574b 983b bc20 b3bc
00000370: 97b9 57bc 2012 733d 1b35 1cbc ac20 083d
00000380: 339d 403d a96c 41bc c192 0dbd 2dac 153d
00000390: 7228 483b 8a8a 8a3c 93d0 cb3b 9593 3d3b
000003a0: 527a 0a3d 880e c23d bc57 04bd 67a1 01bd
000003b0: bd2a 4d3e 3c20 a73d 59ae adbc 37f0 de3d
000003c0: 47f9 d83c 6a49 9a3c 1325 813d f6dc 183e
000003d0: 94d4 0ebe 9030 123d 6d25 b33d a9f6 58ba
000003e0: cd81 a63d 761e 103f 4cd8 393c 8a98 b83c
000003f0: cc03 003e 9202 8ebb 27e6 44bb ea85 02bb
0.10850804 -0.0063826316 0.011046901 -0.026475916 0.0031788452 0.0006298919 0.057974473 0.006671904
-0.07096999 -0.0016414541 0.17653964 -0.015723458 0.018990368 -0.0060017933 0.012767663 -0.08253022
-0.001965707 0.18075025 -0.0231007 -0.043580394 0.09592102 0.056725223 0.016734542 0.0048970985
0.036820572 0.039101914 -0.0112318285 -0.02089076 -0.007420352 0.067329526 -0.019020414 -0.0069781505
0.07328919 0.15574458 0.048277415 0.0061760214 -0.0016504858 0.00043483116 0.009026963 0.0014037102
0.036988765 0.066125944 -0.024126353 -0.027169196 -0.013160302 0.099289745 -0.016687674 0.17217423
0.035726633 0.018261177 0.056085892 0.12916829 -0.20791401 0.029416364 -0.18097387 0.0010593269
0.019269757 0.57805437 -0.003122494 -0.0016615363 0.09827092 -0.018881656 -0.0014550147 0.008388994
0.08474917 -0.0035534215 0.038082533 -0.02191042 0.002864908 -0.0040380573 0.059151404 0.00012584313
-0.024121633 -0.0027387955 0.1475454 -0.031171205 0.022080947 0.042890605 0.0362204 -0.0793038
0.005611407 0.00017578459 -0.031890806 -0.024645267 0.0966048 0.058515903 0.013050583 0.00024572012
0.046422582 0.0598681 0.0009906868 -0.023484819 0.016488397 0.04611194 0.00025725338 -0.004923427
0.06396221 0.11908865 0.013923015 0.027307924 0.0008733917 -0.003504783 -0.017638763 0.0051199384
0.0130034005 0.088351965 -0.021122335 -0.00905041 0.06836381 0.09564287 -0.017054532 -0.12477696
0.020182913 0.007620728 0.051783 -0.098252915 0.2688819 -0.007572725 -0.12412901 0.0026047863
0.036314826 0.50361073 -0.0040488085 0.052691955 0.1456272 -0.0033644012 -0.003855006 0.0030550666
0.104255676 -0.008287957 0.01522709 -0.029928286 0.035700988 0.0085001895 0.06172908 0.009860497
-0.09403257 -0.0078327535 0.15622646 -0.032863934 0.0006922822 -0.06341955 0.07315086 -0.105774246
-0.0062883645 -0.17944123 -0.0718839 -0.18779777 0.12722489 0.05478967 0.020647774 -0.0019919204
0.047730703 0.05728813 -0.002523784 -0.031584203 -0.033587586 0.011689828 -0.011536083 0.03640366
0.04345525 0.023719745 -0.16024207 -0.030976802 0.022186708 -0.01249641 0.020860817 0.009684829
0.010395909 0.10982893 -0.032402422 -0.018115362 0.013995622 0.0925837 -0.022574319 -0.06216847
0.028132858 0.020610686 0.060516633 -0.054263715 -0.0064131008 0.032249164 -0.10212957 0.0002736933
0.067860834 0.46823862 -0.0029960517 -0.06185702 0.09318157 -0.020759128 0.0036395907 -0.0065382
0.08517824 -0.015891273 -0.0032654474 -0.01290881 0.020016344 -0.002888998 0.066677056 0.004952912
0.027387539 -0.0004149255 0.17502111 -0.039113443 0.031816795 -0.044778045 0.033118732 -0.071726434
0.004408324 -0.040163193 -0.042643808 0.06876848 0.11357877 0.059266508 0.03318568 0.005708854
0.043421123 0.036377795 0.004647653 -0.021866195 -0.013166807 0.059343457 -0.009534146 0.033234283
0.047024917 -0.011805692 -0.034563784 0.036541153 0.0030541685 0.016911764 0.0062199323 0.0028927077
0.03380806 0.09475428 -0.032310233 -0.031648066 0.20035835 0.08160445 -0.0212013 0.10885661
0.026486052 0.018833835 0.063058995 0.1492804 -0.1394828 0.035690844 0.08747373 -0.00082765013
0.08130226 0.5629648 0.011343073 0.022533674 0.12501448 -0.0043338025 -0.0030044408 -0.0019916245

qo_head.fc.bias f4 [4]
00000000: 94c8 3e3e 54d1 5d3e e6ad 403e 726f 413e
0.18631202 0.21661884 0.18816337 0.1889017
