trained-models/our-ppoc-mujoco-four-rooms.pth (torch_old, 239674 bytes, 63 tensors)

body.layers.0.weight f4 [64, 7]
0	0x3c9d204a	0.019180436
1	0xbc993a7c	-0.018704645
2	0xbf48030f	-0.7812967
3	0x3df8b923	0.12144687
4	0xbe59f875	-0.21286185
5	0xbd393b77	-0.045222726
6	0xbd90c5c4	-0.07068971
7	0xbde86f2c	-0.11349329
8	0x3daf4c8d	0.08559523
9	0xbd053ff4	-0.032531694
10	0x3bfaa5c5	0.007649156
11	0x3cd1ef2b	0.02562674
12	0x3c24d933	0.01006155
13	0xbe34fe1a	-0.17675057
14	0xbdd9a23d	-0.106266476
15	0x3e25e7c2	0.1620169
16	0xbd3ab195	-0.04557951
17	0x3c48c72a	0.012254516
18	0xbe034d16	-0.12822375
19	0xbdd18345	-0.10230116
20	0x3d497997	0.049188223
21	0x3d0fedd4	0.03513892
22	0x3dab7582	0.08372022
23	0x3e00e115	0.12585862
24	0xbe39f083	-0.18158154
25	0xbe987858	-0.29779315
26	0x3d46089e	0.04834806
27	0x3e7b4358	0.24537408
28	0x3e19d8ba	0.15024081
29	0x3d9f1c81	0.077691086
30	0x3ed47844	0.41498005
31	0x3bec3f09	0.007209663
32	0xbec292e0	-0.38002682
33	0xba3b7bd6	-0.0007151937
34	0xbddd4a1c	-0.10805151
35	0x3d37c1e7	0.044862654
36	0xbdd4fac4	-0.10399392
37	0x3d5b2945	0.053506155
38	0xbde16bcf	-0.11006891
39	0xbd708135	-0.05871697
40	0xbc420413	-0.011841792
41	0x3dfcbabc	0.12340304
42	0xbd718f06	-0.05897429
43	0xbdc44fbe	-0.09585522
44	0xbe0fcb33	-0.14042358
45	0x3e98c05f	0.29834267
46	0x3e559511	0.20857646
47	0x3df87b87	0.12132936
48	0xbd7d7377	-0.061877694
49	0xbd3f0dc9	-0.046644006
50	0xbd337b09	-0.043818507
51	0x3bb0c03e	0.005394011
52	0x3eaf2b14	0.34212554
53	0x3e82c9f3	0.255447
54	0x3df63714	0.12022224
55	0x3cc5fe1e	0.024169024
56	0xbe21268a	-0.15737358
57	0xbdbf44b7	-0.09339278
58	0xb978adf3	-0.00023715924
59	0xbd4556bb	-0.048178416
60	0x3cae7dea	0.021300275
61	0xbc417cb0	-0.011809513
62	0xbd92974e	-0.07157765
63	0xbe02c9ac	-0.12772244
64	0xbd20166c	-0.039083883
65	0x3deac547	0.11463409
66	0x3dad858b	0.08472737
67	0x3e9bf6fa	0.30461866
68	0xbd80b98f	-0.062853925
69	0x3dacbf2e	0.08434902
70	0x3b9e72a2	0.0048354426
71	0xbd09bbe5	-0.033626456
72	0x3f488d46	0.78340566
73	0x3c975751	0.018474253
74	0xbd9c6e53	-0.0763823
75	0xbb142013	-0.0022602126
76	0x3e4e4c5b	0.20146315
77	0xbdb57953	-0.088610314
78	0xbdda8b3a	-0.106710866
79	0xbd138629	-0.036016617
80	0xbe21ebd2	-0.15812615
81	0xbe58c116	-0.21167406
82	0xbc6402bd	-0.0139166685
83	0xbe21c2fa	-0.15797034
84	0x3c9d0a28	0.019169882
85	0xbd49f93e	-0.04930996
86	0x3ec3cf06	0.38243884
87	0xbe22abfd	-0.15885921
88	0xbe3fdbc9	-0.18736185
89	0xbd5da74c	-0.054114625
90	0xbd115b04	-0.03548719
91	0x3e26f0e1	0.16302826
92	0x3dd1b1a7	0.102389626
93	0x3f0eeca8	0.5582986
94	0x3cce357e	0.025171991
95	0xbcacd92a	-0.021099646
96	0x3dafff87	0.0859366
97	0x3e510582	0.20412257
98	0xbd99b7b8	-0.07505745
99	0xbdc81c2d	-0.09770999
100	0x3dbecd92	0.09316553
101	0xbdb41cc6	-0.087945506
102	0x3e49f9b1	0.19724156
103	0x3db197d2	0.086715356
104	0xbd36d066	-0.044632338
105	0x3c22568d	0.009908331
106	0x3d25cb1e	0.04047691
107	0x3e4aa9cf	0.1979134
108	0xbda53ed4	-0.08068624
109	0x3e318900	0.17337418
110	0x3db3c48e	0.08777724
111	0x3c54c7b6	0.012987068
112	0xbdf75b0f	-0.12077915
113	0xbdb84bac	-0.08998808
114	0x3ebf131b	0.37319264
115	0x3d8f6adf	0.07002806
116	0x3e41a58f	0.18910812
117	0x3d7537fc	0.059867844
118	0xbe539ad1	-0.20664527
119	0xbd450e93	-0.048109602
120	0xbe287a5e	-0.1645293
121	0xbe2b1328	-0.16706526
122	0xbd9f6863	-0.07783582
123	0xbe234ecf	-0.15948032
124	0xbd648ff2	-0.05580134
125	0xbde1a98a	-0.11018665
126	0x3e44e876	0.19229302
127	0x3d6aa2f1	0.0572843
128	0x3e8fa211	0.28053334
129	0xbdd3dbf6	-0.103446886
130	0x3d8ff376	0.07028858
131	0xbd941453	-0.07230439
132	0xbda9faf3	-0.08299818
133	0xbde592c6	-0.112096354
134	0xbe1265ff	-0.14296721
135	0x3eb02dcb	0.34409937
136	0x3dc670e6	0.096895024
137	0xbea81989	-0.32831982
138	0xbd9057a7	-0.07047968
139	0xbd9bc0c4	-0.076051265
140	0xbdb52efe	-0.08846854
141	0x3e272ef4	0.16326505
142	0xbc1e4d04	-0.009661917
143	0xbd86f7c8	-0.06590229
144	0x3d9a325b	0.07529136
145	0xbe1d28d1	-0.15347601
146	0xbb54ef68	-0.003249133
147	0xbdc8b149	-0.097994395
148	0x3dcc34c2	0.09971
149	0xbbbe277d	-0.005803047
150	0x3d61450d	0.054997493
151	0x3deacaa8	0.11464435
152	0x3d7927d4	0.060829
153	0xbe80644b	-0.25076517
154	0x3de9dcda	0.11419077
155	0x3d984214	0.074344784
156	0x3c77aea1	0.015117318
157	0x3d9b471c	0.075819224
158	0xbd6ea1f0	-0.058259904
159	0x3cb34213	0.021882093
160	0x3e5c1c7b	0.2149524
161	0x3d5f3e2e	0.05450266
162	0x3e84f302	0.2596665
163	0x3eba165f	0.36345193
164	0x3dd3ed45	0.1034799
165	0x3e0b52bd	0.13605781
166	0xbcc567ae	-0.02409729
167	0x3bdf1c3a	0.006808785
168	0x3d73b8a7	0.05950227
169	0x3c681c9c	0.014166977
170	0x3f091bc7	0.5355801
171	0xbcb75ec5	-0.022384057
172	0xbe0c6193	-0.13709097
173	0xbe52d52a	-0.20589128
174	0xbdb0727b	-0.086155854
175	0x3e812a98	0.2522781
176	0x3e62a1d4	0.22132045
177	0x3cdfb893	0.027309692
178	0xbd967ba8	-0.07347804
179	0x3dc0e9ba	0.0941958
180	0x3a06e9f5	0.00051465567
181	0xbe08f1d2	-0.13373497
182	0x3dd30644	0.103039294
183	0x3e45d1aa	0.19318262
184	0x3e21ef99	0.15814056
185	0x3d087a72	0.033319898
186	0x3e3f0deb	0.18657653
187	0x3cd0f7fa	0.02550887
188	0xbdb026e6	-0.08601169
189	0x3b251725	0.0025190797
190	0xbe56a457	-0.20961128
191	0xbe80c939	-0.2515352
192	0xbcf46f55	-0.029838243
193	0x3d7e9382	0.062152393
194	0x3de447f9	0.1114654
195	0xbe0f72b9	-0.14008607
196	0xbeadbffe	-0.3393554
197	0xbe2a6712	-0.1664088
198	0x3de2c016	0.11071794
199	0xbd2e264a	-0.042516984
200	0x3e001626	0.12508449
201	0x3d4864bf	0.048924204
202	0x3c6e18e4	0.014532302
203	0xbe3e034a	-0.18555942
204	0x3e6bfccc	0.23045653
205	0x3c7e5ab8	0.015524559
206	0x3ce8ac97	0.02840261
207	0x3d7d5dce	0.061857037
208	0xbd62796a	-0.05529157
209	0x3dc9624d	0.098332025
210	0xbd6c9b1d	-0.057765115
211	0xbda04a20	-0.07826638
212	0x3ebf1f39	0.37328508
213	0xbe41825f	-0.18897389
214	0xbe7e7804	-0.2485047
215	0xbd69a0e0	-0.057038188
216	0x3dd89c42	0.10576679
217	0x3c53bbf2	0.012923228
218	0xbd824fb9	-0.06362862
219	0x3eaba667	0.33525392
220	0xbd7c699f	-0.061624166
221	0xbd24d379	-0.04024074
222	0x3d736501	0.059422497
223	0x3db1eb3d	0.08687446
224	0xbca330eb	-0.019920787
225	0x3cdf0dd1	0.027228268
226	0xbf164030	-0.5869169
227	0xbe4a7716	-0.1977199
228	0xbe267eb2	-0.16259268
229	0xbd83dcbe	-0.064385876
230	0x3e3e1761	0.18563606
231	0x3cc22ed0	0.023703963
232	0xbd844a89	-0.06459529
233	0xbe98c482	-0.29837424
234	0xbca12631	-0.019671531
235	0x3e06ac80	0.13151741
236	0x3d64a357	0.055819836
237	0xbd6f3c0c	-0.058406875
238	0xbe175155	-0.1477712
239	0xbe6524cd	-0.2237732
240	0xbe6d7ad6	-0.2319139
241	0x3d0eb4f0	0.034840524
242	0x3cc55a81	0.024091007
243	0x3cdb54b8	0.026773795
244	0x3e31ad16	0.17351183
245	0xbe0456ab	-0.12923686
246	0xbe87b2d5	-0.26503626
247	0x3e6f4af4	0.23368436
248	0x3c22dcec	0.009940367
249	0xbe031475	-0.12800772
250	0xbd374607	-0.044744518
251	0xbc9a084a	-0.01880278
252	0x3c80de2e	0.015730944
253	0x3d6bd38c	0.057574794
254	0xbe6aeb6d	-0.2294137
255	0x3cec7bed	0.028867686

body.layers.0.bias f4 [64]
0	0x3e370687	0.17873584
1	0xbd7a1584	-0.061055675
2	0xbdadb589	-0.08481891
3	0x3ef88b68	0.4854386
4	0x3cdf8259	0.027283834
5	0x3e9e8cb6	0.3096673
6	0x3d2f8f7c	0.042861447
7	0x3c7c8284	0.015411977
8	0xbde846be	-0.11341618
9	0xbc5d1f79	-0.013496273
10	0x3c80a389	0.01570298
11	0xbd90994b	-0.07060488
12	0xbe39b180	-0.18134117
13	0xbdb9e0b9	-0.090760656
14	0xbdfefaa8	-0.12450153
15	0x3efbc8e1	0.49176696
16	0xbd96962a	-0.0735286
17	0xbce7b891	-0.02828625
18	0x3d8be44c	0.068306535
19	0xbe41d79e	-0.18929908
20	0xbe0a0bea	-0.13481107
21	0xbd88f337	-0.066870145
22	0xbf0c34e4	-0.54768205
23	0x3f033e06	0.51266515
24	0xbe0086b1	-0.1255138
25	0x3ea10caa	0.31454974
26	0x3c1e7e73	0.0096737025
27	0x3ad447a9	0.0016195673
28	0x3e41705d	0.1889052
29	0xbdd5ce20	-0.10439706
30	0xbd0a4be0	-0.033763766
31	0xbdea681d	-0.11445639
32	0x3ddbacfe	0.10726355
33	0x3d7f9ad3	0.06240351
34	0x3e2f6c75	0.17131217
35	0xbdb3979d	-0.08769152
36	0x3e9e8aba	0.30965215
37	0xbd037cf5	-0.03210159
38	0xbe60a964	-0.21939617
39	0xbdc9fe83	-0.098629974
40	0xbda174e0	-0.0788362
41	0x3f159df7	0.5844416
42	0x3e4d9295	0.20075448
43	0x3ec873df	0.39150903
44	0xbe0acfae	-0.13555786
45	0xbd812aac	-0.06306967
46	0x3edd5243	0.43226823
47	0x3df82de3	0.12118127
48	0xbde4ab90	-0.111655354
49	0x3f061234	0.52371526
50	0xbd2a0ad3	-0.04151423
51	0xbe45dd78	-0.19322765
52	0xbecbf9d9	-0.39839056
53	0xbd895e75	-0.067074694
54	0x3e8a061d	0.2695779
55	0xbe21a357	-0.15784965
56	0x3e3910c6	0.18072805
57	0xbe02bf84	-0.1276837
58	0xbd3125b0	-0.043248832
59	0x3ee430a0	0.44568348
60	0xbd17da14	-0.03707321
61	0xbc654f1e	-0.013995914
62	0xbdaec7a1	-0.0853417
63	0xbe1a0330	-0.15040278

body.layers.1.weight f4 [64, 64]
0	0xbdeb8e09	-0.115017004
1	0x3da527e2	0.08064248
2	0x3d3a9831	0.045555297
3	0xbdea63fc	-0.11444852
4	0x3dc5e3e4	0.09662607
5	0xbd9b9193	-0.075961255
6	0xbd01faa5	-0.031733174
7	0xbd83ddb0	-0.06438768
8	0xbd7b9cca	-0.061428823
9	0xbc47a3c7	-0.012185044
10	0x3e181ea6	0.14855441
11	0x3d4c4897	0.049873915
12	0x3d21828c	0.03943114
13	0x3e0020b9	0.12512483
14	0xbda4f4c5	-0.080544986
15	0x3d7a1826	0.061058186
16	0x3e51b3e6	0.20478782
17	0x3c397e3a	0.011321599
18	0x3cbe9b14	0.023267306
19	0x3e35057f	0.17677878
20	0xbe86e1e7	-0.26344225
21	0xbc2b5cf0	-0.01045917
22	0xbdb392c7	-0.0876823
23	0x3db949c2	0.09047271
24	0x3e8490d7	0.25891754
25	0xbe92121b	-0.28529438
26	0x3e4046bb	0.18776982
27	0xbd6128b7	-0.05497047
28	0x3e791b47	0.24326812
29	0x3d12d72e	0.035849743
30	0x3e98a19f	0.29810807
31	0x3e75a7ca	0.23989788
32	0xbe1dbe06	-0.1540452
33	0xbe9afe89	-0.3027232
34	0x3e046362	0.12928537
35	0x3e1e3b1b	0.15452234
36	0xbd8ccecc	-0.06875381
37	0x3dc38617	0.0954706
38	0x3d993c57	0.07482212
39	0xbdec82ac	-0.11548361
40	0xbce5db82	-0.028058771
41	0xbdc619f0	-0.09672916
42	0x3db635ff	0.08897018
43	0xbe451e9a	-0.19249955
44	0x3e155e9f	0.14586876
45	0x3dd7a1c3	0.105289005
46	0xbe339651	-0.1753781
47	0xbde85d62	-0.11345936
48	0x3df0af5e	0.11752199
49	0x3d927320	0.071508646
50	0xbdb57c82	-0.088616386
51	0xbe5c639b	-0.21522371
52	0xbdd7710e	-0.1051961
53	0x3d369e14	0.04458435
54	0x3e1d5b6e	0.15366909
55	0xbca98ca6	-0.02069695
56	0x3e166fe5	0.14691122
57	0xbe41eb3e	-0.18937394
58	0x3d1e5d91	0.03866345
59	0xbe8eacc5	-0.27866188
60	0xbde019bc	-0.109424084
61	0x3e05c73a	0.1306428
62	0xbe414f44	-0.18877894
63	0x3d61f44b	0.055164617
64	0xbddd21e1	-0.107974775
65	0xbe2d80e3	-0.16943698
66	0xbd1f1672	-0.038839765
67	0x3e5f72cc	0.21821135
68	0x3e53d6b8	0.20687377
69	0xbd14f21d	-0.03636371
70	0xbe235457	-0.15950142
71	0x3dd3854d	0.103281595
72	0x3ebf9278	0.37416434
73	0x3e4a60a0	0.19763422
74	0x3d8443d4	0.0645825
75	0xbe6636b1	-0.224818
76	0xbd49ee2d	-0.049299408
77	0x3c97bc75	0.01852248
78	0x3e289ecd	0.16466828
79	0x3bce5b4d	0.006297505
80	0x3d0be499	0.034153555
81	0x3cf539b8	0.029934749
82	0x3dbad65d	0.09122918
83	0xbc6647fb	-0.014055247
84	0xbdaa3451	-0.0831076
85	0xbd8735d2	-0.06602062
86	0x3dc82edb	0.09774562
87	0x3ee74a99	0.451741
88	0xbd9b2f27	-0.07577353
89	0x3d0d74a5	0.03453507
90	0x3c4604c4	0.012086097
91	0xbb1dc2a1	-0.0024072307
92	0x3cc1103f	0.023567317
93	0x3e9b8189	0.30372265
94	0xbdbb84eb	-0.091562115
95	0xbe47ef95	-0.19524987
96	0xbe3eea4a	-0.18644062
97	0x3d6b87e1	0.05750263
98	0x3dc10c8c	0.09426221
99	0x3d8bc78d	0.06825171
100	0x3da43ee8	0.08019811
101	0x3e1eae7f	0.15496252
102	0x3dbc2c57	0.09188145
103	0xbce115f0	-0.02747628
104	0xbddb8276	-0.10718243
105	0x3e0b5f0c	0.13610476
106	0x3e660871	0.22464158
107	0xbe15291d	-0.14566465
108	0xbd588d63	-0.052869212
109	0xbcbd8613	-0.02313522
110	0x3e000c34	0.12504655
111	0x3daedbd2	0.08538021
112	0x3c6b71e7	0.014370418
113	0x3c48fbcf	0.012267067
114	0x3e1a3895	0.15060647
115	0xbd3039b3	-0.043023776
116	0xbde7347f	-0.1128931
117	0xbe721e5b	-0.23644392
118	0x3e1abffe	0.15112302
119	0x3c91b739	0.017787563
120	0x3dc539c2	0.09630157
121	0x3dd9e517	0.106393985
122	0xbdc0b0aa	-0.09408696
123	0xbe0404c5	-0.12892444
124	0xbde7a227	-0.11310225
125	0x3e0a227d	0.13489719
126	0x3df2d440	0.1185689
127	0xbd59add1	-0.05314428
128	0x3d88e08d	0.06683455
129	0x3d1b86e9	0.037970457
130	0x3e135491	0.14387728
131	0x3e15b4b3	0.14619713
132	0xbe274e56	-0.16338477
133	0x3d998a7b	0.07497116
134	0x3d568d34	0.052380756
135	0x3e2ea6d8	0.17055833
136	0x3c3ac87b	0.011400337
137	0x3e6d7c34	0.23191911
138	0x3bca8909	0.0061808866
139	0xbbbdfda2	-0.0057980577
140	0x3dea856e	0.11451231
141	0x3c869a00	0.016430855
142	0xbc876a25	-0.016530106
143	0x3de9820a	0.11401756
144	0xbc0fc229	-0.008774319
145	0xbd7a931c	-0.06117545
146	0x3bc4a82b	0.0060014925
147	0xba07f5a6	-0.0005186446
148	0x3b68b749	0.0035509637
149	0xbe21a783	-0.15786557
150	0xbe1ec592	-0.15505055
151	0xbe3b8147	-0.18311034
152	0xbcc5fd4a	-0.02416863
153	0xbca5de13	-0.020247495
154	0x3d017bb4	0.031612113
155	0x3ce83c59	0.028349089
156	0xbd691145	-0.056901235
157	0x3d38e3e1	0.045139197
158	0xbd30bf29	-0.043151055
159	0x3ce546d1	0.02798787
160	0x3d6660c7	0.056244638
161	0x3dea34e2	0.11435868
162	0x3dd4447b	0.10364624
163	0xb94b0bd6	-0.00019363998
164	0xbcdd1cfe	-0.026991364
165	0xbde83ae3	-0.11339357
166	0x3cbe45d9	0.023226665
167	0x3e80104c	0.25012434
168	0x3e68b01b	0.22723429
169	0xbcd29a8b	-0.025708457
170	0xbe2f4c8a	-0.17119041
171	0xbe1d47bb	-0.15359394
172	0xbe033bc5	-0.12815769
173	0x3d9a89ef	0.0754584
174	0xbd9b70ba	-0.0758986
175	0x3daf66ab	0.08564504
176	0x3c8fb596	0.017542642
177	0x3e3a3f77	0.18188272
178	0x3cf8eb94	0.03038577
179	0x3d69e9c6	0.05710771
180	0x3df5055a	0.11963911
181	0xbdd94cab	-0.106103264
182	0x3e4fb384	0.20283324
183	0x3c2a09ef	0.010378345
184	0x3e45618b	0.19275491
185	0xbd0cedb1	-0.034406368
186	0xbce923fa	-0.028459538
187	0x3dc9c20a	0.09851463
188	0xbdb840a9	-0.08996708
189	0x3e440ba0	0.1914506
190	0x3c3a0424	0.011353526
191	0x3e00a8b1	0.1256435
192	0x3e8d1509	0.2755511
193	0x3b8c3cba	0.0042797
194	0xbd0279c4	-0.031854406
195	0x3d50a72e	0.050940685
196	0x3d1c4d79	0.03815982
197	0x3e611fc4	0.21984774
198	0x3c2fe7ee	0.010736449
199	0x3e54360f	0.20723747
200	0xbe5002ca	-0.20313564
201	0xbe023bea	-0.12718168
202	0xbe8fca8d	-0.2808422
203	0x3ba4bde5	0.00502752
204	0xbc87fb10	-0.016599208
205	0xbdd244c6	-0.10267024
206	0x3d4ab09d	0.049484838
207	0x3dbb29c0	0.091388226
208	0xbe294cad	-0.16533156
209	0x3db5adff	0.08871078
210	0x3e177cb2	0.14793661
211	0xbd27f627	-0.041006234
212	0xbe5c802d	-0.2153327
213	0x3d86c029	0.065796204
214	0xbe5d1992	-0.21591786
215	0xbe9e4c35	-0.30917516
216	0x3d8144cf	0.06311952
217	0x3cf0c052	0.02938858
218	0xbe0a1e7f	-0.13488196
219	0xbdcfea51	-0.10152114
220	0xbe8b55e3	-0.27213964
221	0xbe78cf3e	-0.24297807
222	0x3e0a1a25	0.13486536
223	0xbe779195	-0.24176629
224	0x3e7fca7c	0.24979585
225	0x3dd93fc4	0.106078655
226	0xbe4336c0	-0.19063854
227	0x3dedd478	0.11612791
228	0xbb42830b	-0.0029680158
229	0xbc143926	-0.009046828
230	0xbe363cbd	-0.17796607
231	0x3dbd1485	0.092324294
232	0x3ca252a1	0.019814791
233	0x3d512466	0.051060103
234	0xbd07a249	-0.03311375
235	0xbba6f3e5	-0.0050949925
236	0xbb155ee9	-0.0022792167
237	0x3d5fe806	0.054664634
238	0xbe456360	-0.1927619
239	0xbc27ab72	-0.010233747
240	0x3d15b8fb	0.036553364
241	0x3d8ad9ae	0.067798
242	0x3e5b1228	0.21393645
243	0xbe8ab2fa	-0.27089673
244	0xbdd21fe7	-0.10259991
245	0x3da7d394	0.08194652
246	0x3e102146	0.14075193
247	0xbe5ab36e	-0.2135751
248	0xbdf79400	-0.12088776
249	0xbe161d4c	-0.14659613
250	0x3d1635db	0.036672454
251	0x3e89f2f3	0.26943168
252	0x3c457fb3	0.012054372
253	0x3d36fe21	0.04467595
254	0x3def0e24	0.11672619
255	0xbe99d830	-0.3004775

body.layers.1.bias f4 [64]
0	0x3c6d87d6	0.014497718
1	0x3d954d3b	0.07290121
2	0x3de01a26	0.109424874
3	0x3ea1b3d8	0.31582522
4	0x3c21c549	0.009873697
5	0xbd7ab46c	-0.06120722
6	0x3dd483fe	0.10376738
7	0x3e6e4de9	0.23271908
8	0x3dc353c7	0.09537464
9	0x3e28f56a	0.16499868
10	0xbe5cf275	-0.21576865
11	0xbd9a7751	-0.07542289
12	0xbda219ec	-0.079151005
13	0x3f421574	0.75813985
14	0xbe3381ef	-0.17530034
15	0xbe52a9ee	-0.20572636
16	0xbd6223ed	-0.055210043
17	0x3dac504a	0.084137514
18	0x3c82da44	0.015973218
19	0x3d42e9bc	0.047586188
20	0xbd473220	-0.048631787
21	0x3a62c0e3	0.0008649958
22	0x3da159b6	0.07878439
23	0x3db963ef	0.09052264
24	0xbda4728b	-0.0802966
25	0x3e25060c	0.16115588
26	0x3ea156a8	0.31511426
27	0xbd8ee767	-0.0697773
28	0xbc3d1ad8	-0.011542045
29	0xbbcbb6f5	-0.0062168785
30	0x3b2e1b2c	0.0026566489
31	0x3ea5e25c	0.3239926
32	0xbdeb2bb4	-0.11482945
33	0x3de7ac07	0.113121085
34	0x3ea12aa2	0.3147784
35	0x3f1a1bb4	0.6019852
36	0xbd858c47	-0.065208964
37	0xbd12bb32	-0.035823055
38	0xbd090365	-0.033450503
39	0x3e921dc2	0.28538328
40	0x3dc499c0	0.09599638
41	0xbdb0b902	-0.086290374
42	0x3e47a0a8	0.19494879
43	0xbe17edff	-0.14836882
44	0xbd7a4cff	-0.061108585
45	0x3d4ad71a	0.049521543
46	0xbd499246	-0.049211763
47	0xbcc8e5e5	-0.024523685
48	0xbd9ec87d	-0.07753084
49	0x3dc76909	0.09736831
50	0xbce368ca	-0.027759928
51	0xbde3daef	-0.11125743
52	0xbd0d0c75	-0.034435708
53	0x3e58aa47	0.21158706
54	0xbd845427	-0.06461363
55	0x3d9e9bcc	0.0774456
56	0x3ceb4b9a	0.028722573
57	0x3d8c2ca2	0.068444505
58	0xbd745cc5	-0.059658784
59	0x3e59d2b5	0.21271785
60	0x3d341017	0.043960657
61	0xbd1a0bf8	-0.03760907
62	0x3e28fd91	0.16502978
63	0x3eeb8031	0.4599624

pmu_body.layers.0.weight f4 [64, 7]
0	0x3dac0139	0.08398671
1	0x3c80b0cc	0.015709303
2	0xbf054b4a	-0.52068007
3	0xbe9211ad	-0.2852911
4	0xbe503f57	-0.20336662
5	0xbe802869	-0.2503083
6	0xbe5ff71f	-0.21871613
7	0xbe8713ba	-0.26382238
8	0x3d05570c	0.032553717
9	0x3d770e06	0.06031611
10	0x3d87a1d5	0.06622664
11	0x3d84b03e	0.06478928
12	0xbdfd1655	-0.12357775
13	0xbdad75e9	-0.08469755
14	0xbea22327	-0.31667444
15	0x3d5b4d64	0.053540602
16	0xbdd3494b	-0.10316714
17	0x3cbf9178	0.023384795
18	0xbe325386	-0.17414674
19	0x3cfdc4d6	0.030977648
20	0xbdb1f7ef	-0.08689868
21	0x3d2f7f4c	0.04284601
22	0x3a2a3eff	0.00064943725
23	0x3d935349	0.0719362
24	0x3e0d2181	0.13782312
25	0xbd7f033f	-0.062258955
26	0x3dd31f9e	0.10308765
27	0x3e09e0f4	0.13464719
28	0x3e9e27a3	0.30889615
29	0x3e9b2923	0.30304822
30	0xbe9ae057	-0.30249283
31	0xbe17d22b	-0.14826266
32	0xbd00de13	-0.031461786
33	0xbe097c84	-0.13426405
34	0xbed20738	-0.41021132
35	0x3dec5e51	0.11541427
36	0x3e827b16	0.25484532
37	0x3d90dc44	0.07073262
38	0x3def094a	0.116716936
39	0x3c4ab1bd	0.012371478
40	0xbdfbf348	-0.123022616
41	0xbe302100	-0.17200089
42	0x3dc9a43b	0.098457776
43	0x3e2b88a3	0.16751342
44	0xbdf78626	-0.12086134
45	0x3d31a0b0	0.043366134
46	0xbe44ad4f	-0.19206737
47	0xbe3a2dbd	-0.1818151
48	0x3db7c108	0.08972365
49	0xbe2c7229	-0.16840424
50	0xbe1bc074	-0.15210134
51	0xbd9e2f67	-0.07723885
52	0xbe19904e	-0.14996454
53	0xbdde1ac0	-0.10844946
54	0x3c94eb20	0.018178523
55	0xbd44c000	-0.048034668
56	0x3d372e7b	0.04472206
57	0x3ca39c7c	0.019972079
58	0x3f36dcf6	0.7143091
59	0x3a77abeb	0.000944792
60	0xbe2fcb24	-0.17167336
61	0xbd716f79	-0.0589442
62	0xbdc0a3e6	-0.09406261
63	0xbc4daa12	-0.012552755
64	0xbce48d87	-0.027899517
65	0xbea88bba	-0.32919103
66	0x3d411dd7	0.047147598
67	0xbe57f878	-0.21090877
68	0x3e7dffd2	0.24804619
69	0xbd80023d	-0.06250427
70	0x3cd0eb4d	0.025502825
71	0xbd6b51b4	-0.057450965
72	0x3edb8b98	0.4287994
73	0x3ebcf071	0.36902192
74	0xbe57c33d	-0.21070571
75	0xbeb29113	-0.34876308
76	0xbe7e6502	-0.24843219
77	0xbd117eb5	-0.035521228
78	0xbe13ed5e	-0.14446017
79	0x3f314da4	0.69259095
80	0xbe631793	-0.22176962
81	0xbe03e39b	-0.12879793
82	0x3d1f31d5	0.038865883
83	0xbe4ce4bd	-0.20009132
84	0x3cd6a589	0.02620198
85	0x3b9e37ce	0.00482843
86	0x3e8a480f	0.270081
87	0xbe06dd20	-0.1317029
88	0x3e511cca	0.20421138
89	0xbd083d0e	-0.03326135
90	0xb932a807	-0.00017037998
91	0x3e12a02e	0.14318916
92	0x3daf85fd	0.08570478
93	0xbeb7b2af	-0.35878512
94	0x3e4ae6d1	0.19814612
95	0x3da6a12d	0.081362106
96	0x3d0ca7cb	0.034339707
97	0x3e335374	0.17512304
98	0xbdaf941e	-0.08573173
99	0xbe27b928	-0.16379225
100	0xbf1ce5b3	-0.61287993
101	0x3d9028ff	0.070390694
102	0xbe32432a	-0.17408434
103	0x3d3893e6	0.045062922
104	0x3c4a32a3	0.012341174
105	0x3d89c388	0.06726748
106	0x3d11f23f	0.035631415
107	0xbefcf7aa	-0.49407703
108	0xbd0bdb01	-0.034144405
109	0xbe1e51a5	-0.15460832
110	0xbe308238	-0.17237175
111	0x3e41c335	0.18922122
112	0x3db2105e	0.08694528
113	0x3d8fcb1f	0.07021164
114	0xbf57424c	-0.84085536
115	0xbda98a55	-0.08278338
116	0xbeb60eea	-0.35558254
117	0xbdb024e9	-0.0860079
118	0xbe5b0d25	-0.21391733
119	0x3e219de6	0.1578289
120	0x3ed5a09f	0.41724107
121	0x3e98c51a	0.29837877
122	0x3e3dc571	0.18532349
123	0xbd913ad9	-0.070913024
124	0xbe15ebd8	-0.14640749
125	0x3db2153c	0.086954564
126	0xbd4a726f	-0.04942554
127	0xbd291c45	-0.041286726
128	0xbf14a87e	-0.580696
129	0xbe36785c	-0.17819351
130	0x3df616dd	0.120160796
131	0x3dda2eaa	0.10653432
132	0x3c34f7d0	0.011045411
133	0x3d3a4be9	0.04548255
134	0x3d24c968	0.04023114
135	0xbf4c2733	-0.79747313
136	0x3e65a864	0.22427517
137	0x3e78240c	0.24232501
138	0xbe53d1f5	-0.20685561
139	0x3d82f103	0.063936256
140	0xbe6c90e9	-0.23102154
141	0x3d1e8efd	0.038710583
142	0xbca6c285	-0.020356426
143	0x3d8b7ecd	0.06811295
144	0x3c39b95e	0.011335699
145	0xbc625ba2	-0.013815792
146	0x3dd9d14a	0.10635622
147	0x3cb82446	0.022478234
148	0x3e998a89	0.29988506
149	0x3e209088	0.15680134
150	0xbdb8262c	-0.08991656
151	0xbe367cdb	-0.17821066
152	0x3ddb06bb	0.10694643
153	0x3da5a94c	0.080889314
154	0xbc7d0a26	-0.015444314
155	0xbcc425a3	-0.023943728
156	0xbf14fab7	-0.5819506
157	0x3ca2945e	0.019846138
158	0xbdaba343	-0.08380749
159	0x3e0d1afe	0.13779828
160	0x3dce149c	0.10062525
161	0xbd8ce55e	-0.06879686
162	0xbd6bfd6e	-0.057614736
163	0xbf0c27db	-0.54748315
164	0xbe9fd55f	-0.31217477
165	0x3e2b1048	0.1670543
166	0x3e16e73d	0.14736648
167	0x3d3b159f	0.045674916
168	0x3d7c13fa	0.06154249
169	0x3d31fb0a	0.0434523
170	0xbe87609d	-0.26440898
171	0x3df03d9c	0.11730501
172	0xbdf3e423	-0.11908748
173	0x3dc6e5fc	0.09711835
174	0x3e097ac1	0.13425733
175	0x3d507c3d	0.050899733
176	0x3d2f3ba7	0.0427815
177	0x3eb783cd	0.35842744
178	0xbb8ef1db	-0.0043623275
179	0xbe022b13	-0.12711744
180	0xbc4f55cc	-0.012654733
181	0xbc994101	-0.018707754
182	0xbdd91603	-0.105999015
183	0xbdf9f711	-0.12205327
184	0x3d78c41a	0.060733892
185	0x3e527da1	0.20555736
186	0x3ebcb143	0.3685399
187	0xbe1372d6	-0.14399275
188	0x3e8385b1	0.25687936
189	0x3e008ba1	0.12553264
190	0x3e8a57f3	0.27020225
191	0x3d484d79	0.04890201
192	0xbc8c0506	-0.01709224
193	0x3dc5ee21	0.0966456
194	0x3e2804ba	0.16408053
195	0x3d177fb1	0.03698701
196	0x3d964d58	0.07338971
197	0x3e0cb5ba	0.13741198
198	0xbe6c4df5	-0.23076613
199	0x3be44909	0.0069667143
200	0xbd575ce5	-0.052578826
201	0x3cd3b0c7	0.02584113
202	0xbe5f036e	-0.21778652
203	0xbd9ec447	-0.07752281
204	0xbdf0ad35	-0.117517866
205	0xbe27f439	-0.16401757
206	0x3ead6603	0.3386689
207	0x3e7eaa37	0.2486962
208	0x3cc770dc	0.024345808
209	0x3e44693c	0.19180769
210	0x3dad6ad2	0.0846764
211	0x3dcb81b7	0.099368505
212	0x3e310ace	0.17289278
213	0xbe58f9aa	-0.2118899
214	0xbe858b58	-0.26082873
215	0xbdcb1e6b	-0.09917911
216	0x3d9de13a	0.07708974
217	0x3de30879	0.110856004
218	0x3d8bdd19	0.068292804
219	0x3cfaf1f6	0.030632954
220	0x3e32e92f	0.17471765
221	0xbddd70f3	-0.10812559
222	0xbd1fc770	-0.039008558
223	0x3e0e52df	0.138988
224	0x3c87da29	0.016583519
225	0xbb0b72a1	-0.002127804
226	0x3f247f16	0.6425642
227	0xbdd67835	-0.104721464
228	0x3c01e25a	0.007927502
229	0x3e761a4e	0.24033472
230	0x3e46dfed	0.19421358
231	0xbe26bbb8	-0.16282547
232	0xbe26244f	-0.16224788
233	0x3e1b1afa	0.1514701
234	0x3e211eae	0.1573436
235	0x3ed50c85	0.41611114
236	0xbd80da36	-0.062916204
237	0xbd288cf6	-0.041150056
238	0xbea27992	-0.31733376
239	0xbe769f67	-0.24084245
240	0xbee31f6c	-0.4435991
241	0xbd0b86c1	-0.03406406
242	0x3e0e59fb	0.13901512
243	0x3d1f33e0	0.03886783
244	0x3baa2c63	0.0051932796
245	0x3c64ba99	0.013960504
246	0xbc4efaaf	-0.01263301
247	0xbf04f8c1	-0.5194207
248	0x3e318e80	0.17339516
249	0xbd7a2e5a	-0.06107936
250	0x3eab6c0b	0.33480868
251	0xbe00e4de	-0.12587306
252	0xbe9dfb02	-0.30855566
253	0x3c41fee6	0.011840558
254	0x3e877e18	0.2646339
255	0xbdb1b083	-0.08676245

pmu_body.layers.0.bias f4 [64]
0	0xbe087b13	-0.13328199
1	0xbd047260	-0.03233564
2	0x3e9d2413	0.30691585
3	0xbe19ae7e	-0.1500797
4	0x3cb9ee46	0.022696625
5	0x3e9856f6	0.29753846
6	0x3c486d0d	0.012233031
7	0x3e827e5d	0.25487033
8	0x3dd75bc6	0.10515551
9	0xbcf7a22e	-0.0302287
10	0xbe445d84	-0.19176298
11	0xbe08f36b	-0.13374107
12	0xbe0abc0d	-0.13548298
13	0xbe0c10a5	-0.13678224
14	0xbd24c227	-0.04022422
15	0xbe1953a6	-0.14973316
16	0x3e0cf681	0.13765909
17	0x3df52f20	0.11971879
18	0xbd3e86cf	-0.046515282
19	0x3e5e4abb	0.21708195
20	0xbdaff1c0	-0.08591032
21	0xbcc26dab	-0.023733934
22	0xbb2f1273	-0.0026713877
23	0xbdcd851b	-0.100351535
24	0x3d8b0153	0.06787362
25	0x3e59ce9f	0.21270226
26	0x3e1ab792	0.15109089
27	0x3d748453	0.059696507
28	0x3e6ca415	0.23109467
29	0xbd802756	-0.06257503
30	0xbe3e84d8	-0.18605363
31	0xbcebb9ee	-0.028775182
32	0xbe39ca19	-0.181435
33	0x3da7543a	0.08170362
34	0x3e94934b	0.29018626
35	0xbda215ef	-0.0791434
36	0x3ea0575d	0.31316653
37	0xbd6b8d4b	-0.057507794
38	0xbd85f8e5	-0.065416135
39	0x3d57ca8b	0.052683394
40	0x3ef50a96	0.4785964
41	0x3e7427d4	0.23843318
42	0x3e817248	0.25282502
43	0x3dfae735	0.122511305
44	0xbcc0c0de	-0.023529466
45	0x3e520b71	0.20512177
46	0xbde7f796	-0.1132652
47	0x3e62c203	0.22144322
48	0xbe638fa9	-0.22222771
49	0x3e1046a1	0.14089443
50	0x3d61dd9c	0.055142984
51	0x3ed2feed	0.41210118
52	0xbd1c08fd	-0.03809451
53	0x3e76457e	0.24049947
54	0x3e7e4531	0.24831082
55	0x3e17e4e8	0.14833415
56	0x3d34ce46	0.04414203
57	0x3e01785c	0.1264357
58	0x3e49b2fe	0.19697186
59	0xbe19afc6	-0.15008458
60	0xbd168ca7	-0.03675523
61	0xbe3e2fca	-0.18572918
62	0x3e97e9c4	0.29670537
63	0x3eacb178	0.33729148

pmu_body.layers.1.weight f4 [64, 64]
0	0xbea02841	-0.3128071
1	0x3da7c8ee	0.08192621
2	0xbd89c281	-0.06726552
3	0x3d07cf64	0.033156767
4	0x3e837173	0.25672492
5	0x3dc913b1	0.09818209
6	0x3e9da048	0.30786347
7	0xbe745c91	-0.23863436
8	0x3dafe8b0	0.085893035
9	0xbdcfa944	-0.10139707
10	0xbe2464b5	-0.16054042
11	0xbd633fae	-0.05548065
12	0x3d3c8784	0.046027675
13	0xbe402f24	-0.18767983
14	0x3c3b21c9	0.011421629
15	0xbe10fed8	-0.14159715
16	0xbde2596e	-0.110522136
17	0x3e6ecc0b	0.23320024
18	0xbcd71d13	-0.02625898
19	0x3e746a33	0.23868637
20	0x3e1bf583	0.15230374
21	0x3d90cbea	0.070701435
22	0xbdcf473e	-0.1012101
23	0xbcc91e0f	-0.024550466
24	0x3dbf9975	0.093554415
25	0x3e3b43a9	0.18287529
26	0xbddba942	-0.10725643
27	0x3d809cc5	0.062799014
28	0x3e3fb052	0.18719605
29	0xbe2e83b1	-0.17042424
30	0x3c636d11	0.013880984
31	0x3e112e7e	0.14177892
32	0xbde3d6a0	-0.11124921
33	0xbe1ffba7	-0.15623342
34	0x3dc47313	0.09592261
35	0xbe3658ce	-0.17807314
36	0xbecf11f3	-0.40443382
37	0xbdc3d871	-0.09562767
38	0xbe20a60a	-0.15688339
39	0xbe1b0d42	-0.15141776
40	0x3e80f026	0.2518322
41	0xbe108971	-0.1411493
42	0xbe847c94	-0.25876296
43	0xbdc1acd3	-0.09456792
44	0x3ea0bad1	0.3139253
45	0x3e00ccad	0.12578078
46	0xbb273b6b	-0.0025517594
47	0x3ef834d4	0.48477805
48	0xbe1d2db8	-0.15349472
49	0x3df3bfe3	0.11901834
50	0x3e1468da	0.14493123
51	0x3e8466d9	0.25859717
52	0x3c1a0894	0.009401459
53	0x3e5a5994	0.21323234
54	0xbe45da9d	-0.19321676
55	0x3d8cef45	0.068815745
56	0x3dc70399	0.09717483
57	0x3c543e50	0.01295431
58	0x3e990ef2	0.29894215
59	0xbdd35a52	-0.103199616
60	0x3d575a3e	0.052576296
61	0xbe9f0e0a	-0.31065398
62	0xbe0ece7f	-0.1394596
63	0x3e36c720	0.17849398
64	0x3e0545e6	0.13014945
65	0xbe51ecbf	-0.20500468
66	0x3e1f91bb	0.15582936
67	0xbe3cff6f	-0.18456815
68	0x3e81f855	0.25384775
69	0xbe376310	-0.17908883
70	0x3e080a2e	0.13285133
71	0x3e33ca52	0.17557648
72	0x3db8d689	0.09025294
73	0xbed8bbd1	-0.42330793
74	0x3e7b8424	0.24562126
75	0x3dc07188	0.09396654
76	0xbd63f681	-0.055655006
77	0xbd163095	-0.036667425
78	0xbd63f7d6	-0.055656277
79	0x3d36e716	0.044653974
80	0xbd8d804c	-0.06909236
81	0x3e1398e0	0.14413786
82	0xbe3c6e1f	-0.18401383
83	0xbe8a7e80	-0.27049637
84	0x3d69236f	0.056918558
85	0x3dbd811a	0.0925314
86	0x3e11e61f	0.1424794
87	0xbd4367d4	-0.04770644
88	0xbd95fcc3	-0.07323601
89	0xbd2ffb4d	-0.04296427
90	0xbe73f90e	-0.23825476
91	0xbd1c7cf9	-0.03820512
92	0x3d32420f	0.04352003
93	0xbe5881df	-0.21143292
94	0xbd206aed	-0.039164472
95	0x3db2e273	0.08734598
96	0x3c71238b	0.014717947
97	0xbe648e3d	-0.22319885
98	0x3e999135	0.29993597
99	0xbe881627	-0.265794
100	0xbcc5001c	-0.024047904
101	0x3dba7a5a	0.09105368
102	0x3dae0780	0.08497524
103	0xbd7ad1db	-0.06123529
104	0x3e2f7b86	0.17136964
105	0xbba350b2	-0.004983985
106	0xbe9ac988	-0.3023188
107	0xbc3283a6	-0.010895645
108	0x3dfd2e25	0.12362317
109	0xbc1e0cc9	-0.009646603
110	0xbd111511	-0.03542048
111	0xbe46bd99	-0.19408263
112	0x3e44bdd3	0.19213037
113	0x3ce0f813	0.027462041
114	0xbdad8a9b	-0.084737025
115	0x3d387e05	0.045042057
116	0xbdc09563	-0.09403493
117	0xbe98a275	-0.29811445
118	0xbd966e31	-0.07345236
119	0xbe396eb4	-0.18108636
120	0xbe302452	-0.17201355
121	0xbddb5162	-0.10708882
122	0x3e422183	0.18958096
123	0xbe12fa36	-0.1435326
124	0x3d7daf2b	0.06193463
125	0xbdedd3f9	-0.11612696
126	0xbebff054	-0.37488043
127	0x3e517e94	0.20458442
128	0x3cdaef5d	0.026725465
129	0xbc2afee5	-0.010436748
130	0x3e1bc750	0.1521275
131	0xbd2d1223	-0.042253625
132	0xbe845d20	-0.258523
133	0xbdd98f98	-0.106230915
134	0xbcb54b57	-0.022130651
135	0x3c9d7bd3	0.019224083
136	0x3e320e53	0.17388277
137	0x3e575add	0.21030755
138	0xbdadaf0d	-0.08480654
139	0x3e08cf59	0.13360347
140	0x3ca53b85	0.020169983
141	0xbe48a02c	-0.1959235
142	0xbbcc9473	-0.0062432825
143	0xbe394797	-0.18093716
144	0xbee03a59	-0.43794516
145	0xbda20be0	-0.07912421
146	0xbe65a8c0	-0.22427654
147	0xbdc48c0d	-0.09597025
148	0xbd2fc234	-0.042909816
149	0xbb089ece	-0.0020846608
150	0x3db145ce	0.08655892
151	0x3dbbf36c	0.091772884
152	0xbe08936d	-0.13337488
153	0x3e3d7717	0.1850246
154	0x3df137ea	0.11778243
155	0x3dafd660	0.08585811
156	0x3d91ee05	0.07125477
157	0xbdaf3c42	-0.08556415
158	0x3e3d357c	0.18477434
159	0xbe53992f	-0.20663904
160	0x3e2b33a0	0.16718912
161	0x3ebea65d	0.372363
162	0xbd22e578	-0.03976962
163	0xbdc04768	-0.0938862
164	0xbd9f6922	-0.07783724
165	0x3b81de30	0.0039632544
166	0xbe7adc62	-0.24498132
167	0x3eef0a36	0.46687478
168	0x3d800b3d	0.062521435
169	0x3d24ebbb	0.040263873
170	0xbd54ab73	-0.05192132
171	0x3e956378	0.2917745
172	0x3e4a229f	0.1973977
173	0xbea01204	-0.31263745
174	0xbcc00e84	-0.023444422
175	0x3e873014	0.26403868
176	0x3e544ba0	0.20731974
177	0x3e91bee8	0.28465962
178	0xbdad938f	-0.0847541
179	0x3e437468	0.19087374
180	0xbe3e4b82	-0.18583491
181	0x3e863682	0.2621346
182	0x3de769f1	0.112995036
183	0x3e170e92	0.14751652
184	0xbd65416c	-0.055970594
185	0xbe83bd24	-0.2573024
186	0xbcf1fdaf	-0.029539911
187	0x3e179050	0.14801145
188	0xbe4fbd08	-0.20286953
189	0xbe293744	-0.16524988
190	0x3eb3aa95	0.3509108
191	0xbddf65ae	-0.10908066
192	0xbe8c0206	-0.27345294
193	0x3d738ae4	0.05945863
194	0x3e3f1d70	0.18663573
195	0x3d5ce36d	0.053927828
196	0x3ddd0d2d	0.10793529
197	0xbd8287d7	-0.06373566
198	0xbd64af89	-0.055831466
199	0x3e17d155	0.14825948
200	0xbe15536a	-0.14582601
201	0xbe6d78fa	-0.2319068
202	0xbdca3d89	-0.09875018
203	0x3df53732	0.11973418
204	0xbc2b2eb2	-0.010448145
205	0xbed32f1a	-0.41246873
206	0xbd214689	-0.03937391
207	0xbda7c1fa	-0.08191295
208	0x3dce6dcb	0.10079535
209	0x3c0432e6	0.008068776
210	0x3e3b70d0	0.18304753
211	0xbd85f0b8	-0.06540054
212	0x3d46bd01	0.048520092
213	0xbe1f1138	-0.15533912
214	0xbe4cbdb7	-0.19994245
215	0xbe5c4ece	-0.21514437
216	0xbc6b2d3a	-0.014354045
217	0xbe3096e0	-0.17245054
218	0x3dadfef8	0.08495897
219	0x3d818144	0.063234836
220	0x3dc6d3c7	0.09708362
221	0xbd8ec024	-0.06970242
222	0xbe28c715	-0.16482194
223	0xbe20ea99	-0.15714492
224	0x3cdce06d	0.026962483
225	0xbca9fb5d	-0.020749742
226	0xbde135ad	-0.10996566
227	0xbd84859e	-0.06470798
228	0x3e93d25b	0.28871426
229	0xbe0a2680	-0.13491249
230	0xbdb03e79	-0.08605666
231	0x3e57cf84	0.21075255
232	0x3e286731	0.16445614
233	0xbcb6c2a9	-0.022309618
234	0x3e3818b2	0.1797817
235	0x3e094ff5	0.13409407
236	0xbd88246d	-0.06647573
237	0x3c444d81	0.011981369
238	0x3d3c15e6	0.04591932
239	0xbe8afffe	-0.27148432
240	0xbce6254e	-0.02809396
241	0x3e1cde45	0.15319164
242	0x3e22501b	0.1585087
243	0x3e058809	0.13040175
244	0xbe799901	-0.24374773
245	0x3de8aca4	0.113610536
246	0x3d522452	0.05130417
247	0x3d705be7	0.058681395
248	0xbd9f5b7f	-0.07781123
249	0xbe087870	-0.13327193
250	0x3b0fb0dc	0.0021925485
251	0x3dff24ad	0.12458167
252	0xbe3bf559	-0.18355311
253	0xbe05e8f9	-0.13077153
254	0x3ea4f417	0.32217476
255	0x3dbc06f0	0.09181011

pmu_body.layers.1.bias f4 [64]
0	0x3e57fc1c	0.21092266
1	0xbc116c29	-0.008875885
2	0xbc0b6849	-0.00850875
3	0x3d9952f5	0.07486526
4	0xbe3c2ba3	-0.18376021
5	0x3d0b19b6	0.033960067
6	0xbc51c665	-0.012803649
7	0xbd50a75b	-0.050940853
8	0x3c716035	0.01473241
9	0x3e4c5fbd	0.19958396
10	0xbc0d58e8	-0.008627154
11	0xbcc489c5	-0.023991475
12	0x3d902efc	0.070402116
13	0x3db7d6c0	0.08976507
14	0x3e207d0d	0.15672703
15	0xbdb17039	-0.08663983
16	0xbc128378	-0.008942477
17	0x3ea878be	0.3290462
18	0xbe2d56ab	-0.16927592
19	0x3e4020dd	0.18762536
20	0x3d58bc35	0.052913863
21	0x3e0bf587	0.1366788
22	0xbd8c9225	-0.06863812
23	0x3e67c265	0.2263275
24	0xbd5451e3	-0.051835906
25	0xbc484801	-0.012224198
26	0x3e0acd4f	0.13554882
27	0xbd8e45f7	-0.069469385
28	0xbcb75559	-0.022379564
29	0x3d90cbd8	0.0707013
30	0xbd6bbf98	-0.057555765
31	0xbe050444	-0.12989908
32	0x3e192cf3	0.14958553
33	0x3ced34a3	0.028955763
34	0xbc8793cd	-0.01654997
35	0x3d819d80	0.06328869
36	0xbc4d1646	-0.012517517
37	0xbd5c85c0	-0.05383849
38	0x3be756bd	0.0070599006
39	0x3db903db	0.090339385
40	0xbd8f9f45	-0.070128
41	0x3d03d25f	0.032183047
42	0xbda20cbd	-0.07912586
43	0xbd5eed6c	-0.054425642
44	0xbddd4fe2	-0.10806252
45	0x3d525126	0.05134692
46	0x3d262e28	0.04057136
47	0x3e22d525	0.1590162
48	0xbdc1f01b	-0.094696246
49	0xbd80292a	-0.062578514
50	0x3e98781b	0.29779133
51	0x3e6d4b12	0.23173168
52	0xbcb1683d	-0.02165615
53	0x3e6769a0	0.22598886
54	0x3d571af6	0.052515946
55	0xbd3235cd	-0.04350834
56	0xbc733db3	-0.014846253
57	0x3d4b2328	0.049594074
58	0xbd2dd6bf	-0.042441126
59	0xbd98dcfc	-0.074640244
60	0x3e044038	0.12915123
61	0x3de81a72	0.11333169
62	0x3ccf90c2	0.02533758
63	0x3e3f08a4	0.1865564

actor_head.fc.weight f4 [8, 64]
0	0x3d9e60b4	0.077332884
1	0x3e5541cf	0.20825885
2	0x3e056dfb	0.13030235
3	0x3d6cd57c	0.057820782
4	0xbd115523	-0.035481583
5	0x3d2e18c2	0.04250408
6	0x3e065be5	0.13120992
7	0xbd0123da	-0.03152833
8	0x3dbcec55	0.09224764
9	0x3de91bab	0.1138223
10	0x3dcec43c	0.100960225
11	0x3cb63227	0.022240711
12	0x3d320f4a	0.043471612
13	0x3f2c8675	0.67392665
14	0x3d0a29d6	0.033731304
15	0xbd7c01ac	-0.061525032
16	0xbb30ca87	-0.0026976184
17	0x3e0bec62	0.13664392
18	0x3e0f8b2e	0.14017937
19	0xbcfc81f8	-0.030823693
20	0xbb43f6f6	-0.002990184
21	0x3d73c028	0.059509426
22	0x3c265959	0.010153138
23	0x3d988844	0.074478656
24	0x3e1c0a55	0.15238316
25	0x3dd0bf7b	0.10192772
26	0x3e8c6362	0.27419573
27	0x3ae3cd41	0.0017379896
28	0x3dfaec57	0.122521095
29	0xbc8f5757	-0.017497702
30	0x3d76e16f	0.060273584
31	0x3e8e3e5d	0.27781954
32	0x3e0db65f	0.138391
33	0x3dd36ed3	0.103238724
34	0x3e5d7ac7	0.21628867
35	0x3ea84568	0.32865453
36	0xbc93a900	-0.018024921
37	0xbc497a2e	-0.012297196
38	0x3b398a83	0.002831132
39	0x3e43ea4a	0.19132343
40	0x3e343d60	0.17601538
41	0x3df6cb67	0.12050515
42	0x3e0221b0	0.12708163
43	0x3d75864b	0.059942525
44	0x3cbb1577	0.022837384
45	0x3da51413	0.080604695
46	0x3d528424	0.05139555
47	0x3ba4c3f5	0.0050282427
48	0xbcf47f14	-0.029845752
49	0x3d33af46	0.043868326
50	0xbc42c4b9	-0.011887723
51	0xbe077d6c	-0.13231438
52	0x3ad2b967	0.0016076983
53	0x3d6e9ec9	0.058256898
54	0xbe2021c6	-0.15637884
55	0xbd57380c	-0.052543685
56	0x3d811103	0.06302073
57	0xbe00a16e	-0.1256158
58	0xbc53ca9f	-0.012926727
59	0x3e16aa09	0.14713301
60	0x3e7ccf9d	0.24688573
61	0x3d106c18	0.035259336
62	0x3e3a5d5f	0.18199681
63	0x3ed8ca9e	0.42342085
64	0x3e3d87ed	0.18508883
65	0xbe134209	-0.14380659
66	0x3b547464	0.0032418007
67	0x3e51c8de	0.20486781
68	0x3e4ab7c1	0.19796659
69	0xbef39508	-0.4757464
70	0xbec95401	-0.39321902
71	0x3e891681	0.26774982
72	0x3cfe8f5b	0.031074217
73	0x3c49d3ac	0.012318533
74	0x3d75de86	0.060026668
75	0x3c43db6e	0.011954172
76	0x3df6a0d9	0.12042398
77	0xbd422a86	-0.047403835
78	0x3e819318	0.25307536
79	0x3db436f4	0.08799544
80	0xbc0dc7ac	-0.0086535625
81	0x3d9924b9	0.074777074
82	0x3dbb7fba	0.09155221
83	0xbc00eca3	-0.007868919
84	0xbc98b49a	-0.018640805
85	0xbebf0784	-0.3731042
86	0x3e832892	0.2561689
87	0x3d255cfb	0.040371876
88	0x3dad3f7e	0.08459376
89	0xbd4e50fc	-0.0503702
90	0xbe9a8e98	-0.30186915
91	0x3cc8236f	0.024430959
92	0x3df8e834	0.12153664
93	0xbc4fb6f1	-0.012677894
94	0x3e61934f	0.2202885
95	0xbd98f03e	-0.074676976
96	0xbc9040b3	-0.017608976
97	0x3bf86d04	0.007581355
98	0x3d898922	0.06715609
99	0x3ee261ed	0.44215336
100	0xbc46bcb8	-0.012129955
101	0xbb7845e6	-0.003788346
102	0x3b5a8317	0.0033342296
103	0x3e1d070c	0.1533472
104	0xbe370742	-0.17873862
105	0x3cc53e0c	0.024077438
106	0x3e98d281	0.29848102
107	0xbeb0a1b1	-0.3449836
108	0xbc886780	-0.016650915
109	0x3e916253	0.28395328
110	0x3eda0fd5	0.42590204
111	0x3b20324f	0.0024444049
112	0x3ea39d04	0.3195573
113	0xbe07d29e	-0.13263938
114	0xbbfee202	-0.007778407
115	0x3e86bf6a	0.26317912
116	0xbb707e23	-0.0036696277
117	0x3eb0d46a	0.3453706
118	0x3ed4302c	0.41443002
119	0x3ee4da16	0.44697636
120	0x3ed2f426	0.41201895
121	0x3eaea416	0.34109563
122	0xbc8451a6	-0.016152214
123	0x3cc408ee	0.02393004
124	0x3db5a79f	0.08869862
125	0x3c03d795	0.008047004
126	0x3d9934aa	0.07480748
127	0xbebcd6f9	-0.3688276
128	0xbd56fa38	-0.05248472
129	0x3df5fc87	0.120110564
130	0x3d5a3427	0.053272393
131	0x3def71f6	0.11691658
132	0x3ddb8959	0.10719556
133	0xbd2a877b	-0.04163311
134	0x3e6441af	0.22290681
135	0x3e3f5662	0.18685296
136	0xbc909929	-0.017651157
137	0x3d8e870e	0.069593534
138	0xbd5fd67a	-0.0546479
139	0xba8ba64e	-0.0010654421
140	0xbd5e290f	-0.054238375
141	0x3ef21a5a	0.4728573
142	0xbe13822a	-0.14405122
143	0x3cb4720a	0.022027034
144	0x3c807621	0.015681328
145	0x3c55853b	0.013032253
146	0x3d7099c6	0.0587404
147	0x3b8da25a	0.0043223323
148	0x3c34cae7	0.011034704
149	0xbdccca3d	-0.099995114
150	0x3d4a5bb5	0.049403865
151	0x3d904b94	0.070456654
152	0xbd88fdda	-0.06689043
153	0x3dcbc700	0.099500656
154	0x3e7c9ecf	0.24669956
155	0x3cb37776	0.02190755
156	0xbdc47ce0	-0.095941305
157	0x3c32650a	0.010888347
158	0xbe17e542	-0.14833549
159	0x3e323616	0.17403445
160	0x3ce7c013	0.02828983
161	0x3d910adb	0.07082149
162	0x3e4ea255	0.20179112
163	0x3e8a7c32	0.27047879
164	0x3d87171f	0.06596207
165	0x3c51b2e4	0.0127989985
166	0x3aed8396	0.0018120881
167	0x3d07fb7f	0.03319883
168	0x3b9f0315	0.0048526623
169	0xbd90ccff	-0.0707035
170	0x3db9ce3f	0.090725414
171	0xbc72e0e8	-0.01482413
172	0x38ca3b1f	9.643123e-05
173	0xbdde243a	-0.108467534
174	0xbd83c37d	-0.06433771
175	0xba0cea86	-0.0005375523
176	0xbd4b35ee	-0.04961198
177	0x3d2a9f98	0.041656107
178	0xbcd4bf47	-0.025970114
179	0xbd96e230	-0.073673606
180	0x3c943c12	0.01809505
181	0x3d8f1693	0.069867276
182	0x3db5f1a1	0.08883978
183	0x3d928549	0.071543284
184	0x3d6f2e8d	0.058394004
185	0xbce1a250	-0.027543217
186	0x3cb31bf8	0.021863922
187	0x3ded6881	0.11592198
188	0x3d2ee52f	0.042699035
189	0x3c031384	0.008000258
190	0x3df20717	0.118177585
191	0x3e4e9033	0.20172195
192	0xbd95797d	-0.07298563
193	0xbe193b52	-0.14964035
194	0xbb98eb1d	-0.0046666996
195	0x3e63c04c	0.22241324
196	0x3e801b18	0.2502067
197	0xbec3dc5b	-0.38254055
198	0xbe0585d8	-0.13039339
199	0x3e72ac20	0.23698473
200	0xbd843cb8	-0.06456894
201	0x3ca9709a	0.020683575
202	0xb85eae68	-5.3091353e-05
203	0xbc171ce8	-0.0092232
204	0x3d929987	0.07158189
205	0xbe024b90	-0.12724137
206	0x3d125c79	0.03573272
207	0x3e1961bb	0.14978687
208	0x3c1f4411	0.009720818
209	0x3d4bba52	0.049738236
210	0x3c6f6542	0.014611544
211	0xbd09783c	-0.03356193
212	0x3d517b1d	0.0511428
213	0xbeefb7ce	-0.4681992
214	0x3eba130b	0.36342654
215	0x3d0912dc	0.03346525
216	0x3d329b6a	0.043605246
217	0x3d8ec850	0.069718
218	0xbdee6440	-0.11640215
219	0x3b3f61c1	0.0029202553
220	0x3e581c89	0.21104635
221	0x3cdddf3f	0.027083991
222	0x3e4bd799	0.19906463
223	0xbd7e7bdb	-0.062129837
224	0x3da910d1	0.082551606
225	0x3d8419fa	0.06450267
226	0x3e151192	0.14557484
227	0x3e4265f5	0.18984206
228	0x3d770d5f	0.060315486
229	0xbb3cdc75	-0.0028817926
230	0xbbd18fb0	-0.0063953027
231	0x3d87dc94	0.06633869
232	0x3a9e68f2	0.001208572
233	0xbc9590a6	-0.01825745
234	0x3e9e567c	0.30925357
235	0xbed267a1	-0.41094688
236	0xbc863485	-0.016382465
237	0x3e8abe56	0.2709834
238	0x3e6118bc	0.21982092
239	0x3a0bcbe8	0.00053328136
240	0x3d5fa579	0.054601166
241	0xbc647714	-0.013944406
242	0x3c0a164f	0.00842817
243	0xbe0270d9	-0.1273836
244	0x3b5ebd06	0.0033987178
245	0x3e151bfe	0.1456146
246	0x3e299c7c	0.165636
247	0x3e890f97	0.26769707
248	0x3ea8f14b	0.32996592
249	0x3e87e63f	0.2654285
250	0xbc46068e	-0.012086524
251	0x3d527b4c	0.051387116
252	0xbe0809fc	-0.13285059
253	0xbc874c89	-0.016515987
254	0x3dbca183	0.092104934
255	0xbe00c8c2	-0.12576583

actor_head.fc.bias f4 [8]
0	0x3f060c84	0.5236285
1	0x3daf6ec5	0.085660495
2	0x3ebafd78	0.36521506
3	0xbd63956f	-0.055562433
4	0x3e4fdf02	0.20299914
5	0x3c40af5f	0.011760562
6	0x3e2a690b	0.16641633
7	0xbc6184ec	-0.013764601

qo_head.fc.weight f4 [4, 64]
0	0xbd08def7	-0.03341576
1	0xbd31971f	-0.04335701
2	0xbcec0a00	-0.028813362
3	0x3da822df	0.08209776
4	0x3a6d2bfd	0.0009047387
5	0xbc504970	-0.012712821
6	0x3d6254a0	0.055256486
7	0x3cbcb8ea	0.023037393
8	0x3db30a7b	0.08742233
9	0x3de0a4d7	0.10968941
10	0x3d798237	0.0609152
11	0x3ddc092c	0.10743937
12	0x3d3a8159	0.04553351
13	0x3e17e373	0.14832859
14	0xb9a81620	-0.0003205994
15	0xbeab309c	-0.33435524
16	0xbe6b2619	-0.22963752
17	0xbd1b9e72	-0.037992902
18	0x3dead4d8	0.11466378
19	0x3e063ddf	0.1310954
20	0xbde6d9c6	-0.11272006
21	0xba8049fc	-0.0009787674
22	0x3cb08739	0.021548854
23	0x3ce9a076	0.028518897
24	0x3d9f1bb9	0.077689596
25	0xbca13627	-0.019679142
26	0x3bc2c72f	0.0059441547
27	0x3ba1dfb8	0.0049399994
28	0x3d84fce3	0.06493547
29	0xbb693a7e	-0.0035587843
30	0xbceb0289	-0.028687732
31	0x3ced8782	0.02899528
32	0xbdbe7c5e	-0.09301065
33	0xbc0ada21	-0.008474858
34	0xbc961c43	-0.018324023
35	0x3d91303f	0.0708928
36	0xbdf75cd3	-0.12078252
37	0xbcffae3d	-0.031211013
38	0xbd353ca1	-0.044247273
39	0xbd2f6cf5	-0.04282852
40	0xbce2e0a6	-0.027695011
41	0xbd14a030	-0.03628558
42	0x3e0f32a4	0.13984162
43	0xbd20fbcf	-0.039302643
44	0x3e03acf4	0.12858945
45	0xbcce2c82	-0.025167707
46	0xbdabaed6	-0.08382957
47	0xbd0fe9d4	-0.035135105
48	0xbc8d941b	-0.017282536
49	0x3e143f21	0.14477207
50	0x3dfcd1a9	0.12344677
51	0xbb8e226d	-0.0043376
52	0xbd99831b	-0.074957095
53	0x3ba20c4a	0.0049453126
54	0xbc331d61	-0.010932297
55	0xbbec6795	-0.0072144964
56	0xbe2f295d	-0.17105623
57	0x3c12484e	0.008928372
58	0xbdc42925	-0.0957816
59	0x3de52d1e	0.11190246
60	0xbd7f06e2	-0.062262423
61	0x3d0ce931	0.034402076
62	0xbcfc4724	-0.030795641
63	0xbc4e6a5e	-0.012598602
64	0xbb22df7b	-0.0024852443
65	0xbd7609ba	-0.06006787
66	0x3dc8478f	0.09779274
67	0x3d7eecc9	0.062237535
68	0x3cc06227	0.023484303
69	0xbcd465ab	-0.025927385
70	0x3dbfad80	0.093592644
71	0x3c94e63a	0.018176187
72	0x3d4fa87d	0.050697792
73	0xbc32210b	-0.010872136
74	0x3d56ed4c	0.052472398
75	0xbdc5ca11	-0.09657682
76	0x3d187800	0.037223816
77	0x3e17ca8b	0.14823358
78	0x3c957673	0.018244958
79	0xbec158b4	-0.37762988
80	0xbda0ae78	-0.07845777
81	0x3dd70de3	0.105006956
82	0x3dc0b5fb	0.0940971
83	0x3c73e51a	0.014886165
84	0xbd934b63	-0.07192113
85	0x3cb3288e	0.021869924
86	0x3db722a7	0.08942156
87	0x3e2e2af7	0.17008577
88	0x3d6813df	0.056659576
89	0x3db03f20	0.0860579
90	0x3c273344	0.010205094
91	0xbde01253	-0.10940995
92	0x3cb7ba91	0.022427829
93	0xbdbcc71b	-0.09217664
94	0xbbb30464	-0.00546317
95	0x3db21420	0.08695245
96	0xbbc9c3ce	-0.006157375
97	0xbdda9556	-0.10673015
98	0x3d0e228d	0.03470092
99	0x3d4664ab	0.04843585
100	0xbe0cbca2	-0.13743833
101	0xbda883f1	-0.08228291
102	0x3de5c559	0.11219282
103	0xbd483edf	-0.048888084
104	0xbd0afefd	-0.033934582
105	0xbdf756df	-0.12077116
106	0x3d8f9a55	0.070118584
107	0xbd3e278d	-0.046424437
108	0x3df09efd	0.117490746
109	0xbcda9ecf	-0.026687054
110	0xbd9ba4bb	-0.07599779
111	0x3c9f9324	0.019479342
112	0xbd18065b	-0.037115436
113	0x3e3d3171	0.18475892
114	0xbd0b54cf	-0.034016427
115	0x3b1b6563	0.0023711554
116	0xbb26bec6	-0.00254433
117	0x3b3daa5d	0.0028940656
118	0xbaecfe2c	-0.001808112
119	0xbb1a821d	-0.0023576089
120	0xbdf13a30	-0.117786765
121	0x3be285a8	0.0069129057
122	0xbdd713c1	-0.10501815
123	0xbd9d3c81	-0.07677556
124	0xbd0deabc	-0.03464769
125	0x3d192a40	0.03739381
126	0xbd14860a	-0.036260642
127	0xbd51c782	-0.051215656
128	0xbd6327b9	-0.055457804
129	0xbd74b6a9	-0.05974451
130	0x3d9da5f0	0.07697666
131	0x3d86bb7d	0.06578729
132	0x3cf4e342	0.029893521
133	0xbcad3242	-0.021142129
134	0x3ce49412	0.027902637
135	0x3bfe6bb2	0.007764303
136	0xbbc03017	-0.0058651078
137	0x3da14861	0.07875133
138	0x3d63d414	0.055622175
139	0x3e234515	0.15944321
140	0x3c86f9fe	0.016476627
141	0x3da48a63	0.08034208
142	0x3d4ea667	0.050451662
143	0xbcce9657	-0.025218172
144	0xbdbacac4	-0.09120706
145	0x3d571302	0.05250836
146	0x3dd377a4	0.10325554
147	0x3d44f3b1	0.048083965
148	0x3dc62e79	0.09676833
149	0x3c4b014e	0.012390448
150	0x3c551d02	0.013007404
151	0x3e143a7f	0.1447544
152	0x3c8ef256	0.01744954
153	0xbc186c10	-0.009303108
154	0x3c3b2c69	0.011424162
155	0x3da86fc2	0.08224441
156	0xbc672fdd	-0.014110533
157	0xbda5773d	-0.080793835
158	0xbbf17f43	-0.007369907
159	0x3b425379	0.0029651804
160	0x3cabd39e	0.02097493
161	0x3cdfcca6	0.027319264
162	0xbc39311d	-0.011303213
163	0x3db833e2	0.08994271
164	0x3cd2cdcf	0.025732903
165	0xbe015387	-0.1262952
166	0x3e199ae7	0.15000497
167	0xbc9f2dd6	-0.019431036
168	0xbd003b8f	-0.0313068
169	0x3c71eed7	0.0147664165
170	0x3d8a12ed	0.06741891
171	0x3a80b4f6	0.0009819556
172	0x3cbd1f8a	0.023086328
173	0xbd16c742	-0.03681112
174	0xbbc74e90	-0.0060823634
175	0x3dce4004	0.10070804
176	0xbd149887	-0.036278274
177	0xbd269ed2	-0.040678807
178	0x3cce2af4	0.025166966
179	0xb8873203	-6.446617e-05
180	0xbd37447f	-0.044743057
181	0x3d6b8ca9	0.05750719
182	0xbccc5ae3	-0.024945682
183	0xbcc96dad	-0.02458843
184	0xbdb60a46	-0.08888678
185	0xbc48f655	-0.012265761
186	0xbc0db3f9	-0.008648866
187	0xbcc181b1	-0.023621412
188	0xba93ec52	-0.0011285639
189	0xbd93553a	-0.0719399
190	0xbb1a78de	-0.0023570578
191	0x3e2411ac	0.16022366
192	0xbd453f19	-0.048155878
193	0xbb8eb8df	-0.0043555344
194	0x3e0a8604	0.13527685
195	0x3d9a2cdc	0.075280875
196	0x3d39e4c7	0.045384195
197	0xbd07022a	-0.03296105
198	0xbc2dea54	-0.01061495
199	0xbbe3b705	-0.006949308
200	0xbd934c30	-0.07192266
201	0x3db03ef9	0.08605761
202	0x3d389175	0.045060594
203	0x3d445f9e	0.04794275
204	0x3cb7fd20	0.022459567
205	0x3dee76b9	0.11643738
206	0x3d1bc83e	0.038032763
207	0xbe0b7d86	-0.13622102
208	0x3c8af2e6	0.016961526
209	0xbd37e9ff	-0.04490089
210	0x3dbde960	0.092730284
211	0x3dced4d6	0.10099189
212	0x3e17ca22	0.14823201
213	0x3d117424	0.03551115
214	0xbab9bd33	-0.0014170766
215	0x3e06656d	0.13124628
216	0x3cb07f20	0.021544993
217	0xbd8465e9	-0.0646475
218	0x3ba9be21	0.005180136
219	0x3cabcc5a	0.020971466
220	0xbc1cb09b	-0.00956359
221	0x3e2eca10	0.17069268
222	0xbd068be8	-0.03284827
223	0xbd40c5e7	-0.047063734
224	0x3c2b6796	0.0104617085
225	0x3e002cd0	0.12517095
226	0xbd8688b4	-0.06569043
227	0x3dc41bd8	0.09575623
228	0xbd0f43b8	-0.03497669
229	0x3e0caf5e	0.13738772
230	0x3dece7f8	0.11567682
231	0xbc4c07bc	-0.012453016
232	0xbd5d3315	-0.054003794
233	0x3d79a1a1	0.060945157
234	0x3d46ad0d	0.048504878
235	0xbcbed180	-0.023293257
236	0x3e1033d6	0.14082274
237	0xbd41e19c	-0.0473343
238	0xbcf1c111	-0.029511007
239	0xbb90885a	-0.0044107856
240	0xbc708d58	-0.0146821365
241	0xbc5638a4	-0.013075028
242	0xbcd1b34f	-0.025598196
243	0xbc0e3b8b	-0.008681188
244	0x3e34d734	0.17660218
245	0x3d5843f0	0.052799165
246	0xbbbac823	-0.0057001277
247	0x3c6c4910	0.014421716
248	0xbd961ec1	-0.073300846
249	0xbd13ae75	-0.036055047
250	0xbd0c4f54	-0.03425534
251	0xbc0f1f6c	-0.008735519
252	0x3da78620	0.08179879
253	0x3d05af02	0.032637604
254	0x3d2addee	0.041715555
255	0x3dd6216a	0.10455592

qo_head.fc.bias f4 [4]
0	0x3df5d559	0.120035835
1	0x3d8a2940	0.06746149
2	0x3c33671c	0.010949876
3	0x3d1b0a99	0.037851904
