trained-models/ppimoc-mujoco-billiard.pth (torch_old, 244282 bytes, 63 tensors)

body.layers.0.weight f4 [64, 10]
00000000: 1aae 0bbc 9ee5 323d 47d1 2e3d 3331 4fbe
00000010: f5e1 573e c7e0 393d caa0 37be 634d 4abe
00000020: 7a41 5d3a 45f7 973e f98a 953e 8cb4 93bd
00000030: cdb5 cebd 618c cbbc 89a3 adbd 9a01 27be
00000040: 1e3c 873d 7af9 e7bd 884d 7cbc b2f1 393e
00000050: 11e2 533d 914e c3bd c5b2 f53e a2a1 513b
00000060: 36c6 87bd a52c 9d3c 80eb 06bd ca5b 94bc
00000070: 6a5d 2b3e 4ea6 40be a7d8 a73e a2f9 2dbe
00000080: d0b5 423e ef3f 313e 6176 083e 67e8 4d3d
00000090: 9fcf 0f3e 4b28 ea3d d40b 19bd 23e4 8d3e
000000a0: ac88 943d 0576 c1bb 009a e0bc f7f7 573e
000000b0: 4071 793d c8d9 bcbc 4a98 f33d 81c8 193d
000000c0: 06f5 b13c e224 7d3e ad8b c1bc d2bf 413d
000000d0: fd31 d7bd 40f1 efbe 8648 0a3d f0bd 853c
000000e0: 1bff afbd 8d84 c63d 7dd0 cdbd 5f6a 03be
000000f0: 2c22 613e 4fe4 693e ee34 b7bc 8c00 9cbd
00000100: 4775 62be 62e0 adbd 82ef d0bc c796 8b3d
00000110: b34f 6c3c cec8 803e d2d3 54bc ea3f cc3e
00000120: 94af 07bf dc63 813c 8851 d4bd 1d0f 0dbd
00000130: 4868 9f3c 7cf0 38be d632 a8bd 2d54 1b3e
00000140: b41c c53d a1d4 1cbe 25dc f63e 927d ac3d
00000150: 3cad 4f3e e31f 873b 7de0 8a3d d7de 1bbe
00000160: fa5e e93d 6fea a5bd 039f c3bb 83d3 4a3d
00000170: a0da bcbd c134 5fbe 7bcd 7abe ae8f 083e
00000180: a471 59bd 2249 8b3a e795 2f3d 0066 7d3e
00000190: 750c cfbd 23ae 873e b9aa 03bf 40a3 f43c
000001a0: 3bef 81bd fdd9 f93d 790d bf3c 0179 9e3c
000001b0: 0358 8ebd d97b 77bd d17a 0cbe 68a4 bd3d
000001c0: b54b 103c 0b4a 653d eb2a 42be 7d57 633e
000001d0: f5f4 183e 9bd6 ea3b 0d6a 18be 5784 1b3f
000001e0: ac17 cdbd de5c 5e3e 92d9 9abc 9cb5 513b
000001f0: b959 363d 4020 7b3e 3f76 b93c 0633 0fbe
00000200: f7c5 1dbd 415b 13be 4bdd 96be 4738 ca3c
00000210: 59dd cabd 45e9 b7bd d64b 413d 1270 5fbe
00000220: 1b65 23be 4a46 75be e6ae bf3c 0640 4e3e
00000230: c9fc a33c 634c 47be 054f e6bd 6ae8 53bd
00000240: 4147 3e3e daca 093e d338 683d c20b 4bbd
00000250: de77 77bd 5c72 133f 2092 eabd 1ec3 f13d
00000260: 1ba7 f7bc 7da1 1f3e 59cb 0d3e b95a f2bd
00000270: 3e5e 333e 1051 6abd 2366 033e a663 83bd
00000280: 05bb 673d 5b40 0c3d 0535 553d 56e8 e93d
00000290: e54e 3b3d b8b7 9cbd 8aa1 18be a16d 64be
000002a0: 26e7 51bd 98af 75be 1086 96be 5256 7e3d
000002b0: ae5d cbbe 4cd6 df3d 097f 0fbe 0d32 acbd
000002c0: 9b79 81be dd98 f63d 3cf4 cd3d fc60 883e
000002d0: 025a 9fbd 4b7f 0a3e 6830 af3b 8bd8 013e
000002e0: 1c4a 57bd 1595 293d 111f 3e3e b324 46be
000002f0: 0ad4 00bc dd4e bdbd b37b 3b3d a343 76bd
00000300: e909 9fbe 10f0 4b3e fa96 b0be 27e7 4b3e
00000310: 3bf4 5abd 03a5 67bd c359 57bb dc2f 533d
00000320: 2f40 c63d e547 8fbd 98f3 dabe af87 f53d
00000330: a37f 483c 199c 023e e337 1bbc df90 0a3e
00000340: 8a44 13bc 6487 8ebe bd16 353d 5528 733c
00000350: 627a ef3d 474b 183e cc77 a7be 0d38 423e
00000360: 695d 0f3e c5bb 4ebe 80b7 22bd 93c4 5b3e
00000370: a9a4 823d af77 e3bd f3d1 163d d506 a8be
00000380: b3c2 1f3e e2e1 cfbd 6be3 0a3e 271f 023e
00000390: 0c4a 32bd 8d3a 2dbe 5cbc b9bb fed4 11be
000003a0: 2fbc a6bb 8f0a eb3e 658e 823e 291a e0bd
000003b0: 6657 993e 34ab 41bc f023 1a3c 93ff 763c
000003c0: 6b8e 94be 264e d1bd cc71 37be 5aae 403e
000003d0: fa1a 4e3e 6273 d83c 1677 31bd 76ce ebbd
000003e0: 213b eebd a59b aebe 73c0 febd 0258 0dbd
000003f0: 4f1d bd3b f139 12be 2732 1dbe f92c 98bc
-0.008525396 0.04367601 0.04268005 -0.20233612 0.2108229 0.04538038 -0.1793243 -0.19756083
0.0008440238 0.2968084 0.2920759 -0.07212171 -0.100932695 -0.024847211 -0.084784575 -0.16309205
0.06603263 -0.11326881 -0.015399344 0.18158606 0.051729266 -0.0953647 0.47987953 0.003198721
-0.066296026 0.019186327 -0.032939434 -0.018110175 0.16734853 -0.1881344 0.3278248 -0.16989759
0.19014668 0.17309545 0.13326408 0.050270464 0.14044045 0.114334665 -0.037364796 0.27713117
0.072526306 -0.0059039616 -0.027417183 0.21090685 0.06089902 -0.023053065 0.11894281 0.03754473
0.021723282 0.24721101 -0.023626173 0.047302075 -0.105075814 -0.46863747 0.03376057 0.01632592
-0.085935794 0.09693251 -0.100495316 -0.12833546 0.21985692 0.22840999 -0.022364106 -0.07617292
-0.2211505 -0.08490063 -0.025504831 0.06815868 0.014423299 0.25153202 -0.012989955 0.39892513
-0.53002286 0.015794687 -0.10367113 -0.03443824 0.019458905 -0.18060488 -0.08212821 0.1516883
0.09624615 -0.15315486 0.48214832 0.08422388 0.20280927 0.0041236742 0.06781099 -0.15221725
0.113950685 -0.08101355 -0.0059698834 0.04951812 -0.09221387 -0.21797468 -0.24492447 0.1333606
-0.05308689 0.0010626654 0.042867567 0.24745941 -0.10109798 0.26500043 -0.5143238 0.029863
-0.06344458 0.12199781 0.023321854 0.019344809 -0.06950381 -0.060420845 -0.13718726 0.09259874
0.008807112 0.055978816 -0.18961684 0.22201343 0.14937194 0.0071666962 -0.14884205 0.6074881
-0.10014281 0.21715114 -0.018902574 0.0031999117 0.04451916 0.24524021 0.022639392 -0.13984308
-0.038518872 -0.1439028 -0.29465708 0.024685038 -0.099055 -0.089800395 0.047191463 -0.21820095
-0.15956537 -0.23952594 0.023398828 0.2014161 0.020017998 -0.19462733 -0.112455405 -0.05173532
0.18581869 0.13456288 0.056694817 -0.04957176 -0.06041705 0.57596374 -0.114536524 0.11804794
-0.03023105 0.15588947 0.13847102 -0.1183371 0.1751642 -0.057206213 0.12831931 -0.06415491
0.05657484 0.03424106 0.052052516 0.11421268 0.045729537 -0.07652229 -0.14905372 -0.22307445
-0.05124583 -0.23992765 -0.29399157 0.06209404 -0.3971991 0.10929546 -0.14013304 -0.08407984
-0.2528809 0.12040875 0.1005635 0.26636493 -0.077808395 0.13525121 0.0053463466 0.12680261
-0.05256091 0.04140194 0.18566538 -0.19349937 -0.007863054 -0.092435576 0.045772266 -0.060123097
-0.31062248 0.19915795 -0.34490186 0.19912396 -0.053455573 -0.05655385 -0.0032859899 0.051559314
0.09680211 -0.06996135 -0.42763972 0.1198877 0.012237462 0.12754859 -0.009473774 0.13531826
-0.008988509 -0.2783767 0.044211138 0.014841159 0.116932645 0.14872466 -0.32708585 0.18966694
0.14000477 -0.20188816 -0.03972578 0.21461706 0.06379063 -0.11106812 0.036821317 -0.32817712
0.15601616 -0.101505056 0.13563316 0.12707196 -0.043527648 -0.16916867 -0.005668206 -0.14241406
-0.005088351 0.45906493 0.25499263 -0.1094249 0.29949492 -0.011820603 0.009407982 0.015075582
-0.29014906 -0.10219984 -0.17914504 0.1881651 0.20127478 0.026422206 -0.04332646 -0.11513989
-0.11632372 -0.34103122 -0.124390505 -0.03450776 0.005771316 -0.14279915 -0.15351163 -0.018576132

body.layers.0.bias f4 [64]
00000000: f2cc 65bd 428d b23e d2d7 6abd dd8c 7c3e
00000010: 5be9 74be 64ab 483e d11b b83e 10e8 4d3e
00000020: 5caa 7a3e f1b3 e1be 4476 f7bd c859 adbd
00000030: d9b9 9cbd aef0 933d 8d14 703d 6fa6 16be
00000040: e38d 9bbd d700 f9bd 876f 413e 30a5 c63d
00000050: 46a2 a1bd 8e32 31bd e3a8 1c3d 829a 8f3e
00000060: b878 d83d 3096 cdbe aa3b fbbe 44f3 373e
00000070: d241 0a3e 1bf9 bc3d 04c8 8cbe 84b2 51bd
00000080: f3f9 873e 2f3a b73e d436 c63c a47d dd3e
00000090: 9886 023c ed90 d93e f963 633d 2175 053e
000000a0: a56a e03d fc05 133e a337 353e b40c 5a3e
000000b0: 2dce 18bd b8c5 8b3e 097b cf3e 80c8 533e
000000c0: 203c d0bd 5852 84be cd1b 15be ee5f eabe
000000d0: c5e9 5c3e c6fe 1e3d f204 6d3e 4549 453d
000000e0: f0e4 aa3e 770a b93e 006d 7b3c 009d 353d
000000f0: 292d b13e 38c1 7a3c 9c4c 05be 9e97 8b3d
-0.056103654 0.34873396 -0.05733473 0.2466311 -0.23917143 0.1959663 0.35958722 0.20108056
0.2447905 -0.44082597 -0.12083104 -0.0846439 -0.07652635 0.072236404 0.05861335 -0.14711927
-0.07595422 -0.12158363 0.188902 0.09699476 -0.07892279 -0.043261103 0.038247 0.28047568
0.105699 -0.40153646 -0.49068958 0.17963892 0.13501671 0.092272006 -0.2749635 -0.051195636
0.26557884 0.35786578 0.024196066 0.4325992 0.00796666 0.42493382 0.055515263 0.13032962
0.10957841 0.14357752 0.17697005 0.21293908 -0.037306 0.27299285 0.40523556 0.20681953
-0.10167718 -0.25844073 -0.14561386 -0.45776314 0.21573551 0.03881719 0.23146418 0.04816558
0.3337779 0.36140797 0.015345812 0.04433918 0.34604767 0.015304856 -0.13017505 0.06816028

body.layers.1.weight f4 [64, 64]
00000000: feeb aebd 4415 3dbe 0ec9 01bd 7f48 3abe
00000010: 574a 0c3e dbe0 e33c 4410 07be a8eb ac3d
00000020: 6118 d23d 54b8 c2bd 8eb8 0e3e adc6 81bd
00000030: 5352 abbd 1233 50bd b705 3cbe 4b08 5abd
00000040: b38c 45bd 1d41 9abd 5c3c b3bb 00d2 b9bd
00000050: 206b 723e 6065 533d 6201 b9bd 670a 973d
00000060: 42ca ab3d e573 d23a 394d efbc 038a f1bb
00000070: 8093 5cbd 241f 0dbe 9cd3 86bd 2238 9bbe
00000080: 387c 7e3e c799 813d 2500 fcbc 4c59 ffbd
00000090: 52cf 0abe 4eba 0cbe 0e8b 213e 095a 87bd
000000a0: 1465 89bc 0b16 bc3c 0eea 0f3d df2a bbbe
000000b0: b2a4 c83d 5b93 2cbd ad86 e0bc f51d a8bd
000000c0: 961c 433d 6573 18be a948 debd 0292 7abe
000000d0: c9b4 91be 7a16 31be a3e1 07be c10c 6ebe
000000e0: f348 c13d 6ba7 ccbd 978e b2bd 4e16 84be
000000f0: 5d1d 25be 0ae7 153e 849d a6bd f405 623d
00000100: 1c84 903c e96a e1bd 13f0 223d 86b5 473e
00000110: 02b9 06be df71 88bb bb32 763d 5f04 fcbc
00000120: 65e0 8ebe a336 e13d 79ea 23bd e2f9 323e
00000130: 462d 383e 7f8f 2c3e cd84 c33c 8443 b63d
00000140: 764b 083d 2ccf 1d3e bf1c 7b3d 00fe 1a3d
00000150: 5cb2 70bc 81f4 dd3b 2822 933b f421 11be
00000160: 6ea3 fd3c 2183 4a3c 549a 4c3d 5dab 3bbe
00000170: c3ff f8bc e484 e93d de31 8abd d611 98bd
00000180: e5af b93d 9d36 943e 31a6 bfbd 16d7 3ebe
00000190: c962 87bd 1b6f 803d 13a2 193e 15db 4f3d
000001a0: b5a3 c0bd 8686 773d bd46 b1bd 8a0b 673c
000001b0: e88b 4fbc a70a 6cbd 89af 5c3e df8e bc3c
000001c0: 4ab4 d5bc 95ff 82bd 1ce2 833d 51c1 b03d
000001d0: 8a62 81bd c378 073e b86a 12be f099 84be
000001e0: 70f3 b2bd 3fbc d7bd ebed cbbd fa3b 6f3e
000001f0: 472e 05bd 8b17 f23d 438e 873e 1d30 0b3e
00000200: 1996 8ebd 5e63 c53d a62c bfbd dc60 07bd
00000210: ee9e 3f3e 8e10 c6bd 1d15 8fbd 2d11 53be
00000220: 60d0 4b3c 0b40 893d 6a2f 3fbc 7c19 c13d
00000230: a571 06be fab5 563e 8cfe 40be 223b 52bd
00000240: 1eca b6bd 7650 b2bd 646e 483d bc94 42be
00000250: 4301 48be 1be6 cebd 0a1c 01be e37c ca3d
00000260: 432a 1a3e e8be 83bd b808 23bd cc8d 6abe
00000270: e9fa d73d 6475 8bbd 94ab 1f3d b91e da3d
00000280: 147f d6bd 7d85 3c3d 58a7 7abd 3714 43be
00000290: ebb8 50be a0fe d8bb 5d7d 02bd 9d3b 1bbe
000002a0: 75bc 8ebe 800d 88bd 48bd adbd 6104 10be
000002b0: 31aa 75bd 7cfe a33c b786 143e f9c3 9d3d
000002c0: e15b fbbd 3aa5 553d 5271 05be 207e 123e
000002d0: 50e6 39bc 0836 bcbc d761 5abe 2d94 c8be
000002e0: 876d 233e 3325 073d 155c c13c 560b 95bd
000002f0: c180 203d cea3 7dbd de16 88bd d1eb aa3c
00000300: cac8 e2bd 31c9 cb3c 89b3 353d 96e7 463d
00000310: 35f9 f63c 6e11 7cbe 5fb3 db3b 64fa 923d
00000320: 9e73 c2bb 118c d63d 6818 65bc 8c32 0cbd
00000330: cf47 eb3c 97f1 3ebe 370e 47be a178 dfbc
00000340: deb4 46bd 056a 06be 3d6c bdbd f6bd 273b
00000350: 554f 063e 0538 7d3e 0617 99be aecf 47be
00000360: bf2d c0bd c287 c33d 88b4 b23d a1f9 b9be
00000370: 49d0 203e 0bdd 2d3e 1df3 aa3d 76d7 35bd
00000380: 86ee 3e3e 3a81 7e3d 419f 9ebc c3f1 d63c
00000390: 286f e33d 903c e03d cf74 02be 3761 a7be
000003a0: f237 ccbd d63f bf3d ca50 11bd 5517 913e
000003b0: 1ee3 efbd a7a9 f9bd 452f 613d 10fb 61be
000003c0: 8fda d1bc bcf9 7a3e f341 e13d b77a 893e
000003d0: caf4 66bd fb62 b0b9 a296 f63c 73a6 e73d
000003e0: c769 a53e 7280 2c3d a082 92bd d341 babd
000003f0: a370 a2bd 677a d2b8 9cac 00bd e522 443d
-0.08541106 -0.18465143 -0.03168588 -0.18191718 0.13700233 0.02781718 -0.13189799 0.08443385
0.10258556 -0.09507814 0.1393759 -0.063367225 -0.083653115 -0.050829954 -0.18361555 -0.053230565
-0.048229884 -0.075319506 -0.005469842 -0.090732574 0.23673677 0.05161035 -0.09033467 0.07375031
0.08388187 0.0016056268 -0.029211627 -0.0073711886 -0.053851604 -0.1378141 -0.0658333 -0.30316263
0.24852073 0.06328159 -0.030761788 -0.12468204 -0.13555649 -0.13742945 0.15775701 -0.0660897
-0.01677183 0.02295973 0.03513532 -0.36556146 0.09797038 -0.042132717 -0.027407968 -0.08208839
0.047634684 -0.1488777 -0.108537026 -0.2446976 -0.2845824 -0.1729373 -0.13269667 -0.23247053
0.09437742 -0.0999287 -0.08718603 -0.25798267 -0.16124482 0.14638916 -0.081355125 0.05518146
0.01764112 -0.110067196 0.039779734 0.1950284 -0.13156512 -0.004163965 0.060106974 -0.030763803
-0.27905574 0.10996749 -0.040018532 0.17478135 0.1798602 0.16851614 0.023867035 0.08899596
0.03327509 0.15411061 0.06130671 0.03783989 -0.014690962 0.006773532 0.0044901557 -0.14173108
0.030961718 0.012360365 0.049951866 -0.18327089 -0.030395394 0.114023 -0.06747793 -0.07425277
0.09066752 0.28947917 -0.0935787 -0.18636736 -0.06610639 0.06271192 0.15003233 0.050746042
-0.09406225 0.060431026 -0.086560704 0.014101872 -0.012667634 -0.057627346 0.21551336 0.023017345
-0.026086945 -0.06396405 0.06439611 0.08630622 -0.06317623 0.1322966 -0.14298522 -0.25898695
-0.08737838 -0.10533952 -0.099574886 0.23362723 -0.032514837 0.11820897 0.26475725 0.13592573
-0.069622226 0.096380934 -0.09334688 -0.033051357 0.1871297 -0.09671126 -0.06986449 -0.20612021
0.012439817 0.06701668 -0.011669019 0.09428689 -0.1312929 0.20967856 -0.18847102 -0.051325925
-0.089252695 -0.08706753 0.0489334 -0.1900205 -0.19531731 -0.10102483 -0.12608352 0.098871015
0.15055184 -0.06432897 -0.039803237 -0.22905654 0.10545904 -0.068095 0.03898199 0.10650391
-0.10473457 0.04602574 -0.061194748 -0.1905068 -0.2038304 -0.0066221505 -0.031857837 -0.1515946
-0.27878156 -0.066432 -0.08483368 -0.1406417 -0.05997676 0.020018809 0.14504515 0.077033944
-0.12273384 0.052159525 -0.1303151 0.14305925 -0.011346415 -0.022974983 -0.21326385 -0.3917555
0.1595975 0.03299446 0.023603478 -0.07277553 0.03918529 -0.061923794 -0.066449866 0.0208644
-0.11073454 0.024876209 0.04436067 0.0485607 0.030148128 -0.24616024 0.0067047323 0.071766645
-0.005934193 0.10475934 -0.01398287 -0.034227893 0.028720764 -0.18646847 -0.19439016 -0.0272792
-0.048512332 -0.1312638 -0.092491604 0.0025595403 0.131162 0.24728401 -0.29900378 -0.19512817
-0.093837254 0.09547378 0.0872584 -0.36323264 0.15704454 0.16978852 0.083471514 -0.044394933
0.18645677 0.06213496 -0.019363048 0.026238328 0.11105186 0.109490514 -0.12739871 -0.32691357
-0.09971608 0.093383476 -0.035477437 0.28338113 -0.11713241 -0.12190562 0.05497672 -0.22068429
-0.025616912 0.24509329 0.10998907 0.26851436 -0.056385793 -0.00033643082 0.030101124 0.113110445
0.32307264 0.042114682 -0.07153821 -0.09094586 -0.0793164 -0.000100363795 -0.031414613 0.04788484

body.layers.1.bias f4 [64]
00000000: e5f6 65bd acfa bebd 567e c4bd 54b4 84be
00000010: 06c0 66bd a787 0d3e aea0 17bd 9293 823e
00000020: 0f81 833e 98cf e8bd b2b2 8e3e c962 e13e
00000030: 37a3 183e dd88 353e 8380 bc3d c39b 7f3e
00000040: 3b99 05be a990 513e b95a 403d 3b2c 3c3e
00000050: 1199 073d cd78 e4bb 1fcb cb3d 8243 95bd
00000060: 5320 0bbe fbb7 583e be2b 2dbe 794c cd3d
00000070: 734d 0b3e ec3d 24bd 5f25 863d a395 a73e
00000080: 231b 4c3e d4ae cc3d 54c4 96bd 5193 093e
00000090: 9bc9 103e dcd6 a13c 79a9 e8bd f361 50bc
000000a0: fff9 3bbd c088 2b3e 4264 d33d 18d6 0bbe
000000b0: f770 da3e f53a 07bd 85cb 1cbc 51c4 dcbd
000000c0: beae 273d f79f b23d 786e 59bd 335c 27be
000000d0: 1c37 8c3e 2ac5 b73d fe54 8fbe 7fb4 ae3e
000000e0: ee05 a73e 6a8b 3b3e 6e45 aa3e 6495 53bd
000000f0: 54a1 a53e 71dd 0c3d 142b cd3e c18f 4c3e
-0.05614366 -0.093251556 -0.09594409 -0.2591883 -0.05633547 0.13821279 -0.03701847 0.25503212
0.256844 -0.1136772 0.2787071 0.4402068 0.14906012 0.1772799 0.09204199 0.24961762
-0.13046734 0.2046534 0.04696152 0.18376248 0.03310496 -0.0069724084 0.09950852 -0.07288267
-0.1358655 0.21163933 -0.16911218 0.100243516 0.13603763 -0.040098116 0.06550097 0.3273135
0.19932227 0.09994283 -0.07361665 0.13435103 0.14139406 0.019755773 -0.11360449 -0.012718665
-0.04589271 0.16751385 0.10321857 -0.13655889 0.4266431 -0.03301521 -0.009570007 -0.10779632
0.04093813 0.08721917 -0.053083867 -0.16343765 0.27385795 0.08973153 -0.2799453 0.34122083
0.32621711 0.18314901 0.33256096 -0.051656142 0.32349646 0.03439087 0.40071929 0.19976713

pmu_body.layers.0.weight f4 [64, 10]
00000000: c570 ae3e 35bf 5abe 1485 29bf 5371 febd
00000010: 6b1d b4bd 0bff fb3d f0b8 83bd 7b25 0d3d
00000020: 86d7 36be 3d67 023e 810e cf3d 1d15 0d3d
00000030: b03f 2bb9 c652 993e aba3 013d 9d1c 35be
00000040: 5285 303e 1c8f 34bd 6c6d b43d 7924 77be
00000050: f2a8 c3be 6aa1 bbbe de31 b83e c39e 6a3d
00000060: ddab 9abc e9cd cdbd 739b e5ba a5d7 1ebe
00000070: d8cd 263e a454 e6bd a2aa c53e 8697 f63d
00000080: 8357 d4bd cf7b 8dbe f782 853d 6fcf ab3d
00000090: 69c0 a13d 5f7e a9bc 141c 00bd a374 143d
000000a0: 54c3 4bbe d7c6 d9bc 9c6e bdbd 8ed9 0f3f
000000b0: 1897 5fbc 9a69 aa3d 5a3b df3c 82d7 363d
000000c0: d2e2 4a3e 0a1c f1bc 808c a5bd 38ed aa3e
000000d0: 8f03 093f 7dff 7a3d e054 a7be c8d6 b3bd
000000e0: 7d57 153e d5c5 a43b 9997 1abd 845e 9dbd
000000f0: 43d9 833c a843 103e 91df 963c eb56 7f3e
00000100: 8f6f a83e a5dc b1bd f2c6 9cbd 3bd7 22bc
00000110: 4d88 dcbd 6059 313d 05be 03bd 4716 72be
00000120: 8a16 20bf ae8b df3d b55c 2cbd 1208 ed3d
00000130: 3e91 57bd ac3a 103d c078 60bb d1d4 6b3d
00000140: 91f9 fabe 4a47 b0be 2a8b 23bd 8389 e53d
00000150: 01e8 88bc f1c2 b93d 73c0 66bd 2f97 c9bc
00000160: 1b0c debb 766e df3d 00f4 ba3e a542 eebd
00000170: ae46 a43e f084 853d 73b5 a6bd ab15 873d
00000180: 1fa8 9cba ef1b b8bd ff68 0fbd d59c 5b3c
00000190: 5080 023e 9a19 c23d 3bf3 fd3e 015f c9bc
000001a0: 3b59 49be bf5f 51be 90aa 643c d120 393d
000001b0: 4762 0cbd 132b 5e3e 6f28 9cbe c581 e7bd
000001c0: a49a 573f 95ba 28bd 1e30 d93d 180a 7abd
000001d0: ff9a 0f3e bd9a 5dbd a63e 4cbd f229 bc3d
000001e0: a77a 0b3e 4094 3b3e 71f3 a23d 0caa a5bd
000001f0: 6ccf 68be 0e95 aa3c 4da1 2abd 18e9 b7bc
00000200: 8384 45be 7ae2 06be b448 f7be 3540 a2be
00000210: ce47 86be edb6 6c3e a179 d5bc ea7b bc3d
00000220: ee8e aabd 381b 66bd 6ff3 b93b 5649 2abe
00000230: a774 1b3d f44b a73e 9082 83be 3da3 663d
00000240: d868 8bbe cb81 973c 17b9 c6bc 9141 bdbc
00000250: 1397 383d 48f4 66bd 1c76 39be 2f54 d63d
00000260: 6eaf fc3b 07a2 89bd b335 7b3e e970 16be
00000270: 0510 b13b 7798 74bd 5969 53bd 6e59 df3d
00000280: e2f1 ec3d 5930 ba3e e46c 57be 3a83 e73d
00000290: bb24 b7be 4428 3ebe a121 843d b112 36bc
000002a0: d93f b0bb 46ba 5cbe 173d ba3d e1a6 bdbc
000002b0: a174 f1b9 891a ec3c 7cc1 5a3e c774 57be
000002c0: d34c c13c b1d2 3abe 2c34 a2bd 252f dcbd
000002d0: 50e3 bd3d c3eb 37be cc28 893e 1d8f 7e3d
000002e0: 438e a23e f9c7 413e df34 183d a18e 383d
000002f0: 5c05 6c3c bf7c d33d 577b 963e 0654 1dbd
00000300: dd2f 1abf 7209 23be 3b85 393c d8f3 3abe
00000310: 4e97 71bb d7aa 40bd 563f 2f3e 3025 6b3d
00000320: 7b61 9e3c adc3 0fbd b5d9 a03e b1e5 6d3d
00000330: b2f2 3c3d 9a82 b5b9 971f b3bd 4166 06be
00000340: 2d7f 043c 6f37 2ebd 32c4 093e 09fd 8d3e
00000350: ea54 b73e fb63 f33c 0e53 7fbe dca4 4b3d
00000360: 7ae4 513d c22a 6abd ab0a 90bd 5af1 95be
00000370: 1a8f b53e ecea eabc a9ce 43be ef9e c4bd
00000380: 21bd ee3d 05dc 313d 97ac aabc 72f9 373e
00000390: 8f37 c7bd 7d47 debd 1c1a e7be 3373 dd3c
000003a0: fc56 c2be df09 80be 16c4 3a3e d01f f4bd
000003b0: fc74 333d 6b05 f3bc 0973 093e efdb 913e
000003c0: 2c80 00be 2f77 68bd fd15 cb3e f3c7 463d
000003d0: 08ee e13d 4a55 ca3d b160 ac3c c546 41bc
000003e0: be5b 4a3d 88b3 1b3e 9f44 48be 16bc 5ebe
000003f0: 6d9f b43e 0e37 c8bd d8cb 5b3e a26b 12bb
0.3407041 -0.21362002 -0.66218686 -0.12423959 -0.087946735 0.12304505 -0.064317584 0.034459572
-0.17855653 0.12734695 0.10110188 0.034443963 -0.00016331556 0.29945964 0.031650227 -0.17686696
0.17238358 -0.044081792 0.08809933 -0.24135007 -0.38214833 -0.36646587 0.35975546 0.057280313
-0.018880779 -0.1004904 -0.0017517641 -0.1551195 0.1628946 -0.11246613 0.38606745 0.120406196
-0.10368254 -0.2763352 0.0651912 0.08389174 0.078980274 -0.020690141 -0.031276777 0.036244046
-0.1989873 -0.026584072 -0.09249613 0.5619134 -0.013646863 0.08320923 0.02724998 0.044639118
0.19813088 -0.029432315 -0.08083439 0.3338411 0.53521055 0.06127881 -0.32681942 -0.08781201
0.14584155 0.005028466 -0.03774223 -0.07684043 0.01609481 0.14088309 0.018417152 0.249355
0.32897612 -0.08684663 -0.07655133 -0.00993901 -0.10768185 0.043298125 -0.03216364 -0.2364131
-0.6253439 0.10915314 -0.0420806 0.11573805 -0.052628748 0.035212204 -0.003425166 0.057576004
-0.4901853 -0.3442939 -0.03992764 0.11207869 -0.01671219 0.09070385 -0.056335878 -0.024608223
-0.0067763454 0.109097406 0.36514282 -0.11633805 0.32085174 0.065194964 -0.081400774 0.0659593
-0.001195196 -0.08989703 -0.03501224 0.013404091 0.1274426 0.09477539 0.49599633 -0.024581434
-0.19662945 -0.2044668 0.013956681 0.04519731 -0.034273412 0.21696119 -0.30499598 -0.113040484
0.8422034 -0.041193563 0.10604881 -0.061044782 0.1402397 -0.054102648 -0.049864434 0.09187688
0.13621007 0.18318272 0.07956589 -0.080890745 -0.22735375 0.020823028 -0.041657735 -0.022450015
-0.1928883 -0.13172331 -0.48297656 -0.3168961 -0.26226658 0.23116656 -0.026058974 0.09203322
-0.08328043 -0.0561783 0.0056747715 -0.16629538 0.037953045 0.32675135 -0.2568555 0.05630802
-0.27228427 0.018494507 -0.02425818 -0.023102554 0.04506595 -0.05638531 -0.18111461 0.104652755
0.0077113425 -0.067203574 0.24532203 -0.1469151 0.005403521 -0.059715714 -0.05161414 0.10905729
0.11569573 0.3636501 -0.21037632 0.11304326 -0.3577021 -0.18570048 0.06451727 -0.011112855
-0.005378705 -0.21555433 0.09093683 -0.023150863 -0.00046053997 0.028821247 0.21362871 -0.21040641
0.023596203 -0.18244435 -0.07920107 -0.107511796 0.09271872 -0.1796103 0.26788938 0.062148202
0.31749162 0.1892394 0.037159797 0.045057897 0.014405575 0.10326528 0.29390976 -0.03841021
-0.60229284 -0.15921572 0.0113232685 -0.18257082 -0.0036863866 -0.047037926 0.17114004 0.05740851
0.019333592 -0.03509872 0.31416097 0.05808038 0.04612989 -0.00034620316 -0.0874626 -0.13124944
0.008086962 -0.042533334 0.13453749 0.27732113 0.35806972 0.02971076 -0.24934027 0.04971777
0.051243283 -0.057169683 -0.07033285 -0.292857 0.3546074 -0.028676473 -0.19121803 -0.09600627
0.11657167 0.043422718 -0.02083425 0.1796625 -0.09727394 -0.10853479 -0.45137107 0.02703247
-0.3795699 -0.2500753 0.18238863 -0.1192013 0.043812737 -0.02966567 0.13422789 0.2848811
-0.12548894 -0.056754287 0.39665213 0.04853053 0.11031729 0.09879549 0.0210422 -0.011796658
0.0494039 0.15205204 -0.19557427 -0.21751437 0.35277882 -0.09776126 0.21464479 -0.0022341986

pmu_body.layers.0.bias f4 [64]
00000000: e7f9 a43d 50f2 123d 344a 913e f7e0 743e
00000010: 6893 cf3d 1f3f 963e a8f8 453d b7da 43be
00000020: b20a b63d acca 053d 31dd 203d 6c52 0ebe
00000030: 88e6 bb3e 9440 9dbd 7cfc d73e bdef 1d3e
00000040: c15f 0a3f c846 493d 60ef 2b3e e46d 433e
00000050: a74f 6ebd df5e a93e bb19 8f3e 3904 823e
00000060: 30e7 b5bd 5c4a c03d ee2e 093e e2a0 333e
00000070: b301 c03b 4edb bd3c 58ad 19be 244d 803e
00000080: c086 333e 5055 68bb 5ce5 ee3d 8921 3b3e
00000090: 9aa8 fc3d 4962 e83d e554 253d 91e2 b13c
000000a0: cefe 2e3e 38b1 9a3d ba4c 4f3e 1780 acbd
000000b0: e009 903d e73c 923e 9bd3 14be b9b5 0fbe
000000c0: 5436 843e 1c88 663e 89fb 153e 2d06 ba3d
000000d0: f184 983e ec8a 863e 146d 6b3d f30f bfbc
000000e0: 36a1 d3bd 227e 57be d39a 993e 8c7c a23e
000000f0: 06d7 bd3e 71ea 5d3e ebfa 18bd 9ea0 193e
0.080554776 0.03587562 0.28376925 0.23913942 0.101355374 0.29345033 0.04833284 -0.19126402
0.08888759 0.032663986 0.039273445 -0.13898629 0.3669932 -0.07678333 0.42184818 0.15423484
0.5405236 0.049139768 0.16790533 0.19084889 -0.05818143 0.33080193 0.27949318 0.25393847
-0.08881986 0.09389183 0.13396809 0.1754184 0.0058595776 0.023175862 -0.15007532 0.25058854
0.17531872 -0.003545124 0.116648406 0.18274511 0.12336846 0.113468714 0.040364165 0.02171448
0.17089388 0.07553333 0.20244113 -0.08422869 0.070331335 0.2856209 -0.14533846 -0.14034165
0.258227 0.22512859 0.14646734 0.09083209 0.29788926 0.26277864 0.057477072 -0.023323035
-0.10333483 -0.2104421 0.30000934 0.31735647 0.37078112 0.21671464 -0.03734867 0.15002677

pmu_body.layers.1.weight f4 [64, 64]
00000000: efc3 583e 8283 bbbd 3043 383e 24b0 af3d
00000010: 4007 093c 06d4 2ebe 5878 aabd c2d0 49bd
00000020: c7ca 1e3d ed8f 2e3e a652 dbbd bb3a 09be
00000030: 021e 043d 4df0 423d 1bf4 953c 65bf 1a3e
00000040: 42b1 6bbe fd33 40be 2d76 933d 823b e63d
00000050: c56d 95bc 0478 0bbe 8ba0 0e3e 7794 0a3e
00000060: 6abf 133d ebf0 83bd d53d 273d af83 773e
00000070: 845a a63d 0f23 303e d7e4 74bd 056d 993b
00000080: 78fd e3bc da31 76be bd71 ebbd 0550 18be
00000090: b39e 02be 4195 27be fedc 14be 3865 8a3d
000000a0: dd22 823e a9ed 0c3d 6bc9 ecbc 51af e73d
000000b0: 34a5 313d 1a0b 9a3e 1311 80bd aa7b 5ebd
000000c0: 91bd f13c c4de 97bd 3b54 a13c 964c c8bb
000000d0: f625 8e3d 4413 0a3d e12b 833c bdcb 49bd
000000e0: 3366 363e 2397 4f3c 0c4d f83d 9fb5 05bd
000000f0: f33a 9fba 57c0 c3bd 1a5f 913d aa15 7ebe
00000100: bad3 85be 9530 10be 8e4b f13d b056 9d3d
00000110: c000 9cbc 1c07 5ebe 7052 e6bd 351f 05be
00000120: 0c5a 803c 9598 00bd 1eff 2d3c ad57 57be
00000130: f4b3 5d3c b8e2 73bd f22e 9b3d b260 88be
00000140: 5652 6ebe 63f7 41be f6be a4bd 0636 11bc
00000150: 32a1 a53d 7801 b9bd 73c3 0b3e 8b1b 8ebb
00000160: 9f65 813c d6c6 96bd adf3 203e eed9 f4bd
00000170: c303 bebd a728 a4bd 70eb 2a3c 3a93 013c
00000180: a73d 803d 3656 09ba 902c dabd 6a83 09be
00000190: 31e0 0f3e 4ac2 d33d 5b9a b7bd 363a a4bb
000001a0: 9b08 eabd 9085 dd3d f92b 443e e5a3 12be
000001b0: 6684 3b3e 55b7 33be c1a7 ab3d 57c3 d43c
000001c0: d3be 0fbe a5d4 9d3d c814 523d 6a25 f53c
000001d0: 5600 06bd 248c d6bd 9cf3 43bd 38c0 29be
000001e0: 796a 2f3e b6c2 b2be 7696 96bc 4f2e 013e
000001f0: 24c5 c23c 3020 ecbd 40fd 85bd a381 3c3d
00000200: e0dc 87bd e8b9 0d3e 7c21 ab3e be0b e5bd
00000210: 0fde aabd 232b fe3e 5524 19be d57e b83d
00000220: cc56 8c3e a62e fcbc 54e7 d6bd 98b4 3a3d
00000230: d8e2 28bd b1a5 fe3d f29a a8b9 31ee 033e
00000240: e365 8bbd 8f8e 5a3b 8032 12be f69b 1c3e
00000250: 9bcc 2e3e 614a d43c 06a2 a9bb 224c b73d
00000260: 8d99 813e d922 1dbc 74f9 bd3d ac86 7c3e
00000270: f810 30be 9fd0 ecbd f7f8 0b3e 6e6c 363d
00000280: 30a8 583d 8f83 003e fe6d 203e 4647 80bd
00000290: 8bd6 2bbc a25f 263e e2a4 6bbe a187 38bc
000002a0: 2e3c b2bc a84b a33d 99f0 cfbd 85b5 b83d
000002b0: 118d a4bd 7583 2abd 76c8 f43c 8a1f 37bd
000002c0: aa9a b03e 221e e5bd fae9 af3d ca12 813d
000002d0: 4a07 833d c1c4 ffbd ff02 003e 28a4 6bbc
000002e0: 7446 463c 002d 3cbe 0b60 30bd a360 933e
000002f0: 0aed ba3b 207f 373d 236e 923d 189e 40be
00000300: 103d 90bd 9555 c6bb 841d c33d 6a23 94bd
00000310: 40d4 8abd d097 95bc 15fc 05be a4d7 c1bc
00000320: 9957 f2bc a7f8 b4bd 8aaf bc3d cd55 14bd
00000330: 614c 243e 3264 13be d169 5e3e 8da4 ddbd
00000340: 25b3 8e3d 65c8 8e3d fecb 623e 702c 88be
00000350: 7e6d 12be a4b2 a93e d56a 68be 6b14 4ebe
00000360: f45a 263e 8c6e 0d3d c922 a33d c554 b0bd
00000370: 4dc6 a3be d73f 823c 4bf4 1ebe 3ad4 7c3e
00000380: 4207 8abd 1818 32bd 2bf0 a23d 3b67 55bd
00000390: a08c 15be 3509 eebd c23b 05be 8a1f 813d
000003a0: 6968 1dbd 0bf0 5fbd e0f0 b93c 8d44 74bd
000003b0: c6e9 6dbc 8422 35bc c8ed 91bd c8e9 97bd
000003c0: 74b1 82bd dc8b 6bbe 94d4 12be 52e9 143e
000003d0: 8154 593c 2bdf 08bd 2be5 3f3e 75ea 9e3b
000003e0: 3232 23be 83ac eabd edcf c7bc 158a bebd
000003f0: 2aea ac3e f426 29bc 13cc f43d 5db5 c33d
0.21168493 -0.091559425 0.1799438 0.08578518 0.008363545 -0.17073068 -0.08323735 -0.049271353
0.038767602 0.17047091 -0.10709123 -0.1340131 0.03225518 0.04759245 0.018304875 0.15112074
-0.23016837 -0.18769832 0.072002746 0.11241819 -0.018240819 -0.13620001 0.1392843 0.13533197
0.03607122 -0.06442436 0.040830452 0.24171327 0.08122733 0.17200874 -0.05978855 0.0046821856
-0.027830824 -0.24042454 -0.11496303 -0.14874275 -0.12755851 -0.1636553 -0.14537427 0.06757587
0.25417224 0.034406338 -0.028904637 0.11312736 0.04337044 0.30086595 -0.06253257 -0.054317154
0.029509338 -0.07415536 0.019693485 -0.0061126454 0.06940834 0.03370978 0.016012134 -0.049266566
0.17812423 0.012670311 0.121240705 -0.03264391 -0.0012148306 -0.0955817 0.07098217 -0.24812952
-0.26138097 -0.14081033 0.11781989 0.0768255 -0.019043326 -0.216824 -0.112461925 -0.13000186
0.015667938 -0.031395514 0.010619907 -0.2102954 0.013531674 -0.059542388 0.075773135 -0.26636273
-0.23273596 -0.18942027 -0.080442354 -0.008862978 0.08087386 -0.09033483 0.13648777 -0.0043367795
0.015795527 -0.07362144 0.15717955 -0.11955629 -0.09278061 -0.08015566 0.010432109 0.007908637
0.06261759 -0.00052389817 -0.10653031 -0.13429037 0.14050366 0.10339792 -0.08964988 -0.005011822
-0.114274226 0.10816491 0.19157399 -0.14320333 0.18312225 -0.17550404 0.08381606 0.025972052
-0.14037637 0.07706574 0.05128935 0.029925067 -0.032715164 -0.104759485 -0.047839746 -0.16577232
0.1713046 -0.34914178 -0.018382292 0.12615322 0.023775645 -0.11529577 -0.06542444 0.04602207
-0.066339254 0.13840449 0.33423984 -0.1118388 -0.083431356 0.49642286 -0.14955266 0.09008566
0.2740997 -0.030783962 -0.10493341 0.045582384 -0.04123196 0.12433947 -0.000321589 0.12883832
-0.06806543 0.0033349132 -0.14277077 0.1529387 0.17070238 0.025914373 -0.0051767854 0.08950068
0.25312462 -0.009590828 0.09276095 0.24660748 -0.17193973 -0.11563229 0.13669191 0.044537
0.05289477 0.12550186 0.15666959 -0.06263594 -0.010488163 0.16247419 -0.23012117 -0.011262805
-0.021757212 0.07973415 -0.10153312 0.09018997 -0.08034719 -0.041629273 0.029880743 -0.044707812
0.34493 -0.11187388 0.08589549 0.06302412 0.06397875 -0.124887 0.12501143 -0.0143824
0.012101758 -0.18376541 -0.043060344 0.28784665 0.005704527 0.04479897 0.07149913 -0.18810308
-0.07042897 -0.0060526826 0.09527114 -0.07233317 -0.06778765 -0.018260866 -0.13084443 -0.023662396
-0.029582785 -0.08836489 0.09213169 -0.03621464 0.16044761 -0.1439369 0.21720053 -0.10822401
0.06967763 0.06971816 0.2214813 -0.26596403 -0.1429958 0.33144104 -0.22697003 -0.20124976
0.16245633 0.034529254 0.07965619 -0.086099185 -0.3198723 0.015899582 -0.15522878 0.24690333
-0.067396656 -0.04348001 0.07955965 -0.0521004 -0.14604425 -0.1162285 -0.13011077 0.06304844
-0.03842965 -0.054672282 0.022697866 -0.059635688 -0.014521068 -0.011055592 -0.07125431 -0.07417637
-0.06381503 -0.23002571 -0.14338905 0.1454213 0.013264776 -0.033415955 0.18739764 0.004849727
-0.15937117 -0.11458685 -0.024391139 -0.09303681 0.33772403 -0.010324229 0.119529866 0.09556077

pmu_body.layers.1.bias f4 [64]
00000000: c1b8 b43d 1437 00bd 3f33 a03d 247e 923c
00000010: 682a c93d e1e5 1f3e 5c45 a03c 34a5 0c3e
00000020: a794 f7bb 05a0 69ba 5a10 dbbd 062e c03d
00000030: 7146 f73d bbd8 58bc 1984 413d c110 8fbd
00000040: 0e12 843d 9989 aa3b e4d2 8d3e 57d0 023c
00000050: f153 473e d7af 2d3e 534f 533c 99f9 e0bd
00000060: 190f 333d 2f9a 4b3e 6e53 39bc 38bc 54bd
00000070: 4c6b 203d 1bc3 2f3d 48d8 043e c676 febb
00000080: 38c9 09be 67cb 1fbd 2622 1c3e 8d04 323c
00000090: f7d8 fe3d c140 3abd d297 b9bd bbea 8ebc
000000a0: 050b bc3b 7d63 523e c548 573d b7f7 3e3c
000000b0: cd1e cd3d 1d5a 1bbe 7111 783e 0517 173e
000000c0: 209d 483e 74b8 733d 8cce 1e3e daf4 7c3d
000000d0: 4016 90bc 043f adbd 8780 233e 1cbd 013e
000000e0: 276f 86bd d2d5 833d 8e0a 62bd e12b 373e
000000f0: 202f 0c3e c7ba 4d3d 8248 f3bd 63e8 7b3d
0.088243015 -0.031302527 0.078222744 0.017882414 0.098225415 0.15615036 0.019564323 0.13734895
-0.0075555625 -0.00089120894 -0.10696478 0.09383778 0.120739825 -0.013235266 0.04724512 -0.069856174
0.06448756 0.005204391 0.2769996 0.007984242 0.19465615 0.16961609 0.01289733 -0.10985107
0.04371557 0.19883035 -0.011311395 -0.051937312 0.039164826 0.042910676 0.1297313 -0.0077656237
-0.13455665 -0.03901234 0.15247402 0.010865343 0.124437265 -0.04547191 -0.090621606 -0.017445913
0.0057386183 0.20545764 0.052559633 0.0116557395 0.100156404 -0.15171094 0.24225403 0.14754875
0.19591188 0.05950208 0.15508479 0.061756946 -0.017588735 -0.08459285 0.15966998 0.12669796
-0.065641694 0.06437267 -0.055185847 0.17887832 0.13689852 0.050226953 -0.11879064 0.061500918

actor_head.fc.weight f4 [8, 64]
00000000: c310 f0bc 704a 8c3d 415c 9dbd fadf 823e
00000010: e295 ba3c e43e d23d b1fb 233e f5af c8bd
00000020: c12d af3d c8fa 9cbc 3512 1bbd 0f6f 02bf
00000030: 4a90 9b3e 129f 4a3a b0c5 373e d175 a8bd
00000040: 675f 29ba 2dc3 c4bc fda3 093e 8432 b33d
00000050: 7626 87be 70b6 793e ee38 e33e 0224 3e3c
00000060: c345 b03c 66f7 bf3e df61 de3e ea6f 84bd
00000070: 26fe f43e b57d e5bc a005 95bd a4c2 2abd
00000080: 80aa b83d 76c0 e4be 930e 85bd 0d6a 663e
00000090: 5311 903e 5fe7 7f3e 029a 833d d3fb 843e
000000a0: 77a6 d2ba aee4 32be 800e d43d bbe2 103f
000000b0: c823 8abe 1434 b63d 7c22 f63c ddd5 ee3d
000000c0: 615e 1f3e 58e2 5abd d56c a33c 086f a33d
000000d0: ef59 59be 42d5 28bf 5ae9 1f3f 47ea b9be
000000e0: 6fad 7dbd e243 a7be 9828 233d 4ffc 9dbd
000000f0: 8fc6 943c 96bf 293e c1a1 89bb 37da 4d3b
00000100: b3e3 3c3d dbc6 a6bc 5204 6cbd b6cd c7bc
00000110: 9b6d eebc f22a 8fbd 41ef aebc a395 69be
00000120: 5cc7 a9bd 3388 16bd acb7 46be 6471 5bbe
00000130: b794 fc3c eed2 85be 67d3 e8bd 6cf4 0cbe
00000140: 5649 3d3c 4571 60be abb4 eebd 8625 cabd
00000150: 1ef8 64be 15d4 883e 53b8 b0bd a7b5 a93c
00000160: d920 25bd ee1d 08be 7258 62bd 1d36 5bbe
00000170: 91a6 573d ca07 113d 125e 113d 8729 95be
00000180: 2c45 4dbe 544a b2be c6fd d93b faac 9d3d
00000190: c1d3 19be 0b97 e23d 15b9 1e3d 8ade 79bd
000001a0: 8503 11bb 178f 37be 9e1c 2b3e b18d f93d
000001b0: ec30 a2be a997 38bc de99 003d 1e9e 02be
000001c0: 1df3 f4bd 86cd cbbd 99a0 9dbb 22cb 1f3d
000001d0: 5ce9 7ebd 69e3 3bbe bf3c 2d3e 707d c7be
000001e0: b411 2cbe f2b3 d53d b92b 373e 289b f0bb
000001f0: ced1 5abe bea6 ddbd 552a edbd ae91 6ebe
00000200: b6b7 0fbc eda1 3fbd c954 423d 4209 03be
00000210: 6187 893c 1219 e53d 5628 0f3e 1009 053e
00000220: 1e47 b6bc 8fc7 7cbd 25f4 363e c854 78be
00000230: f392 5e3e f3ae 003e fae0 f63d 1900 a03d
00000240: c9f7 643d 5733 c4bd 3ba0 b23d 5178 1dbe
00000250: ce6f 83bc 08e0 663e bc5f 6e3e 412e 8bbc
00000260: 7e73 64be 7979 1dbd d1a1 373d 8903 e13d
00000270: 8091 543e 550e c5bc 6396 203e bbee f53d
00000280: 0e4b 1e3e 588d f3be 2feb cbba bdda 673e
00000290: bbab 793d cd4e cf3d 312f c43c dccd fcbc
000002a0: 064f c3bc de68 6abd 779b 053c 1131 d13e
000002b0: f138 35be b95c 0c3e 7117 a33e 7ac3 2f3e
000002c0: 545d cc3d ee65 37be 1139 743c 6b3b c03d
000002d0: 9845 d1bd 1229 e4be 1a91 09bc 22f8 a0be
000002e0: 6163 d83c 1625 6cbd b012 4fbc bb05 8b3c
000002f0: 9667 3abd 2c85 26bd 3b43 4d3d 0f29 46be
00000300: e942 44bc 6958 b4bd 392c d4bc dae6 20be
00000310: 5351 4cbc ed4f ab3e 659c 13be a02c ccbd
00000320: 0437 a33c e647 87ba 3e4d 5fbd 8925 8dbe
00000330: acda abbd 1dd6 1f3d 1cea 39be 666d 64bd
00000340: 8fb4 1fbc 6793 b8be 1de7 1dbe e670 593e
00000350: c320 8bbd 105d 953d a656 6abe bdb9 943d
00000360: 011e 7bbe 957b 9fbd 4a67 41be 5a51 3d3d
00000370: 183a 2fbe 2bcd 893d 1cb0 c6bd d13a 6cbe
00000380: 3c9e 003f 5730 80be 8432 b93c 59cb f63d
00000390: 5559 8c3c 8de9 10bd df4c f2b9 0187 d13d
000003a0: 65e7 d6bc 599c d4bd 4510 1c3e 9fef 1f3e
000003b0: 3e8c e5bd 51cd fc3b eedb e23d 7f00 8f3d
000003c0: 8f7a 813e 2e4b 86bc 6cbc 013c 87f6 ccbc
000003d0: ac69 33be db11 4e3e db81 6abc 1364 e1be
000003e0: f4cf f1bd ddd5 f03d 44fb f7bc e0d4 993d
000003f0: 5382 06be 81ca 203e eae4 1dbe 5a2a 23be
-0.029304868 0.06850135 -0.07683612 0.25561506 0.022776548 0.10265902 0.16013981 -0.09799186
0.08553649 -0.01916255 -0.03785916 -0.5095071 0.3038352 0.0007729392 0.17946506 -0.08225597
-0.00064610544 -0.024018848 0.13441463 0.087498695 -0.2639653 0.24386 0.4437937 0.011605265
0.02151764 0.37493438 0.43434045 -0.064666584 0.4785015 -0.028014043 -0.072764635 -0.04168953
0.09016895 -0.44678086 -0.064969204 0.22501393 0.28138217 0.24990605 0.06425859 0.25973377
-0.0016071339 -0.17470047 0.10354328 0.56595963 -0.26980424 0.08896652 0.03004574 0.11661885
0.15563346 -0.053438514 0.019949356 0.07980162 -0.21225713 -0.65950406 0.6246544 -0.36311552
-0.061932977 -0.32668978 0.039833635 -0.0771414 0.018161086 0.1657699 -0.004200191 0.0031410584
0.04611559 -0.020358494 -0.057621308 -0.024390083 -0.029104998 -0.06990613 -0.02135432 -0.22810988
-0.08289978 -0.036750983 -0.19406003 -0.21429974 0.030832632 -0.2613749 -0.11368447 -0.13765115
0.011553129 -0.21918209 -0.116555534 -0.09870438 -0.22360274 0.26724306 -0.08628907 0.020716501
-0.04031453 -0.13292667 -0.05526013 -0.21407361 0.052649084 0.03540782 0.035490103 -0.29133245
-0.20045918 -0.34822333 0.0066525666 0.07699008 -0.15022184 0.110639654 0.038750727 -0.061003245
-0.0022127342 -0.17925678 0.16710135 0.121852286 -0.3167795 -0.011266627 0.03139674 -0.1275563
-0.11960433 -0.0995131 -0.0048104045 0.039012082 -0.062234268 -0.18348469 0.16917704 -0.3896289
-0.16803628 0.104347125 0.17887773 -0.007342715 -0.21369097 -0.10822819 -0.1158034 -0.2329776
-0.008771827 -0.046785284 0.04744414 -0.127965 0.016788187 0.111864224 0.1398023 0.12991738
-0.022250708 -0.06171375 0.17866571 -0.24251091 0.21735744 0.12566738 0.120546296 0.078125186
0.05590037 -0.09580105 0.08721968 -0.15377928 -0.016044524 0.22546399 0.23278707 -0.016989829
-0.22309682 -0.038445923 0.044832055 0.109870024 0.20758629 -0.024054686 0.15682368 0.12008425
0.15458319 -0.47568774 -0.0015557761 0.22642036 0.06095479 0.10122452 0.023948284 -0.03085988
-0.023841392 -0.057228915 0.0081547415 0.40857747 -0.17697503 0.13707246 0.31853822 0.17164412
0.099787384 -0.17909977 0.014906184 0.09386333 -0.10218352 -0.44562584 -0.008396411 -0.3143931
0.026414575 -0.057652555 -0.012638733 0.016970506 -0.045508943 -0.040654346 0.050112944 -0.193516
-0.011978843 -0.088059254 -0.025899993 -0.15713063 -0.012470561 0.33459416 -0.14415129 -0.09969449
0.019923694 -0.001032111 -0.054517023 -0.275677 -0.08391318 0.039022554 -0.18155712 -0.055768393
-0.009747638 -0.3604996 -0.15420194 0.21234474 -0.06793358 0.07293141 -0.22884616 0.07261989
-0.24523164 -0.07787243 -0.18887058 0.04622016 -0.17112005 0.06728586 -0.09701559 -0.23069312
0.50241446 -0.2503688 0.022607096 0.12050504 0.01713244 -0.03537898 -0.0004621511 0.10230828
-0.026233384 -0.103813834 0.15240581 0.15618752 -0.1120839 0.0077149053 0.110771045 0.069825165
0.25288817 -0.01639327 0.007918458 -0.025019897 -0.1752078 0.20123999 -0.0143131865 -0.44021663
-0.11807242 0.11759541 -0.03027118 0.07511306 -0.13135652 0.15702249 -0.15419355 -0.15934125

actor_head.fc.bias f4 [8]
00000000: 392a 87bd 3922 e7be 53c5 a3bc 0c6b a2bd
00000010: 56e0 c4bd ad6c 2cbe 9358 96bc 15ab 27be
-0.0659985 -0.45143297 -0.019991552 -0.07930574 -0.09613101 -0.16838332 -0.018352782 -0.16373856

qo_head.fc.weight f4 [4, 64]
00000000: 6464 bb3d af0d 49bd 9848 913c 43be 69bd
00000010: e47b c3bd 5bf6 b03c 3aa9 503c 39a0 093d
00000020: e1fe c53e 1bd9 86bb 40b6 2a3c 4362 59bb
00000030: f282 083d e658 fabb 54d7 c63d dbea 3cbc
00000040: ea3a 963b 3b23 9f3d cd16 993c 881e 8c3d
00000050: 6b7e 91bd 964b 6dbb ac72 b23b 3174 bc3d
00000060: 8575 a23d 1cfc 12be afcd 883c 0145 a03c
00000070: 8cb8 ca3b 9dc4 943b ec95 0c3d 0561 743d
00000080: 153f bd3c 2917 4e3c 8088 e4bc c843 3e3d
00000090: 966e 0d3c 510a ab3c 2355 1f3e fee4 26bd
000000a0: 5e63 46be 4003 453b fd2b 463d 65e5 9fbc
000000b0: 4f26 393a bffd 8f3d 3620 30bd 5dc5 6bbd
000000c0: 9f27 213d feb6 a73c 2a76 ce3d 867e ebbc
000000d0: 7bf7 993c cc07 66bc a530 3dbd c7ad a7bb
000000e0: 1373 aa3c b1e3 c03d 8ffc 503e 509d dabd
000000f0: 677f b2bb 0cae 8c3c 5c61 8e3e 1797 2b3d
00000100: 96a0 723d 9d9b 6bbd f96d 573d c8cf 01bd
00000110: 258a ac3e ed3f c73c 8098 4b3c b20b d83d
00000120: 4ec3 813e 1d72 863d 3e52 223c 1b55 54bc
00000130: d760 4c3c 5b35 133b 9e83 143e 6a01 d1bc
00000140: 4bf3 3f3d 2722 683d 20c9 27bb 7020 a83d
00000150: 5ce9 7bbd 6706 adbb c2c4 6ebb ee13 833d
00000160: 7530 db3d 4de4 cebd 9abf 9abc e097 513c
00000170: c311 9c3b 6302 bc3d cff3 af3c d045 843b
00000180: 14b2 123c ee87 363c 1d09 2fbe 1491 153d
00000190: a059 f43a f26d 01bc 5a25 42bc d6de 1dbd
000001a0: e9ad 13be af84 d43c 786e d83c 315c af3b
000001b0: abcb 4fbb 5d43 ad3d 17c2 57bd ca11 c1bc
000001c0: bd16 043d 49fb df3c 48aa 05be 9076 7fbc
000001d0: e2d0 a13c ab4b ef3a a3f8 edbc 8b1b aabb
000001e0: 1838 ec3c f5aa c33d 8ebf 513e b7af 68bd
000001f0: 0c00 2e3c 11c3 203c 0e72 3f3e 7c9a 843c
00000200: 2289 3f3e 4473 bbbd 1e44 443e 1f83 bdbc
00000210: f4ab 54bc 92a7 073d 3e56 e8ba a0cc 683d
00000220: 0298 433e d3e4 b2bc 4b6f 523c 91bf 523c
00000230: cf19 b53b 0def 223c ce65 303e 306a 82bc
00000240: 8b13 59be 981b c43d 9d96 f33c 91a7 903d
00000250: 12b3 77bd 7fb7 9bbb 61de ab3b 3f85 b23d
00000260: 93b0 b33d f235 d7bd 32b7 abbc abe3 9dbb
00000270: 47af 473b 2fef 61bd 7047 b43c ffdc 843c
00000280: bc1d d23c 5d57 a73c 92b2 3ebd f481 883c
00000290: 0bbf 623c 8002 21bc 9677 8ebd f897 2d3c
000002a0: a826 393d dece e93b 24d5 0fbd 5620 99bb
000002b0: cede 1abd 9d3b 80bd e024 50bd 2b5e 17bd
000002c0: 3003 493b c1dd 363d 053f 503e e86e d3bc
000002d0: 7f64 433c feac 00bd 08ee 85bd eef7 9abc
000002e0: 51c3 1a3d 094d ac3d 77ca 503e 3e97 d6bd
000002f0: 69a4 493c 6f0a 8a3b ccb7 8a3e 5d8d 473d
00000300: a447 373d b865 40bd 6f6d 64bd 0401 a4bc
00000310: 79d7 4bbc a170 55bb 212e 9d3c f6ee e13c
00000320: 3193 a83e d451 513d a840 923c b4c9 a8b8
00000330: 451a 0c3c 3919 6b3b a316 593e 5a69 a03c
00000340: 3454 e8bd a804 a93d 1f8e 833b 1b71 cc3d
00000350: fa94 d5bc 6254 23bb 9210 b43c 6af9 43bd
00000360: 8421 b13d a7b0 f4bd 27ae 8fbb fdd7 ac3c
00000370: c0d2 d6bc dc8e 8bbb 7134 36bc a616 ee3c
00000380: 5845 d83c de40 433b 0b65 073e 718e 4f3d
00000390: a9fc b43c 2a29 8b3c 7151 953d e031 863c
000003a0: 78b6 f4bb fd1e babc 82ae e63c fb95 573b
000003b0: bfbf 983c e201 da3d c0d0 75bd 4f6e 55bd
000003c0: dd5d 763c 1a45 ac3a 3a4c dabd 255f 12bd
000003d0: f8d7 86bb 1823 78ba b4f7 b6bd aeb5 05bc
000003e0: a082 2c3d 9a36 e83d f58b 413e ea40 86bd
000003f0: 7557 c93b 8ae9 503c cc4f 8a3e af5a 8a3c
0.09150007 -0.049085315 0.01773481 -0.057066213 -0.09545115 0.021601846 0.012735659 0.033600066
0.3867102 -0.0041152365 0.010419428 -0.003317014 0.033328004 -0.007639992 0.09709039 -0.011530603
0.00458466 0.077703916 0.01868763 0.06841761 -0.071041904 -0.0036208383 0.005445799 0.09201849
0.07932571 -0.14353985 0.01669964 0.019564154 0.0061865505 0.0045400397 0.034322664 0.059662838
0.023101369 0.012578764 -0.02789712 0.04645136 0.008632323 0.020878943 0.15559821 -0.040745728
-0.19373843 0.0030061752 0.048381794 -0.019518564 0.00070628984 0.0703082 -0.04299947 -0.057561267
0.039344426 0.020473 0.10081132 -0.028746855 0.018794766 -0.014039945 -0.04618897 -0.0051171514
0.020806825 0.09418429 0.20408843 -0.10674536 -0.0054473164 0.017172836 0.27808654 0.041892137
0.059235178 -0.05752145 0.052595112 -0.031692296 0.33699146 0.024322474 0.012426496 0.10549106
0.25344318 0.06564734 0.009907303 -0.012959744 0.01247426 0.0022462222 0.14503333 -0.02551337
0.04686288 0.056673195 -0.0025602058 0.08209312 -0.061501846 -0.0052803042 -0.0036433195 0.06400286
0.10702602 -0.10102139 -0.01889019 0.0127925575 0.0047628595 0.09180143 0.021478562 0.0040366426
0.00895359 0.011140807 -0.1709332 0.03651531 0.0018642433 -0.007899748 -0.011849726 -0.03854259
-0.1442181 0.025942175 0.026419863 0.0053515662 -0.003170709 0.08460114 -0.052675333 -0.023568053
0.032248247 0.027341502 -0.13053238 -0.015592232 0.019752923 0.0018256804 -0.029049223 -0.0051912717
0.028835341 0.09554092 0.20483229 -0.0568082 0.010620128 0.009812132 0.18695852 0.016186945
0.18704656 -0.091528445 0.1916661 -0.023133812 -0.01298045 0.033118792 -0.0017725897 0.05683577
0.19100955 -0.021837628 0.012843917 0.012863056 0.0055267583 0.009944689 0.17226335 -0.015919775
-0.21198861 0.095755756 0.029734904 0.07063211 -0.06047351 -0.004752099 0.0052450155 0.08716821
0.08773913 -0.10508336 -0.020961378 -0.0048184 0.0030469464 -0.055159744 0.02200672 0.01621866
0.025648944 0.0204274 -0.046557017 0.016663529 0.0138394935 -0.009827256 -0.06956403 0.010595314
0.04520288 0.007135256 -0.035115376 -0.004673044 -0.03781014 -0.0626137 -0.050816417 -0.03695504
0.0030672066 0.044645075 0.2033654 -0.02580972 0.011925816 -0.03141498 -0.065395415 -0.01891705
0.037783924 0.08413131 0.20389734 -0.10478066 0.012307265 0.0042126696 0.2709335 0.0487188
0.044746056 -0.046972007 -0.055768427 -0.020020016 -0.012441509 -0.0032568353 0.019187035 0.027579766
0.32924798 0.051103428 0.017853096 -8.0484344e-05 0.008551185 0.0035873188 0.21200041 0.019581486
-0.113441855 0.08252841 0.004014745 0.09982511 -0.026072014 -0.0024922122 0.021980558 -0.04784528
0.08648971 -0.11947756 -0.0043847742 0.021099085 -0.02622354 -0.0042589735 -0.011120901 0.029063534
0.026400253 0.0029793303 0.13222139 0.050672952 0.022093134 0.016987402 0.07290924 0.016381204
-0.007468041 -0.022719854 0.028159384 0.0032895792 0.01864612 0.1064489 -0.060013533 -0.05210715
0.015037027 0.0013143152 -0.1065907 -0.03573527 -0.004115101 -0.00094656786 -0.08933964 -0.008160992
0.04211676 0.113385394 0.18901046 -0.0655535 0.006144459 0.012750993 0.27014005 0.016888944

qo_head.fc.bias f4 [4]
00000000: 5c82 573e 4ed8 353e d0fd 513e 38e7 3c3e
0.21045822 0.17758295 0.20506978 0.18447578

beta_head.fc.weight f4 [4, 64]
00000000: 3855 8dbe 6907 3c3e afe5 7fbd b1ac 9bbe
00000010: 0b10 3fbf 0133 2bbf 1738 c2be d4fb e2bd
00000020: bf18 1dbe d045 17be e918 2abe c1bf 5bbe
00000030: 784d 66be f945 51ba c0f0 58bf 7369 53bd
00000040: 6379 d5bd 12f2 9b3d 8fe1 46bf 61dc 043f
00000050: 4532 3cbf f113 21bf 5f34 7bbc 2302 c13c
00000060: 3d8e d4be 7c46 0bbf 00d2 cfbe b9ae be3d
00000070: 7da7 d03d 2083 b33d bec8 e83c f398 edbc
00000080: 81d9 7c3d 7b8a 55bd 7881 013e ef9f eb3d
00000090: 25a0 c23d e421 593e 8677 29bd 23a4 8ebd
000000a0: 25d4 b7be ee64 60be 4087 5ebd af95 d7bd
000000b0: 0ddb 463e 5a9c 9e3e 7758 fcbe a407 24bf
000000c0: 64bd 9c3b 3964 84be 2ec2 b8be dadf 5ebe
000000d0: 6daf 5d3e 0b4c e6be 878f eabe 982c 6ebf
000000e0: 3404 a8be 42f0 6d3e 42b4 c73e 6b99 183e
000000f0: 38d6 84be 2fdd 0cbd 7361 6ebe c42a 6a3e
00000100: e6a1 01be 1561 fdbd 2556 42be 6024 a13b
00000110: 49fd e9be 68b5 7ebe 78da a6be 1062 e7bd
00000120: 5c04 c23d cb5d 5d3e 98e1 88bc e828 26bf
00000130: c3de a63e b252 eebe 3ec7 cfbe 5bc3 09bf
00000140: b428 c7be 216b 65be 6e2c a9be abe9 953e
00000150: 388d 08bf 75e6 c3be c666 12be 8891 b1bd
00000160: 04c3 8dbe 98f7 41bf 38ad c73c b7f3 6ebd
00000170: 1ba8 113e c8e8 093f a1b2 68be 8e19 94bd
00000180: 04de 533e 30f6 d3bd c4d9 2e3d bf63 773d
00000190: b2a1 85be b157 d33c 7698 f8be cbab 893e
000001a0: 6600 3e3e cfcd 5bbe 3285 083d da42 54bc
000001b0: f5a7 e5bc 6f1d 29bd 72f0 d8bd d0c7 b2bd
000001c0: 73d0 cabe 9b97 d0be 0a7b 18bd ff6f 8ebe
000001d0: 39b1 cf3a a518 cebe 6ec4 c9be f149 6dbe
000001e0: 71b1 7ebe 6401 793e f945 4b3e 572b 0a3e
000001f0: 7361 8cbe 6ad8 72be 029d 80be 85f9 72bc
00000200: f136 d43c b172 443e 1665 cdbe 069d b2bb
00000210: 79ce 78be 9ba7 193e fa49 d53b 09e0 12be
00000220: b78f 7d3e c5b9 d93e c752 80be 9f71 fabe
00000230: 5bf5 e43c 8580 5abe a3ae 733c 9ee9 83be
00000240: d727 a3be a3dc ff3d 14ae c1bd 4a37 7b3c
00000250: b013 c6bc fcab ccbe 9c4c ecbd 672b c43d
00000260: bdc8 633e 684e 8fbe 846e 0d3e 20b1 40bd
00000270: 69c6 b1be 3a0c 7bbd cfc6 03bf 9a2f 3b3d
00000280: fec0 44be 19a1 a03c 4e22 f0be 4e03 70be
00000290: e57a c3be de82 9b3a 486c 0dbe a1fc 063e
000002a0: 4593 11bc a8e4 adbe f7da b93e 1f12 d43d
000002b0: c7d2 0a3e f2b2 2ebe de58 a03e f47b 6bbe
000002c0: 76f9 f0be 6189 033e a827 583e 654f e0bc
000002d0: f395 64be 68a1 a0be 8240 4ebe 33a5 a9be
000002e0: f32e 31bc 011b e8bc 161b 5dbd f36c febe
000002f0: b81f 723e 5432 0abf f2b2 183e a262 81bc
00000300: a70a 96be 5dd5 0e3d 70e7 27be 4cb3 3e3d
00000310: e8f2 c23c bd92 833e 3bac 0ebd f842 7fbd
00000320: ab54 1abf 6be2 24bf 343c e8be 4046 063c
00000330: 57a0 87bf 900c f23d a1e2 a63d 07cb 66be
00000340: 7e77 073e 1267 73be 659b ea3d 53c5 94bf
00000350: 9164 2d3e e6ed 913e f431 6c3e c840 f63c
00000360: 9013 a3be f6c5 c43e 0a49 9bbe 5348 523e
00000370: cf3d ef3c 594d 2dbf 5909 28bd 03e7 813d
00000380: 6aeb d8be 94e2 10bf 4e40 363d 18ce 87bd
00000390: f128 803e eac5 083e c4e9 853d 1c1e 9dbe
000003a0: 64cd 65be b9e4 cdbd db4b 29bf 7eb2 45bd
000003b0: 2007 133d 4955 f0be f64b 49be 3a8e 023d
000003c0: 14bf 773e c1f3 c53c b6e2 aabe 869e 22bf
000003d0: ce3d 8b3e 5ef0 05be 40dd cebd 5843 943e
000003e0: 565a f43d a048 d1be c8c1 83bf f419 823e
000003f0: a2d2 11be 47f6 c2be 6839 9b3d 69be 47bc
-0.2760408 0.18362202 -0.062474903 -0.3040519 -0.74633855 -0.668747 -0.37933418 -0.11083189
-0.15341471 -0.14772725 -0.16611065 -0.21459867 -0.2249049 -0.0007983144 -0.84742355 -0.051614236
-0.10423543 0.076145306 -0.77687925 0.5189877 -0.73514205 -0.62921053 -0.01533231 0.02356059
-0.4151477 -0.54404426 -0.40589905 0.093106695 0.10188196 0.087652445 0.028416034 -0.029003596
0.061730865 -0.05213402 0.12647045 0.11505114 0.095032014 0.21204334 -0.041373752 -0.069649
-0.3590404 -0.21913502 -0.054328203 -0.10526597 0.19419499 0.30978662 -0.49286243 -0.6407416
0.0047833193 -0.25857714 -0.36085647 -0.2176508 0.21648951 -0.4497989 -0.45812628 -0.93036795
-0.32815707 0.23236182 0.39004713 0.14902274 -0.25944686 -0.034390625 -0.23279361 0.22867876
-0.12659416 -0.123720326 -0.18978174 0.0049176663 -0.45701054 -0.24873888 -0.32588553 -0.11298001
0.09473488 0.2161781 -0.016709134 -0.6490617 0.3259183 -0.46547467 -0.40581697 -0.53813714
-0.38898242 -0.22404148 -0.3304171 0.29279837 -0.5334048 -0.38261762 -0.14297017 -0.08670336
-0.27687848 -0.75768423 0.02437459 -0.058337893 0.14224283 0.5387082 -0.22724392 -0.07231437
0.20690161 -0.10349691 0.042688146 0.06039786 -0.26099926 0.02579865 -0.48553818 0.2688888
0.1855484 -0.21465228 0.03333015 -0.012955392 -0.02803419 -0.041287836 -0.10592736 -0.087295175
-0.3961216 -0.40740666 -0.037226714 -0.2781982 0.0015845663 -0.40253177 -0.39407676 -0.23172738
-0.24872376 0.24316937 0.19850911 0.13493095 -0.27418098 -0.23715368 -0.25119787 -0.014829998
0.025905104 0.19184376 -0.40116185 -0.0054508476 -0.24297513 0.15005343 0.006509063 -0.14343275
0.24761854 0.42524543 -0.25063154 -0.4891481 0.027949026 -0.21338089 0.01487318 -0.25764173
-0.31866333 0.12493255 -0.09457031 0.015333006 -0.02417931 -0.39974964 -0.115380496 0.09578591
0.22244544 -0.27989507 0.1381169 -0.04704392 -0.34721687 -0.061290957 -0.5147523 0.045699693
-0.19214246 0.019608067 -0.46901172 -0.2343876 -0.381797 0.0011864563 -0.13810837 0.13182308
-0.008885209 -0.33963513 0.3629987 0.10355019 0.13556968 -0.1706045 0.313178 -0.22996503
-0.47065324 0.12845375 0.21108878 -0.027381608 -0.22322826 -0.31373143 -0.20141795 -0.3313385
-0.010814416 -0.028333189 -0.05398091 -0.49692497 0.23644912 -0.53983045 0.14912012 -0.015794102
-0.29305002 0.034871448 -0.1639688 0.04655771 0.023797467 0.2569789 -0.03483222 -0.062319726
-0.60285443 -0.64407986 -0.4535843 0.00819546 -1.0595807 0.11818802 0.08148695 -0.22538386
0.13229176 -0.23769787 0.114554204 -1.1622719 0.16932894 0.28501815 0.2306593 0.030060187
-0.31850863 0.38432282 -0.30329162 0.20535402 0.029204277 -0.6769615 -0.04102454 0.0634289
-0.42367107 -0.5659573 0.04449492 -0.06631106 0.25031236 0.13356748 0.06538728 -0.30687034
-0.22441632 -0.10053391 -0.6613137 -0.048265927 0.035895467 -0.46940067 -0.19657883 0.03187392
0.24193984 0.024164082 -0.33376092 -0.6352314 0.2719559 -0.13079974 -0.10100794 0.2895763
0.11931293 -0.4087572 -1.0293512 0.25410426 -0.14240506 -0.3807852 0.07579309 -0.012191393
