trained-models/ppimoc-mujoco-four-rooms.pth (torch_old, 239670 bytes, 63 tensors)

body.layers.0.weight f4 [64, 7]
000000 c6 72 5e 3c a3 f0 94 bd 25 5f cf 3e 60 11 0c 3e
       0.013577169 -0.0727246 0.40502277 0.13678503
000010 66 dd 59 bd be a3 3c bd ba a8 8f 3d 8d c2 a7 3d
       -0.053189658 -0.046054594 0.07014604 0.081914045
000020 b3 88 d4 bd 58 82 d5 3e 2b 5e 1a bd aa 5c 8d ba
       -0.10377636 0.41701007 -0.03768746 -0.0010785062
000030 15 fc 06 3d 86 9d 17 3d ae c2 63 bd 01 90 bc bd
       0.032955248 0.03701546 -0.055605583 -0.09207154
000040 d0 7b bb bd 8a 9f 48 ba 6b ea de 3d c7 2d 05 be
       -0.09154475 -0.00076531677 0.108845554 -0.13005744
000050 8d 8b c4 bd 41 37 cb bc 7f 20 14 3d 3c 01 21 be
       -0.0959693 -0.02480662 0.036163803 -0.15723127
000060 6d 81 87 3d 6a 21 33 be 1c bf 50 be d1 e3 48 bd
       0.06616483 -0.17493215 -0.20385402 -0.049045388
000070 85 53 7f 3c b9 03 db 3e c2 3d 8d bd f7 3c 35 be
       0.015583877 0.42776278 -0.06896545 -0.17699037
000080 21 ae 38 bc c3 1c 54 bd 5a 6c 06 be 04 4a 87 bd
       -0.011271984 -0.05178524 -0.1312727 -0.06605914
000090 4c 78 48 3c c8 9d ba 3e db 18 4a bc e7 40 e7 bd
       0.012235712 0.36448503 -0.012335028 -0.11291676
0000a0 94 cd 10 be c4 30 41 be 31 58 a7 3d 60 aa 65 3d
       -0.14140922 -0.18866259 0.08171118 0.056070685
0000b0 4d d1 a2 bd 5f 2f 0d be 22 e3 e1 bd dc e8 77 3d
       -0.07950077 -0.13787602 -0.1102965 0.060524806
0000c0 f8 89 ee bd 35 57 7f bd 55 b5 19 be c6 1e 02 3f
       -0.11647409 -0.062339026 -0.15010579 0.50828207
0000d0 17 f6 31 3d c7 11 90 bd f7 14 ed 3c 61 13 9d be
       0.04344758 -0.07034641 0.02894066 -0.30678847
0000e0 52 79 55 be e6 32 f7 bd 46 f5 ae 3d 2e 01 c8 bd
       -0.20847061 -0.12070255 0.08542876 -0.0976585
0000f0 77 26 da 3d 70 6c ef bd 24 2e 99 bd 36 71 2b be
       0.10651868 -0.11690605 -0.07479504 -0.16742405
000100 5b b2 41 be 67 6f 17 be ab 79 15 3d 9c 10 99 3d
       -0.18915693 -0.1478859 0.036492985 0.07473871
000110 b9 96 ef bc 61 d1 fc 3c 7b 36 9a 3c f3 18 df bd
       -0.029246675 0.030861558 0.018824806 -0.108934306
000120 f9 62 a3 be 8d 15 e9 3d b7 82 92 bd 0f 71 03 3e
       -0.31911448 0.113810636 -0.07153838 0.12836097
000130 0d c8 17 3d 86 5e 97 bd 0e c7 e1 bc db 52 25 3e
       0.037056018 -0.07391076 -0.027560737 0.16144888
000140 ff f8 0a be ca e5 e5 bc aa a4 a1 3d 98 1c 02 be
       -0.13571547 -0.028063674 0.07892735 -0.1270622
000150 49 da e1 be 49 26 f5 3d 8b 5d bc bd 54 a9 5f 3d
       -0.4411185 0.11970193 -0.091975294 0.054604843
000160 c4 c7 f2 bc 8d 4a cc 3d 45 38 2a bc 39 e3 12 3e
       -0.029636271 0.09975157 -0.010389392 0.14344491
000170 cd 5c 97 bd 97 61 82 3d 9c 1d 91 bd 54 b6 c6 bc
       -0.07390747 0.0636627 -0.07085726 -0.024256863
000180 70 11 9a 3d 36 4b 4a be 18 04 59 bd a6 54 97 bb
       0.07522857 -0.19755253 -0.05298242 -0.004618245
000190 9c ac 71 bd e2 4f 5e be 9a 24 13 bd ce 06 9e bc
       -0.059002504 -0.2171016 -0.035923578 -0.019290354
0001a0 3a ab b4 3d 10 19 d5 3d 36 ab eb 3d 36 82 b5 3e
       0.088217214 0.10405171 0.11507265 0.35450906
0001b0 33 08 6d 3d ba e2 b2 3d ec f1 66 3b e5 73 17 bd
       0.057869148 0.08734651 0.0035239412 -0.03697576
0001c0 d4 01 cc 3d 5c 4f 78 3f 52 5d 17 be c1 23 4d 3c
       0.09961286 0.9699609 -0.14781693 0.012520731
0001d0 fb 8d 3f bd 7a 1a 1b 3d 37 30 e8 bd d2 d8 96 3d
       -0.046766263 0.037867047 -0.11337321 0.07365574
0001e0 bd 03 a9 bd 7e 51 f0 3e e9 c0 e4 bd 82 99 15 3d
       -0.08252666 0.46937174 -0.11169607 0.03652335
0001f0 f5 e7 44 3e 0d df 81 3d 69 37 6f 3d b8 ce c5 bd
       0.1922911 0.06341372 0.058402453 -0.09658569
000200 a1 d9 b2 be 38 78 9d bb 5f 61 47 bc bd a0 d4 bc
       -0.34931663 -0.004805591 -0.012169211 -0.025955552
000210 2a 62 07 3e 32 4c 0b bc e2 1c 84 3e 2f b1 50 bd
       0.1322104 -0.008502053 0.25803286 -0.050950225
000220 3a bd 55 be 2d de 2d bc 6d ca ba 3d 6a 1c 8c bc
       -0.20872965 -0.010612053 0.09120641 -0.017103393
000230 c2 c0 54 3d 72 a0 6e bd 46 99 05 bf 7d c6 05 3d
       0.05194164 -0.05825848 -0.52187 0.032659996
000240 ac ad e2 bd da d1 a3 3c 52 ed d1 3c ef 06 16 3d
       -0.110682815 0.019997526 0.025625858 0.036627706
000250 9a b7 b1 3c 02 88 8a 3e b9 15 1d 3d 88 e4 9b 3d
       0.021693993 0.2705689 0.038350794 0.07611948
000260 85 9b 33 3d 53 3f cd 3d 5f 39 8c bd 9d c9 aa bd
       0.043849487 0.10021844 -0.0684688 -0.08339236
000270 62 db 14 3d 96 f7 f8 bb 4d c0 3a be ba 79 84 bb
       0.036342032 -0.007597874 -0.1823742 -0.0040428312
000280 10 12 3b be 19 66 53 3c a2 e8 3c 3d 5a e9 e0 bd
       -0.18268609 0.01290276 0.046120293 -0.10982008
000290 5f cf 8a 3e 8c 3c 12 3e 98 9a 9c 3d 57 2d 43 ba
       0.27111337 0.1428091 0.07646674 -0.0007445416
0002a0 89 50 e3 3d e7 ac 46 3e b4 87 66 3e f9 ec 84 bd
       0.11099345 0.19401895 0.22512704 -0.064905114
0002b0 b9 b0 7e bd eb 3e 7b bd 20 59 45 be cf d8 5b be
       -0.062180255 -0.0613393 -0.1927228 -0.21469425
0002c0 41 88 5e be 67 7b 64 be 4b 3b 38 bb 2b a1 9d bd
       -0.21731664 -0.223127 -0.0028111513 -0.07696756
0002d0 48 74 4d bc ec 38 5a bd 27 6f b4 3d b2 f7 ab 3c
       -0.012539931 -0.05327694 0.08810263 0.020992134
0002e0 2d 0d 44 3e e0 dc d2 bd d0 6c 47 be 48 7b 63 bd
       0.19145651 -0.10296035 -0.19475102 -0.055537492
0002f0 a4 e7 9a bc 36 de e2 be e8 25 2e 3d 34 fb 3e 3d
       -0.018909283 -0.44310158 0.04251662 0.046626285
000300 0f e4 4a 3d 07 41 94 3d 0c 0d c6 bd 84 7b e3 3c
       0.0495339 0.072389655 -0.09670457 0.027768858
000310 7a ec 3a bd ba c7 65 3d fd 0d 98 3d 9d a1 0d 3e
       -0.045635678 0.056098677 0.07424543 0.13831182
000320 91 11 99 3d d8 e6 1b be 55 37 15 3e 57 d2 0d bd
       0.07474054 -0.15224779 0.14571889 -0.034624424
000330 6d 85 9e bc 86 38 41 3d fa 77 e4 bd a0 61 8a bd
       -0.019350732 0.047173046 -0.11155696 -0.06756902
000340 12 b0 18 3e ba a9 22 bd 2c 4b ee be 52 0c 37 bd
       0.14910915 -0.039712645 -0.46541727 -0.044689484
000350 f1 d8 da 3d bd f1 9f 3d c2 97 91 bd 66 32 a1 3d
       0.106859095 0.0780978 -0.07109024 0.07870941
000360 1b 5f 7d be 29 e9 d6 3c 52 68 74 3b 15 e9 1d bf
       -0.24743311 0.026234226 0.0037293625 -0.6168378
000370 18 c7 d3 3c ef f3 41 3d 5f 96 74 bc bb 40 d2 3d
       0.025851771 0.047351774 -0.014928429 0.102662526
000380 0d 4c ee bd a4 b8 d4 bd 2e 74 6f 3c c5 fb d5 bd
       -0.11635599 -0.1038678 0.014615102 -0.10448412
000390 85 dd 46 3e 0c b7 d2 bc 31 ee 5e 3d 19 c7 3f 3e
       0.1942044 -0.02572205 0.054426376 0.18728293
0003a0 cf 87 1c 3e 8d ae 72 3e 03 28 95 3c 91 7b b4 3c
       0.15286182 0.23699398 0.018207556 0.022031577
0003b0 0f e3 4c 3d 84 25 8b 3d df b9 26 3b 70 6d c1 3e
       0.050021227 0.06794265 0.0025440378 0.37778807
0003c0 a8 fc a1 be f2 7e 2c be 81 9b 48 be 5b f3 c6 bb
       -0.31638074 -0.16845301 -0.1959057 -0.0060714907
0003d0 cc f1 df 3d bd 40 f6 bc b4 70 2b 3c 66 c5 9e bd
       0.10934791 -0.030060166 0.010463882 -0.077524945
0003e0 2a 55 a4 bd 32 36 0c 3e ab 2e 38 be a5 64 7d 3b
       -0.08024056 0.13692549 -0.17986552 0.0038664725
0003f0 10 41 b4 bc 32 59 ce 3b 02 1d ea bd e5 ea 66 bc
       -0.02200368 0.006297254 -0.11431314 -0.014094089

body.layers.0.bias f4 [64]
000000 da 65 61 3a f0 77 d8 bd 79 39 f4 bd d4 a4 17 bd
       0.0008598246 -0.10569751 -0.119250245 -0.037022427
000010 95 41 05 be 10 34 ab 3c 81 c7 3b 3e 7d 1f b9 3d
       -0.13013299 0.020898849 0.18337823 0.09039209
000020 c7 8b 93 3b 20 be b9 3d 11 46 94 bd ea a3 c5 bb
       0.0045027467 0.090694666 -0.072399266 -0.006031503
000030 8f 67 0c 3f 2f 6f 13 be 94 8e b1 bd 8d b3 2e be
       0.5484552 -0.14397882 -0.08669773 -0.1706068
000040 a7 cc 72 be d8 44 39 bd 62 5f ac bd 4a 7d 40 3e
       -0.23710881 -0.04523167 -0.0841663 0.18797794
000050 e2 e1 df 3d 8c 49 c4 bd b9 4a 31 be 71 c1 ed bc
       0.109317556 -0.095843405 -0.1731366 -0.029022904
000060 89 e0 25 be 1d bd ab be aa af 02 be d1 d1 e3 3e
       -0.16198935 -0.3354272 -0.12762323 0.44496015
000070 5f b8 18 be c4 a5 01 be 12 7a 14 3e 61 51 82 3e
       -0.14914082 -0.12660891 0.14499691 0.25452712
000080 c7 b4 b5 3d 84 46 d5 bd 88 ce af 3d 48 05 3c bd
       0.08872371 -0.104138404 0.085843146 -0.045903474
000090 9b 0f c2 bd ec e1 36 be dc ab 6e 3e 8d 72 90 bd
       -0.09475633 -0.1785962 0.23307747 -0.07053099
0000a0 3e b3 f7 3e 08 ec 8c 3c ea 26 ef ba 3b 62 1d be
       0.48378938 0.017202392 -0.001824585 -0.15369503
0000b0 a1 57 41 be d2 85 b5 3c c4 c3 92 bd 3a ef 75 be
       -0.18881084 0.022158537 -0.071662456 -0.24017039
0000c0 ae 46 0f bc 5e 5f ee bc 63 5e 20 3e c7 c9 9d bd
       -0.008744879 -0.029098209 0.15661006 -0.077045016
0000d0 55 ac d7 bd 5d 22 57 bd a9 0f c1 3d a8 db 6d 3d
       -0.105309166 -0.052523006 0.09426815 0.05807081
0000e0 97 e3 e2 3d ff 3a f5 bd 07 5a 7c bc e6 d9 ba 3d
       0.110785656 -0.11974143 -0.015402324 0.09123592
0000f0 87 16 7a bd 02 0b 30 3e 33 0b ef bc 70 4f ed bd
       -0.06105664 0.17191699 -0.029180145 -0.11587417

body.layers.1.weight f4 [64, 64]
000000 1c 89 5a be b6 f4 5a bd 29 39 0a 3d 74 bc 94 3c
       -0.21341366 -0.05345603 0.03374592 0.018156268
000010 e4 d3 a9 be 17 e0 39 3e 66 1a 7b be 3c 5e 1d be
       -0.33169472 0.1815189 -0.24521789 -0.15367979
000020 0b 14 d9 bd db db 53 3c 4b 9e ec 3d 47 56 64 3e
       -0.10599526 0.012930836 0.115536295 0.22298537
000030 eb 54 ad bd 9b e4 d7 3c c0 dc 73 3c fc b6 f7 be
       -0.084634624 0.026354125 0.014884174 -0.48381793
000040 69 ef 3d be af 21 25 3e 88 55 bd bd 65 7e 40 3c
       -0.18548359 0.1612613 -0.092448294 0.011748885
000050 88 68 1f 3e d7 80 18 3d 51 cd 98 bc 5f 90 70 bd
       0.1556722 0.037232246 -0.01865259 -0.058731433
000060 1b d3 11 be 4a 68 93 be 70 25 c9 bc dd fa 33 bd
       -0.14240687 -0.28790504 -0.024553984 -0.043940414
000070 11 ef 0c bd b8 0f 94 ba 2c 12 03 3e 7e 8d c5 3e
       -0.03440768 -0.0011296188 0.12799901 0.38584512
000080 2b f2 06 3e 24 1c 8d 3c 75 b6 9d bc 18 8a a3 3d
       0.13178317 0.017225333 -0.019252041 0.07985324
000090 7c 3e f6 bc 88 63 aa bd ac 55 2a bd 25 f3 aa bd
       -0.030059092 -0.08319765 -0.04158561 -0.083471574
0000a0 de 85 f4 bc 18 00 af 3c c4 31 3d bb c7 1e 22 3c
       -0.02984899 0.02136235 -0.0028868774 0.009895033
0000b0 e2 c6 12 be 98 24 47 3b 6f 29 81 3e 55 c6 4c 3e
       -0.1433368 0.0030386802 0.25226924 0.19997533
0000c0 0f 90 1f 3e b4 bf dd bb cc 32 2a bd 46 da 32 3d
       0.15582298 -0.0067672376 -0.04155235 0.043665193
0000d0 5c 88 21 3d a2 a4 cb 3d 19 1a 53 3e c2 92 31 3e
       0.039436683 0.099435106 0.20615424 0.1734114
0000e0 de 45 35 3d e8 9e 3b 3e 26 32 2a bd c2 ae 14 bd
       0.044256084 0.18322337 -0.04155173 -0.036299475
0000f0 e2 a8 ba bc 16 bb 37 bc 08 87 c5 3d 07 a9 20 be
       -0.022785608 -0.011214038 0.09644896 -0.15689479
000100 91 ef ea 3d a4 3c 3a be e6 b9 4d 3d 94 5f d9 3b
       0.11471475 -0.18187195 0.050226115 0.0066337083
000110 18 6c f3 bd 4f 01 37 bd cd 23 69 3e 0d 39 39 bc
       -0.118858516 -0.044678982 0.22767563 -0.011305106
000120 33 f2 10 be 9b ef cd 3a 90 e6 17 3d 65 63 09 3e
       -0.14154892 0.0015711667 0.037085116 0.13416822
000130 4e 0d b6 3d 66 a7 dd bc 9d 7c 00 be 7e 90 f5 3d
       0.088892564 -0.02705736 -0.12547536 0.1199045
000140 a9 77 d5 be 08 0a 2e 3e e3 a0 85 bd 57 c5 a5 bd
       -0.41692856 0.16996014 -0.06524827 -0.0809428
000150 2c bd 3e 3d ab 9e 95 bd b0 18 da bd f0 9a 22 bd
       0.046567127 -0.07305654 -0.1064924 -0.03969854
000160 67 42 4c 3e 6b 60 7c 3d 97 17 21 3d 09 10 84 3c
       0.19947205 0.06161539 0.039329138 0.016120927
000170 46 74 15 bd af 4e 31 3e 5c 00 54 3e b9 0c a4 3c
       -0.03648784 0.17315172 0.20703262 0.020025598
000180 f9 ce 97 3d 36 d9 9f bd 22 bf e9 bd af 90 7e 3d
       0.07412524 -0.078051016 -0.11413409 0.0621497
000190 d4 25 08 be a1 01 ed bd 9d 19 38 3e 05 c4 57 be
       -0.1329568 -0.11572576 0.1797852 -0.2107087
0001a0 d9 43 80 3e 43 f7 38 3c 07 4b 0d 3e a2 f3 06 bd
       0.25051764 0.011289421 0.13798152 -0.03294719
0001b0 18 43 e8 bd b7 6b 12 3e 24 6c 90 3d e4 67 0b be
       -0.11340922 0.14298902 0.07051876 -0.1361385
0001c0 7b f2 1e 3e 38 44 30 3e 79 c5 51 bd bf d8 24 3e
       0.15522186 0.17213523 -0.051213715 0.16098307
0001d0 5e 9c af bc 73 57 af 3d 84 90 07 3e 04 52 8a 3d
       -0.021436866 0.085616015 0.13238722 0.067539245
0001e0 f5 4e 1f bc 2a f9 38 be a7 c0 c0 3d df 97 6f bd
       -0.009723415 -0.18063799 0.094117455 -0.058494445
0001f0 8c 71 4c be 82 d1 36 bd bc b2 37 3e 32 69 9d bd
       -0.1996519 -0.044633396 0.17939276 -0.0768608
000200 84 ba a0 be ee a1 fc 3d 6e 37 44 3d 72 8a 78 bd
       -0.313923 0.12335573 0.047904424 -0.060678907
000210 d2 86 6f 3d 8d 04 27 be 7f 8a e0 bd 6f 8d e3 3b
       0.058478184 -0.1631033 -0.10963916 0.0069443504
000220 2a 49 00 3e 4c a1 7e 3d 98 d5 87 3e fc bf c8 3d
       0.1252791 0.062165543 0.26530147 0.09802243
000230 7d f9 42 3d 41 2d 86 3c 80 a9 34 3e 0e d6 98 3d
       0.04760121 0.016379 0.17642784 0.07462703
000240 67 a5 a4 bd 7c 08 53 3d 0c e9 0a 3e 07 c5 c3 bd
       -0.080393605 0.051521763 0.13565463 -0.09559064
000250 1b 5e 21 be 68 18 fe 3d bf a9 8a bd 65 1c 40 3d
       -0.15758555 0.12406999 -0.06770658 0.04690208
000260 92 08 0d 3d ed a7 13 3b b4 e2 1e bd d0 a9 45 bd
       0.034432 0.0022530511 -0.03879042 -0.04825765
000270 3c 74 0e bc 49 0d 86 3e 38 e4 2a bb 23 10 e9 3d
       -0.008694705 0.2618201 -0.002607597 0.11380031
000280 14 29 1a 3e 8f 1f 0a be 9e 23 9b bc 4f 44 01 3e
       0.15054733 -0.13488601 -0.018937882 0.12623714
000290 0a a6 b3 3c 37 e7 0e 3e 6f 23 be 3d 78 d7 21 bd
       0.02192976 0.13955389 0.09284102 -0.039512128
0002a0 a1 68 72 be 09 f6 75 bd 0e 29 c5 bb d5 76 24 bd
       -0.23672725 -0.06004909 -0.006016857 -0.04015239
0002b0 7f 7a ca 3c 26 89 d3 bd 26 fb 20 be 2d 1a ac bd
       0.024716614 -0.10328893 -0.15720806 -0.0840343
0002c0 27 9c 57 3e c1 fd 2d bd af 4b 01 3e 0f 70 60 3e
       0.21055661 -0.042478327 0.12626527 0.21917747
0002d0 1f 7a e6 3d c9 01 a3 bd 4b c9 67 bd 25 13 6f bc
       0.112537615 -0.07959325 -0.056588452 -0.014591967
0002e0 95 e3 a2 bc a2 86 64 3d 4d 6e fd bc ca 9f 05 be
       -0.01988391 0.05579246 -0.030936385 -0.13049236
0002f0 4d ce 09 be 00 8b d6 3d 5b f8 e0 ba 9b b3 f0 3d
       -0.13457604 0.10475731 -0.001716386 0.11753007
000300 72 99 07 3c 13 3b 90 3d bf 42 6f bd 9f 4e 96 3e
       0.00827633 0.070425175 -0.058413263 0.29356858
000310 9f 47 d8 3d f8 4b 09 3e 0d 87 a7 bd dc 86 94 3d
       0.10560536 0.13407886 -0.08180056 0.07252285
000320 f1 f8 29 be a2 8b c1 bd bf 8a a5 bd 80 ba c4 3d
       -0.1659887 -0.09450461 -0.08083104 0.096058846
000330 85 df 5f be 4f 72 e7 bd 88 10 df bd 01 b8 e1 bd
       -0.2186261 -0.113010995 -0.10891825 -0.11021424
000340 9b 81 a5 bd 28 ee ba bd e0 90 75 be 79 65 c7 be
       -0.08081361 -0.09127456 -0.23981047 -0.38944605
000350 c6 6e a0 bd 12 f4 ed 3d e0 03 77 3d 2d 8f 2b be
       -0.07833628 0.11618818 0.06030643 -0.16753836
000360 e1 bf 89 3d 1f 14 85 bd 6a f0 df 3d 4d 8d 9d 3d
       0.06726051 -0.064979784 0.10934527 0.076929666
000370 07 c6 80 3c 31 57 55 be 81 58 67 be e1 91 16 3e
       0.015719427 -0.20834042 -0.22592355 0.14704086
000380 83 99 1b 3e 11 ca 0e 3e 09 32 f3 bd bf 77 04 3e
       0.15195279 0.1394427 -0.11874778 0.12936305
000390 4d 0d 20 3d fb ab cb bc 45 66 5d 3e ed 33 9f 3e
       0.039075185 -0.02486228 0.21621044 0.31094304
0003a0 9c 3b 0d 3e 7e 2e 45 3e a3 7a 94 3d 60 a2 12 be
       0.1379227 0.19256017 0.072499536 -0.14319754
0003b0 fb 40 e0 bc ea a6 82 3e 71 18 c9 bd 17 f8 21 bd
       -0.027374735 0.2551797 -0.09819115 -0.039543238
0003c0 78 86 13 3e ff b0 80 3d 42 47 88 be 58 cd 94 3d
       0.14406765 0.06283759 -0.26616865 0.07265729
0003d0 35 87 d2 bd 3d 60 f8 bb f3 5b f2 3d 44 a1 0b be
       -0.10279695 -0.007579832 0.11833944 -0.13635737
0003e0 61 01 14 3c 6f ea 90 3d cc 16 3c 3d f3 17 07 bd
       0.009033532 0.07075965 0.04592018 -0.032981824
0003f0 5d af 55 3d 2f fe 17 3e 64 c6 26 3e 75 07 e7 3d
       0.052169193 0.14843057 0.16286618 0.11280719

body.layers.1.bias f4 [64]
000000 08 3a c9 3c 04 0e 6c 3e 52 82 ba bd cc 14 5b 3d
       0.024563804 0.23052222 -0.09106888 0.05348663
000010 dd 13 07 bd f7 7c 2b 3e 71 91 86 3d e9 9a fc 3c
       -0.032977927 0.16746889 0.065707095 0.030835586
000020 e3 f1 0e be b1 8b 19 3b 27 18 49 bd 83 20 f0 bd
       -0.1395946 0.002342921 -0.0490953 -0.11724951
000030 c0 d5 10 be 69 c2 70 bd 0f 99 2f 3e 85 73 ae be
       -0.14144039 -0.058779154 0.17148231 -0.3407251
000040 39 15 ff 3c 6a c3 15 bd da 08 50 3e c6 a8 98 bd
       0.03113805 -0.036563314 0.20315877 -0.07454066
000050 4d 5f c5 bd 67 11 70 3e 79 6b d9 3d d9 1e ca 3e
       -0.09637318 0.23444138 0.10616202 0.3947666
000060 8e e2 f8 bc de fd 22 bd 7e 6b 9c 3d e7 9f d0 bc
       -0.030381467 -0.039792888 0.0763769 -0.025466872
000070 01 b1 ed bd 55 ab 09 3e 0c 94 54 be c6 05 3f bd
       -0.116060264 0.13444264 -0.207596 -0.046636365
000080 c8 28 0d be 6b 1e 17 be 16 e2 3d bd b5 ce de 3d
       -0.13785088 -0.14757697 -0.04635819 0.1087927
000090 c1 e2 5a bd ba b3 16 3f e4 5c ff bd 95 b6 bc bd
       -0.053438906 0.5886799 -0.12468889 -0.09214512
0000a0 89 f8 00 be fb e9 52 3e 3e 1c 92 3e d5 d0 09 3f
       -0.12594809 0.20597069 0.28537172 0.5383428
0000b0 46 99 02 bd 96 c8 e2 3d 10 03 97 bd 94 20 65 bc
       -0.031884454 0.11073415 -0.07373631 -0.013984818
0000c0 32 1d d2 3e d2 d7 20 be 97 72 90 bd ac f0 b7 bd
       0.410379 -0.15707329 -0.07053106 -0.089814514
0000d0 cc e1 0e 3e 2d 42 57 bd ce 7c 2e be 43 97 ad 3e
       0.13953322 -0.052553345 -0.17039797 0.33904466
0000e0 59 78 fe 3d 32 90 14 be e2 15 2c 3c 9c 2f cd bd
       0.12425298 -0.14508131 0.010503264 -0.100188464
0000f0 71 4f 90 bd 79 20 ee bd de 56 2b bd 75 39 bc 3b
       -0.07046402 -0.116272874 -0.04183089 0.005744154

pmu_body.layers.0.weight f4 [64, 7]
000000 fd db 9f 3d c1 c1 b3 3b aa fe be be 69 af ed 3d
       0.07805631 0.0054857437 -0.37303668 0.116057225
000010 34 6d ba 3d 3c c7 05 be 09 4e 4c bb d4 2c c3 3d
       0.0910286 -0.13064283 -0.0031174442 0.09530035
000020 32 56 03 be ae cf 1c be fb 5c f1 3c 14 12 03 3e
       -0.1282585 -0.15313599 0.029463282 0.12799865
000030 49 cb a5 bd c6 9a 53 3d a7 8e ee 3d 7e 74 e1 bc
       -0.08095414 0.051661275 0.116483025 -0.027521368
000040 81 78 23 3e f5 7d 57 be ae ec 7e be bf 3f 06 3e
       0.15963937 -0.21044143 -0.24894974 0.13110255
000050 37 f1 59 3e 71 0b 4b bd d4 60 93 bd 50 47 f0 3e
       0.21283422 -0.04957146 -0.07196203 0.46929407
000060 99 d6 33 bc 90 f8 7d 3d 45 c9 c2 bc fe 9c c1 3d
       -0.010976457 0.062004626 -0.023777613 0.09453772
000070 98 f3 9d 3d 35 74 29 bd cd 5b 05 3f be d1 c7 bd
       0.077124774 -0.04137059 0.520932 -0.09756802
000080 47 c7 9f 3c a2 00 6f 3e 0b be d6 3d 5c 24 61 bd
       0.019504203 0.23340085 0.104854666 -0.054966316
000090 77 f4 5f 3c 08 22 23 3d 20 73 0c be a5 e8 2f be
       0.013669125 0.039827377 -0.13715792 -0.1717859
0000a0 98 06 47 be 56 ca 46 3d 72 c8 b6 bd 75 e8 09 bc
       -0.19436109 0.048532806 -0.08924951 -0.0084172385
0000b0 de 58 99 3e d6 db 7d 3e 6f 35 f2 3d 88 bb 85 be
       0.29950613 0.24790892 0.11826598 -0.26119637
0000c0 73 b9 69 3d b2 0e da 3c b4 cd c6 bb 8b d4 2a 3f
       0.057061624 0.026618335 -0.006067002 0.66730565
0000d0 89 ca 0a 3e 87 d3 b6 ba 12 3c 24 3d a4 1e f9 3d
       0.13553824 -0.0013948538 0.04009635 0.12164047
0000e0 ca 4c fe 3d 0c 67 2d 3c 4c cc df be 9e 46 a0 be
       0.1241699 0.01058365 -0.43710554 -0.31303877
0000f0 31 d3 0f be 52 ad 23 3e ca f5 2d bc 08 c9 2b 3d
       -0.14045407 0.15984085 -0.010617683 0.041939765
000100 c9 a8 7e 3d a2 76 84 3d 12 0c 47 3d 85 bc 89 be
       0.062172685 0.0646794 0.048595496 -0.2690164
000110 33 82 17 be 05 37 86 3d e5 15 34 3c b6 97 b9 3b
       -0.14795761 0.06553463 0.010991548 0.0056638373
000120 71 b6 f8 bc 80 15 0d 3e 67 ba ea 3d f9 7b c5 be
       -0.030360432 0.13777733 0.11461335 -0.38571146
000130 2a 9e e7 bc 62 06 c5 be 81 9f b3 3d 14 33 19 be
       -0.02827366 -0.38481432 0.08770657 -0.14960891
000140 80 e3 3c 3d 52 32 d0 bd 19 96 fe bd 64 a9 78 bd
       0.0461154 -0.10165848 -0.124309726 -0.06070842
000150 3e 89 7a be 57 fb 0e 3d 14 41 78 3e 98 f7 78 3d
       -0.24466416 0.034907665 0.24243575 0.060783
000160 16 09 00 3d 68 c3 44 3e aa 68 a9 3d 59 95 35 3e
       0.031258665 0.19215167 0.08271916 0.17732753
000170 62 90 14 3c d4 a6 0a bf 6e 57 93 be 67 2d ff bd
       0.009067627 -0.5416081 -0.2877764 -0.12459832
000180 07 b4 5f 3e cc 7c 24 3e 33 26 01 bf ed d9 5b 3d
       0.21846019 0.16063231 -0.5044891 0.053674627
000190 fa c7 fe 3b eb a1 fc bd 16 ea f6 3d dc 13 9d 3d
       0.007775304 -0.12335571 0.12056367 0.076698035
0001a0 f5 d6 83 bc 52 fc 6a bd 01 21 2c bc 27 11 1d bf
       -0.01609371 -0.057369538 -0.010505916 -0.613543
0001b0 89 6d 84 3e a9 92 82 3e 75 8f 28 3d 44 52 92 3c
       0.2586482 0.25502518 0.041152436 0.017861493
0001c0 a3 fd 9d 3d 38 ed f8 bd d0 43 c1 3d 12 79 a8 3d
       0.07714393 -0.12154621 0.09436762 0.08226217
0001d0 97 94 38 3d d4 27 3b bd ad c2 df 3d 6a 6e 71 be
       0.04506358 -0.04569228 0.10925803 -0.23577276
0001e0 6e 7c 4a 3e 35 62 d8 3c 5c 8d 88 3e c2 3b 6d bd
       0.19774029 0.026414016 0.2667035 -0.057918318
0001f0 a8 e4 30 3e f4 a3 5c bd ba eb 8b 3d af 60 9d bd
       0.17274725 -0.053867295 0.06832071 -0.076844566
000200 b4 ac 95 be 88 c4 42 bd fe 9c d3 3d d7 32 11 3e
       -0.29233325 -0.047550708 0.10332678 0.1417955
000210 f0 cb 99 be 4a da d2 be d1 5f 3e 3d b1 71 b1 3d
       -0.30038404 -0.41182166 0.046478096 0.08664263
000220 2e 05 0d be 48 49 b1 bd bf 8f cd 3d d6 d2 30 3d
       -0.13771507 -0.086565554 0.10037183 0.04316982
000230 36 fc db 3d ac 5c a3 3c 16 f3 0e bf 4e b8 8a be
       0.10741465 0.01994165 -0.5583967 -0.27093738
000240 a5 fe 29 3d fc b8 6c 3e 41 da 3f 3e 68 3a 18 be
       0.041502614 0.23117441 0.18735601 -0.1486603
000250 41 bd 98 bd 1a 29 38 bc 7f 9d 4c bd 94 32 01 3e
       -0.07457972 -0.011240268 -0.049954887 0.1261695
000260 fc a8 46 bc bd 9f 21 bd a5 5c 95 bd b3 aa ad 3d
       -0.01212525 -0.03945898 -0.07293061 0.08479824
000270 c1 9d dc be c9 ad d4 3d 43 e2 0e be 68 41 73 be
       -0.43089107 0.103847094 -0.139535 -0.23755419
000280 ad ea bc bd 36 25 25 3e 52 40 e3 b9 69 17 b5 be
       -0.09224448 0.16127476 -0.00043344736 -0.35369423
000290 2b 83 6f be 42 57 74 bd 58 fd c2 3d c8 84 1f be
       -0.2338988 -0.059653528 0.09520978 -0.15577996
0002a0 0b f2 fb 3c af c2 28 3d 82 93 a0 bc d6 0d 2a 3d
       0.030755064 0.04120129 -0.019601587 0.0415171
0002b0 35 18 28 3e 56 04 bd 3c 6e 39 65 bd fa ed 51 ba
       0.16415484 0.023073357 -0.055962972 -0.00080081786
0002c0 6e 71 0b bb 40 3c cc 3d 9e 4e 44 3e bf c2 ad bd
       -0.0021277326 0.09972429 0.19170615 -0.084844105
0002d0 70 0f 12 be 0a 7a d0 bd d7 c8 93 3d e9 12 ef 3d
       -0.14263701 -0.10179527 0.072160415 0.11673529
0002e0 5f 9a 38 bd 1f 00 26 3d 5a ec 1e 3e ba 47 2a 3e
       -0.045069095 0.04052746 0.15519848 0.16628924
0002f0 03 2d 61 3e cd 33 05 bf 9c 85 d7 3e 1b 85 e9 bd
       0.21989827 -0.52032167 0.42094123 -0.11402341
000300 42 39 07 3e 97 5d ee bc ec f5 6a 3e 9e b1 59 be
       0.13205436 -0.029097361 0.22945374 -0.21259162
000310 f0 de 12 3e 02 9d 1e 3d 57 f7 a6 3e 52 54 17 bd
       0.14342856 0.038723953 0.3261058 -0.03694565
000320 42 86 cb bc ee dd 9a 3d 3e 0f 2b 3e a1 ae 9c bd
       -0.024844293 0.07561861 0.16705033 -0.07650495
000330 ad d0 aa bd 73 7a bc bd ed 4c b4 be 31 14 80 bb
       -0.08340583 -0.09203043 -0.3521494 -0.003908657
000340 bb 65 9f bd e4 03 b1 bd d6 7e c9 be 69 0e c9 bd
       -0.077830754 -0.0864332 -0.3935458 -0.09817202
000350 99 ac ac 3d b1 ad f9 bd 18 8a c0 bd 17 c3 d5 3d
       0.08431358 -0.12191332 -0.09401339 0.10437601
000360 9b fe e7 3d 8f 52 62 3c dc bb 46 bd 0c 34 3a 3f
       0.11327859 0.013813629 -0.048519 0.7273567
000370 59 8a 51 3d f0 56 3b 3d 3a c7 06 3d 15 4f 02 be
       0.05115733 0.045737207 0.03290484 -0.1272548
000380 a4 5d 16 3d 5d 0f b5 bd a1 ec b3 3c f9 b7 26 3e
       0.036710396 -0.08840821 0.02196342 0.16281117
000390 8f ca ec bd b6 c0 3b be fc ca 31 be 4a 66 91 3d
       -0.115620725 -0.18335232 -0.17362589 0.07099588
0003a0 26 70 0c ba d6 6d b3 be 80 3c 9b bd 5c 77 8c 3d
       -0.00053572876 -0.35044736 -0.07579899 0.068587035
0003b0 09 95 2c 3e 05 50 00 3e 84 cb 2f bb fe 82 dd 3d
       0.16853727 0.12530525 -0.0026824186 0.108160004
0003c0 e4 38 35 bd 21 3e a8 bc e4 91 93 be ef f9 0c 3c
       -0.04424371 -0.020537438 -0.28822243 0.008604511
0003d0 dc 3c 06 3e 0e ee d5 3c db 63 0b 3e 64 6d 21 be
       0.13109154 0.02611449 0.1361231 -0.15764385
0003e0 de bf 1b 3d cb 42 14 be 70 c5 2b be 20 0e 0a 3c
       0.038024776 -0.14478604 -0.16774535 0.008426219
0003f0 75 7f 2c 3d 0c aa 04 3e d8 17 6d be 24 60 d4 3c
       0.04211374 0.12955493 -0.23153627 0.02592475

pmu_body.layers.0.bias f4 [64]
000000 b4 ce eb 3e 2b a4 4c bd b5 13 1e bd 3e 2f bc 3e
       0.4605614 -0.04996125 -0.038593013 0.36754793
000010 3d 7e 3f 3d a6 a2 18 3f 5e 7e 66 3e c9 47 b1 3e
       0.04675125 0.5962318 0.22509143 0.3462508
000020 0a 67 a8 bd 3c f5 a5 3e 13 58 92 bd 61 ff f1 3e
       -0.08222778 0.3241366 -0.07145705 0.4726515
000030 61 69 18 bb 8f 26 16 bd ac de 9b 3e e4 fe c0 3e
       -0.002325617 -0.036657866 0.30443323 0.37694466
000040 3a 0c 5c bc 5f 1e 89 3e 23 96 f9 bc f1 fa ea 3e
       -0.013430649 0.26780984 -0.030467099 0.45894578
000050 ec 2a e5 bd 78 b8 c7 3e 13 b5 0d 3f 7a bf b3 bd
       -0.11189827 0.39007926 0.5535442 -0.08776756
000060 e7 2b 80 3e d8 3f db 3e b9 18 16 3e b8 9c 09 3e
       0.25033495 0.42822146 0.14657868 0.1343869
000070 5e 69 06 3f 26 c5 2c 3e 45 9a d5 3e 4f 74 da 3e
       0.5250453 0.16872081 0.4171926 0.4266686
000080 63 8b 13 be ee f5 9f bd 43 c8 af 3e 99 b1 db 3e
       -0.1440864 -0.07810579 0.34332475 0.42908934
000090 7b e3 c6 bc 17 74 1c bd 55 9f 73 bd 3e cc f3 3e
       -0.024278393 -0.03819665 -0.059478123 0.47616762
0000a0 4c a4 b8 bd c8 1f 20 3d d6 f6 1a 3f 90 8c 86 3c
       -0.09015712 0.03909281 0.6053289 0.016424447
0000b0 50 14 b1 3d ce ca c1 3d 76 a3 fd 3d 14 59 d1 3d
       0.086464524 0.0946251 0.12384693 0.102220684
0000c0 cb 91 ad bd b4 e1 75 3e df a3 52 bd ac 35 e1 3d
       -0.084750734 0.2401188 -0.05142581 0.10996565
0000d0 d3 50 65 bd fc 42 39 be 67 1e d8 3e 4a a7 51 3e
       -0.055985283 -0.18091959 0.42210695 0.20473972
0000e0 e1 8e f6 3e 7f 2a ff 3e 9f 83 03 3f 8e 1d f7 bd
       0.48155883 0.4983711 0.5137271 -0.12066184
0000f0 30 11 c9 3e 12 dd 31 3e ab af 7b 3e ef 58 d6 3e
       0.39270926 0.17369488 0.24578731 0.41864726

pmu_body.layers.1.weight f4 [64, 64]
000000 b1 1e c2 bd 93 e7 33 3d aa 67 2f be 09 fa 10 39
       -0.0947851 0.04392202 -0.17129388 0.00013826056
000010 26 b3 69 3e cc 16 13 bd 46 9b 85 bd aa 76 fd 3d
       0.22822246 -0.035910413 -0.06523757 0.12376149
000020 ca d2 b0 bd 13 17 5b bd 2b 0c 26 3e 72 bd 45 be
       -0.08633955 -0.053488802 0.16215579 -0.19310549
000030 95 50 6a be e5 b7 7b 3d 21 2b 0b 3e 41 7b 56 bd
       -0.22882302 0.061454672 0.13590671 -0.052363638
000040 d8 3c bf bc 84 e6 03 be f7 83 b0 3c d4 4e 57 be
       -0.023344442 -0.12880903 0.0215473 -0.21026164
000050 59 b7 8d bc ae ee f2 bd 90 97 33 bd 61 86 02 3d
       -0.017299341 -0.11861931 -0.043845713 0.031866435
000060 3c 3b 87 bc 67 98 e0 bc ed 5d 8d bd 7a 63 04 bd
       -0.016507737 -0.027416421 -0.069026805 -0.03232143
000070 72 6d 85 3b 05 45 e2 bd 9e 4a 19 3d 80 4b 67 3c
       0.004071885 -0.11048321 0.037424676 0.014117122
000080 22 8e 14 3e fb df 0f bd 92 f8 04 3d 15 4c 40 bd
       0.14507344 -0.035125714 0.032463618 -0.046947557
000090 f7 e9 92 3e 38 7c da bc 8d aa 03 bd 29 d5 a3 bd
       0.28694126 -0.02667056 -0.03214507 -0.079996414
0000a0 d3 af 85 bc 45 2e ff 3d d7 25 89 3e d2 b1 40 be
       -0.016319191 0.12459997 0.26786682 -0.18817833
0000b0 d8 ba e9 bd 90 5c ac 3d 4d d8 83 be 4a b4 8d bc
       -0.11412591 0.084160924 -0.25750962 -0.017297883
0000c0 5f b4 d5 3d 6f a3 00 3e 3b 96 9e be 49 30 52 be
       0.10434794 0.12562345 -0.30973992 -0.20526232
0000d0 cb 91 dd ba 58 44 fd bc 7d 16 93 3d 32 b8 b4 bc
       -0.0016904412 -0.030916378 0.07182024 -0.022060487
0000e0 86 36 79 bd 74 aa f9 bc d8 99 1e 3d e4 af 22 be
       -0.060843013 -0.030476786 0.038720936 -0.1588741
0000f0 d1 64 9c be a8 1b c0 bd 47 4f ed 3c d1 25 59 be
       -0.30545667 -0.09380275 0.028968466 -0.21205832
000100 4b e1 f6 3d ae 03 df 3d c5 c7 40 bd a0 f4 aa bc
       0.1205469 0.10889374 -0.047065515 -0.0208686
000110 e5 86 39 bd e3 92 3b be 91 b1 8d be 25 39 56 be
       -0.04529466 -0.18317752 -0.27674535 -0.20920236
000120 63 96 19 3b 07 b6 18 bd 89 d1 39 bd 1f d7 3e 3e
       0.0023435585 -0.03728297 -0.045365844 0.1863675
000130 e2 43 12 bd b8 c5 8d 3e 1e 32 a7 3c c2 52 94 3e
       -0.03570927 0.2768991 0.02040964 0.2896939
000140 31 93 93 3d bb bc 0a bd 23 89 85 bd 18 c4 0c bc
       0.07205809 -0.033871394 -0.065202974 -0.008591674
000150 db 67 9b 3d 9b 58 36 be 48 ea 4d bd 54 8d fa bb
       0.07588168 -0.17807238 -0.050272256 -0.007646242
000160 b4 85 60 3e 19 91 00 3e 92 92 16 be c2 2c 81 bd
       0.21926004 0.1255535 -0.1470435 -0.06307365
000170 bc 79 2d bd 6e ad e5 3d 15 cb 35 be ef 36 89 be
       -0.042352423 0.1121472 -0.17753251 -0.26799724
000180 a2 47 82 3c df 1e 9b 3e e9 21 22 be ce 41 ac bc
       0.015903298 0.3029699 -0.15833248 -0.021027472
000190 d2 83 f3 3b 72 6e 7c 3e d5 d4 43 be f2 4a 2f bd
       0.0074314857 0.24651507 -0.19124158 -0.042796083
0001a0 27 f2 bc 3d 57 f8 c6 bd ab d3 a8 bd e2 c6 1e 3e
       0.092258744 -0.09715336 -0.082434975 0.15505555
0001b0 c7 b9 01 be 36 b2 26 be 83 44 fd bb e8 57 5f bd
       -0.12668525 -0.1627892 -0.0077291145 -0.054527193
0001c0 cb 68 08 3d 86 7e 1b bd a3 6b 7c be 7c 8b a7 3d
       0.033303063 -0.03796246 -0.24650435 0.081809014
0001d0 8e b1 d5 3d 3c 4f 21 3e 44 04 1d bd dd ee f7 bd
       0.104342565 0.15752882 -0.038334146 -0.121061064
0001e0 8e 46 22 be 35 65 89 be 3d 77 60 3e 73 84 43 3e
       -0.15847227 -0.26835027 0.21920486 0.19093494
0001f0 08 df 91 bd 97 71 11 be f6 45 69 be 65 a4 7a be
       -0.07122618 -0.14203487 -0.22780594 -0.24476774
000200 bb 50 06 3e be f0 ba 3b 56 5d 4b be 29 fc 17 3e
       0.13116734 0.0057049682 -0.19859824 0.14842285
000210 60 5f c6 bd 71 f8 cf 3d 9a d9 d6 bb 83 e2 3c be
       -0.0968616 0.10154808 -0.006556702 -0.18445782
000220 ff cb 92 3e 47 2b 60 be ec 2c a5 bd 81 bc 88 bd
       0.28671262 -0.21891509 -0.08065209 -0.06676579
000230 f0 26 54 3e 73 55 0a be 71 9f 66 bd cf 90 77 3e
       0.20717978 -0.13509159 -0.0563044 0.24176334
000240 3e ca 38 3c 48 de f7 3c 12 0c ef bd c1 d2 d7 bd
       0.011278687 0.03025736 -0.11672224 -0.10538245
000250 6d 24 06 3e fa f7 38 be ad 0f e3 3d 6e 40 a7 3b
       0.13099833 -0.18063346 0.11086974 0.005104116
000260 89 a7 90 3e 19 fb e2 39 71 81 a4 bd e9 0f f7 bc
       0.2825282 0.0004329316 -0.080325015 -0.030158954
000270 3f c2 fd bd 26 6b b8 bd 97 33 33 be d3 3e 5f bb
       -0.12390565 -0.09004812 -0.17500149 -0.0034064546
000280 24 c7 c6 3d 67 04 93 bd f7 33 7c 3e ed 7a 1c 3e
       0.09705952 -0.07178574 0.24629198 0.15281267
000290 a1 99 0a be ac c9 96 bd 0a 7a e3 3c 65 8a bc bd
       -0.13535167 -0.073626846 0.027768154 -0.09206084
0002a0 c1 19 7d 3d 72 3a 76 3d ca cc 89 3d 40 02 2a 3e
       0.06179214 0.06011433 0.067285135 0.16602421
0002b0 b9 12 eb bc 97 51 0e 3d ed 37 e2 bd 37 d9 58 3e
       -0.028695451 0.03474578 -0.11045823 0.21176611
0002c0 d4 83 8f 3d 5d 21 10 be 4d bf 04 be d6 bb 0f be
       0.07007566 -0.14075227 -0.129636 -0.14036497
0002d0 5b 6d 41 bc d2 7e 71 bd 3d 76 6d be 71 4d 8f 3c
       -0.0118058575 -0.058958836 -0.23189636 0.017492982
0002e0 4d c4 35 bd c3 12 23 3e 1f 0a cf bd 9c 7f a9 bd
       -0.04437666 0.15925126 -0.10109352 -0.08276293
0002f0 b8 99 bf bc 24 ce 50 bd a4 72 fe bc b1 a6 95 be
       -0.023388728 -0.05097784 -0.031060524 -0.29228738
000300 fc 7d 40 3e 59 fb 10 3e d0 b4 a0 be 19 fc 06 bd
       0.18798059 0.14158382 -0.3138795 -0.032955263
000310 80 65 11 bd e8 56 91 3e 3f 87 01 be 84 c6 90 3d
       -0.03549719 0.28386617 -0.12649249 0.07069114
000320 9d 94 61 3c 5a 7a 7b 3d 8a ac 4c bd 25 f4 11 3d
       0.013768342 0.06139598 -0.049969234 0.035633225
000330 4e fe 62 be c7 1a b7 bd e9 0c 45 3e 49 a7 85 3e
       -0.22167322 -0.08940654 0.19243206 0.2610419
000340 b6 aa bb 3d 47 74 cc bd 9a 50 7c 3d bf c0 8c 3b
       0.0916342 -0.09983116 0.061600305 0.004295438
000350 c6 ac 34 3d 38 43 00 3e bc 8d 05 be dc 13 cc bd
       0.044110082 0.12525642 -0.13042349 -0.099647254
000360 b7 0f 7c 3e 41 f4 85 be fc 10 71 bd 06 fc a2 3c
       0.2461537 -0.26162913 -0.05885409 0.019895565
000370 e4 52 ee 3d e0 bd 0f be af d8 17 3d 8c ab e1 bd
       0.11636904 -0.14037275 0.03707188 -0.11019048
000380 d9 5c 2d bd 36 0a 04 3e 2f 9c 40 bd cf 7b ec 3d
       -0.042324875 0.1289452 -0.04702395 0.11547052
000390 4c 70 ce bd d2 f6 a7 3d 6d 20 12 be bf 62 f4 bc
       -0.10080013 0.08201374 -0.14270182 -0.029832242
0003a0 9c 84 e3 3c e1 aa e3 3d 62 3d 07 be fb 88 56 3e
       0.027773194 0.11116577 -0.1320701 0.20950691
0003b0 36 c4 e2 bc fc a9 a3 3c 53 74 0e be 20 e1 8c bd
       -0.027681451 0.019978516 -0.13911562 -0.06878877
0003c0 56 7a cb be a3 9a c5 3d d7 3f 48 3d 86 a0 7d 3a
       -0.39741772 0.09648635 0.048889007 0.0009675104
0003d0 b5 f5 ed 3d ba 59 a2 bb 55 f0 9e 3d 9c f0 bd 3d
       0.116191305 -0.004954544 0.077606834 0.09274408
0003e0 cc 1d a1 3d 7e 6a 9c 3d b4 78 6c 3e 5f 55 25 3e
       0.078670114 0.07637499 0.2309292 0.16145848
0003f0 f1 0d 86 3e 87 b0 9d be e7 8f 43 bd 5c 94 35 be
       0.2618251 -0.30798742 -0.047744658 -0.17732376

pmu_body.layers.1.bias f4 [64]
000000 e2 66 a9 bc d3 a3 b8 3c 2d e4 a4 3d a7 89 6e 3e
       -0.020678941 0.022539055 0.080513336 0.23294698
000010 53 db bf 3e d3 45 a4 3c a4 32 d4 3b 53 8e d3 3e
       0.3747202 0.020052826 0.0064757634 0.41319522
000020 89 6b b8 3d 04 8f 8b 3e d9 92 c8 bd c6 cc f1 bc
       0.09004886 0.2725755 -0.09793634 -0.029516589
000030 52 f6 a2 3e bd a1 48 bd 8c fc 1f 3e ea 42 89 3e
       0.31828552 -0.04898237 0.15623683 0.26808864
000040 a1 c9 d4 3e af a7 06 3e b5 60 20 3d 7f 18 e8 bc
       0.4156008 0.13149904 0.039154727 -0.028331993
000050 ed f3 91 3d b6 48 81 bd 1c 2d c9 bc b8 d6 13 3e
       0.07126603 -0.06312697 -0.024557643 0.14437377
000060 cd e5 24 3d a5 3b 32 3e e5 73 e2 3d f9 99 34 bd
       0.040258218 0.17405565 0.110572614 -0.044092152
000070 1b 3d f1 3e e8 6a 97 3c c2 33 90 bd a5 ba f5 3c
       0.47116932 0.018483594 -0.07041122 0.029996226
000080 c3 13 92 bc 66 7f 3d 3e 39 50 04 be b8 fd 16 bd
       -0.017831689 0.1850563 -0.12921228 -0.03686306
000090 7c 30 cb 3d ef ab 93 3c 7e ea 05 bd cf 72 5d 3c
       0.09921357 0.01802632 -0.032694332 0.013516142
0000a0 7c 00 67 3d 56 06 8c bd 72 c0 f7 bc ae c7 aa 3c
       0.056396946 -0.06837146 -0.030243132 0.020847168
0000b0 9c fd f2 bc d2 4f 13 3e 05 d2 6a 3e bb e9 98 bd
       -0.029661946 0.14385918 0.22931679 -0.074664555
0000c0 53 5a dc 3e 26 30 1b 3d 60 77 5d bd 76 22 36 bd
       0.43037662 0.037887715 -0.054068923 -0.04446646
0000d0 0d c7 23 bc 1c c2 75 3e ea c1 de 3d 3c 9a 08 bd
       -0.009996188 0.23999828 0.1087683 -0.033350214
0000e0 87 41 76 3e 65 25 25 3e 98 e4 08 bd fd 4d a1 3e
       0.24048434 0.16127546 -0.03342113 0.31504813
0000f0 6b 28 e0 bc 41 83 df bc 58 f0 83 3c e8 bf cc 3e
       -0.027363023 -0.027284266 0.016105816 0.39990163

actor_head.fc.weight f4 [8, 64]
000000 8d ff 0e be 64 2c 23 be d9 2f 02 3d d0 15 b8 bd
       -0.13964672 -0.15934902 0.031783912 -0.089885354
000010 ec cb ff ba ac 72 29 be f6 b9 74 be 34 a3 f2 ba
       -0.001951573 -0.1654765 -0.23899063 -0.0018511773
000020 67 e4 eb 3b 40 cc 9f be 9a c6 4f bd 4b bb c3 3e
       0.0071988585 -0.31210518 -0.05072651 0.3822883
000030 48 3e 25 3c 68 ed 00 bd 31 d5 45 bd 3c 6e 9a 3e
       0.01008565 -0.03147641 -0.04829902 0.30162227
000040 57 dc d3 bd ab 53 c2 bd db 4d 82 bd 8c 0a ed bd
       -0.10344761 -0.09488615 -0.06362506 -0.11574277
000050 71 ae 2e be 8e 9e 0b be da 32 32 3d f7 15 da bb
       -0.17058732 -0.13634703 0.043505527 -0.0066554504
000060 9f 39 19 3d 69 2a 49 3c fe 55 cb bd 75 ae 9f 3d
       0.037408467 0.012278178 -0.09928511 0.07796947
000070 cc 8f b8 bd 47 17 be bd 92 8e b0 3b 5d 86 04 3d
       -0.09011802 -0.092817836 0.0053880895 0.0323547
000080 9a 96 80 3b 59 9a 42 be 10 ee 07 be 9b b9 37 be
       0.003924203 -0.19004191 -0.13274407 -0.17941897
000090 f9 16 96 bc 78 22 5c be fe ae ce 3c 1f b2 f7 3c
       -0.018321501 -0.21497524 0.025229927 0.030236302
0000a0 3c bd 13 3c d3 1b 7a be 67 4f e5 bd 9d 72 85 3a
       0.009017285 -0.24424677 -0.111967854 0.0010181252
0000b0 df 50 23 bd 2e f2 46 be 80 f6 68 bd 7e f0 9d 3c
       -0.039872047 -0.19428322 -0.056875706 0.019279715
0000c0 76 31 f7 bc 85 4b 41 3c 33 f3 bc bd 20 fb ae bc
       -0.030174952 0.01179779 -0.09226074 -0.02135998
0000d0 cc b3 1d be e5 d4 6d 3d 90 44 28 bc 93 5a 58 be
       -0.15400618 0.05806436 -0.010270253 -0.21128301
0000e0 8a da b7 3c c4 82 e3 bd d5 07 54 be 0e fb da 3c
       0.022443075 -0.11108926 -0.20706113 0.02673104
0000f0 18 eb 92 bd 7c c0 14 3c a7 85 9b bd 1a bd a1 bd
       -0.07173747 0.009079095 -0.075938515 -0.078973964
000100 34 32 2c 3d 4d d1 c0 3c 37 8d 2d 3d d8 7d 56 3d
       0.042040065 0.023537302 0.042371 0.052366108
000110 71 ab d0 3c f7 af 80 be cd 80 f7 3d d7 62 8d be
       0.025472375 -0.2513425 0.12085114 -0.2761447
000120 b8 3c 9e bc 76 ea bc 3e 84 5d 3d be 60 76 3d 3e
       -0.019316062 0.3689763 -0.18492705 0.18502188
000130 0b 83 8c 3c 04 fa 83 bc 9a 7d db 3d 46 0f c6 bd
       0.01715233 -0.016110428 0.10717316 -0.09670882
000140 a2 61 25 be ec f4 5c be 07 8f fd 3c af a7 0b be
       -0.16150525 -0.21577805 0.03095199 -0.13638185
000150 2c ce 7c bd 14 3b 7d bd 56 92 9e 3e 8d 95 33 3c
       -0.06172006 -0.06182392 0.3097102 0.010960949
000160 5b 08 0b 3d f0 a5 d2 bc 94 f9 27 be 5f 19 0b bd
       0.033943515 -0.02571389 -0.164038 -0.033959743
000170 f2 7c df be a2 4a 23 be d6 96 d2 3b e6 66 1e bc
       -0.43650013 -0.15946439 0.0064266725 -0.009668088
000180 a3 6d 2e 3d a1 27 d1 3d a4 62 3e bd f7 c3 05 be
       0.042585026 0.10212637 -0.04648079 -0.13063036
000190 cf 4c a2 bc c6 8c 86 3d 38 9e 29 3d 39 19 8d 3d
       -0.019812016 0.06569819 0.041410655 0.068895765
0001a0 39 17 84 be 74 7e e7 3d 38 a8 18 3d ad 9d 99 3c
       -0.25798967 0.11303416 0.0372698 0.018751943
0001b0 8c 20 5e ba 6c a9 59 be a7 dc 18 3e ce 9e f7 3c
       -0.0008473478 -0.21256036 0.14927922 0.030227091
0001c0 03 99 26 bd 2d 70 98 3c 2e 1a 35 be 2c f0 06 3b
       -0.040673267 0.018608177 -0.17685768 0.002058993
0001d0 f2 70 24 be 66 65 08 bd b5 a9 01 be 0e 89 05 3d
       -0.1605871 -0.033299826 -0.12662394 0.03260141
0001e0 47 19 50 3e 83 19 ad 3b 8e c5 80 be a8 ec 5f 3c
       0.20322143 0.0052825822 -0.25150722 0.013667263
0001f0 e9 36 1b bd 4e 8a e6 3a 57 58 9a 3e e9 1c f0 bd
       -0.037894163 0.0017588825 0.30145523 -0.11724264
000200 f5 93 1d 3e 70 04 e2 bd 05 da ce 3c 5f e2 84 be
       0.15388472 -0.11036003 0.025250444 -0.25953957
000210 8e b6 2b 3d 50 0d b6 3d b1 0e 39 bd 52 02 92 be
       0.041922145 0.08889258 -0.045180026 -0.28517395
000220 b2 ea b1 3c f2 c5 04 be 95 d2 ac bd 51 00 09 3e
       0.021718357 -0.12966135 -0.08438603 0.13379027
000230 00 d0 ef bc a3 f1 a0 3b b4 b8 c3 bc 2d 80 96 3d
       -0.029273987 0.004911618 -0.023891784 0.07348666
000240 70 68 83 be 91 3f d5 bd 54 42 04 be c5 bc 9c 3c
       -0.25665617 -0.10412515 -0.12915927 0.019132981
000250 a9 8d 8f 3e 95 c8 9a bc 7c 13 9a be 65 37 a3 bd
       0.28037766 -0.018894473 -0.3009299 -0.0796955
000260 17 6b 29 3c 33 bf 2b be de 93 d8 bd 85 f5 2a bd
       0.010340474 -0.16772155 -0.105750784 -0.041738052
000270 0e 31 3c 3d 05 f0 2d be a8 98 13 bd 8d 08 3e 3d
       0.04594522 -0.16986091 -0.036034256 0.046394873
000280 6b de f4 bc e7 bd 38 3e cb 5f 8a bd 84 83 0c 3e
       -0.029891213 0.18041192 -0.06756552 0.13722044
000290 46 57 28 be c8 2d 8b be 12 7b ba bc 07 b5 bf 3a
       -0.16439542 -0.27183366 -0.022763763 0.0014626094
0002a0 60 b8 5a be c6 c0 a1 be 76 95 98 3c fe 11 3d be
       -0.21359396 -0.31592387 0.018625956 -0.18463895
0002b0 eb c6 d7 ba 47 f3 8f 3d 61 cc b2 bd ba b8 d8 3c
       -0.001646248 0.07028823 -0.087303884 0.026455272
0002c0 c0 8e 03 be 8c 45 11 bd 28 ca 04 be b6 8d d7 bd
       -0.12847424 -0.035466716 -0.12967741 -0.10525076
0002d0 a4 5c 18 be 90 b1 fa bc 35 64 8c 3d e1 1b fa bc
       -0.1487909 -0.030602247 0.068550505 -0.030530872
0002e0 33 59 30 be 82 68 05 be 83 a2 ca bd 4a d9 bf 3c
       -0.17221527 -0.13028148 -0.09894278 0.023419041
0002f0 c0 2a 0d 3b 58 06 e6 ba a7 c7 82 bd 58 b9 44 bd
       0.0021540374 -0.0017549498 -0.06385737 -0.04802832
000300 7b fb 56 be 32 c3 9c 3d 07 90 54 3e 54 d2 50 be
       -0.2099437 0.07654418 0.20758067 -0.20392734
000310 27 61 fd 3c 5f 98 ce be 07 07 83 be 87 bd 89 bd
       0.030930115 -0.40350625 -0.255913 -0.067256026
000320 6b 94 d6 bd 7b af 29 bd 9b 25 4e 3d 64 48 28 3e
       -0.10477527 -0.041427117 0.050328832 0.16433865
000330 53 c1 32 bd f9 ed e8 bd 89 f5 7b 3e aa 78 66 3e
       -0.0436414 -0.11373515 0.24605383 0.22506967
000340 c0 d2 9b be 00 c0 ad 3c 7d 33 12 3e 6f da f6 bd
       -0.30434227 0.021209717 0.14277454 -0.12053382
000350 bc 2f 4b 3e 50 d5 0c 3e 92 f3 40 3e 12 3c 93 3d
       0.19842428 0.13753247 0.18842915 0.07189192
000360 b0 1a 1a bd 80 d6 20 be 2c 31 ac 3d bd 31 d9 bd
       -0.037623107 -0.15706825 0.08407816 -0.1060519
000370 cb 3f 3b be 9f df 0c be a2 4f 33 ba e3 f3 e0 3c
       -0.18286054 -0.1375718 -0.00068401743 0.027460044
000380 c8 0c 15 bd e4 13 84 3d e8 bf 05 be c6 8c 00 3e
       -0.036389142 0.06449106 -0.13061488 0.12553701
000390 15 c5 2a 3e 8b 97 b0 3e 08 ec 8e bd c3 fc 0c be
       0.16676743 0.34490618 -0.06978613 -0.13768296
0003a0 ad 94 b2 bd bd 3e 96 bd ab 41 57 3e 9f 67 bf 3e
       -0.08719764 -0.07336185 0.21021144 0.37383744
0003b0 64 6d d0 bb 4f 19 b3 3c fc c2 7a be 21 1a c9 3d
       -0.0063606966 0.021862654 -0.24488443 0.09819437
0003c0 74 64 43 3c d7 27 57 bc cb c6 3e bd cd 2f 9d 3d
       0.011925805 -0.013132057 -0.046576302 0.07675133
0003d0 a9 59 e9 bd 67 3d bf bc 5f 5e d6 3d c5 80 86 3e
       -0.113940544 -0.023344709 0.104672186 0.26270118
0003e0 b9 7e 54 3e 17 da d7 3b 08 03 29 be b2 7b 24 3d
       0.20751466 0.0065872776 -0.16505063 0.040157028
0003f0 a1 d6 8f bc 4c 81 ab 3c 54 67 81 3d 42 46 eb 3d
       -0.017558398 0.020935677 0.063185364 0.1148801

actor_head.fc.bias f4 [8]
000000 ac a7 9b be 12 75 7e bd 8c 9e c2 be f1 f6 66 3e
       -0.3040136 -0.062123366 -0.38011587 0.22555138
000010 66 91 cd be 21 11 6a bd 40 05 9d be 90 6c b5 ba
       -0.40149993 -0.05714524 -0.30668068 -0.0013841558

qo_head.fc.weight f4 [4, 64]
000000 8d b0 5c bc f8 47 18 bc b9 f8 aa bb 33 27 dc bc
       -0.013469827 -0.009294502 -0.0052176383 -0.02687416
000010 d7 92 dc bc 26 63 8d 3b 07 c5 88 3c 8d 6e 8c 3c
       -0.026925487 0.004314798 0.016695512 0.017142558
000020 a5 39 79 3c 8d f8 6e bc e3 8f 35 3c 79 b0 87 3c
       0.015211497 -0.014585626 0.011081669 0.01656364
000030 df 97 32 3e a3 0f 9c 3d 58 44 42 bd 46 46 bd bb
       0.17440747 0.0762017 -0.04742846 -0.0057761995
000040 f4 df 7b bc ab 86 cb 3b 87 e1 45 3d e5 19 0c 3d
       -0.015373219 0.006211122 0.048310783 0.034204382
000050 2c e1 96 bd ce d4 05 3d d9 bb 14 bc fc ad ea ba
       -0.07367167 0.03267365 -0.0090779895 -0.0017904635
000060 78 fd e0 bd f7 18 c2 3d a2 05 cf bc 4d 0e cd bc
       -0.10985845 0.09477418 -0.02527124 -0.025031233
000070 e9 22 9c 3b 1d 38 09 3c de 42 c2 bc a8 d2 f7 3d
       0.004764904 0.008375195 -0.023713525 0.12100726
000080 d2 e0 3f 3d 3f 7b 33 3d cd 54 6f bd 00 b1 11 bd
       0.046845265 0.04381871 -0.05843048 -0.03556919
000090 6d 4d 4e bd d9 ff 04 3d ca f5 df bd cb ab b8 3d
       -0.050366808 0.032470558 -0.109355524 0.09017142
0000a0 7d b9 f4 3b eb 44 e5 3b 54 64 99 ba 7c b9 a3 3c
       0.007468401 0.006996741 -0.0011702874 0.019985907
0000b0 6b 00 3e 3d ea 0b 26 3c ef 93 11 bd 1b 44 95 3d
       0.046387117 0.0101346765 -0.03554147 0.07288381
0000c0 8b 58 91 3d 07 46 86 3d fb 4f 63 bd 0a 69 01 bc
       0.07096966 0.065563254 -0.055496197 -0.007898578
0000d0 4f 81 58 bc 69 44 6e 3d 5b 0b 3b 3d 6f f7 bf ba
       -0.013214423 0.05817071 0.045665126 -0.0014645885
0000e0 b4 8b b9 bc 6d fc 0d bd 97 e8 97 3c 55 46 dd 3d
       -0.022649623 -0.03466456 0.018543525 0.108044304
0000f0 e9 70 31 3c 1c 54 15 be 8d 78 c2 3c fe 58 4b 3c
       0.010830143 -0.14582866 0.023739124 0.012411354
000100 03 57 36 3d 87 ef 0d 3c 99 81 27 bb 40 b1 87 3c
       0.044516575 0.008663065 -0.0025559424 0.016564012
000110 71 d7 6c 3d 86 41 a5 3a b4 b9 16 3b 11 25 b6 3c
       0.05782265 0.0012608028 0.0022998871 0.022234472
000120 a7 a3 a5 3d 9e 64 aa bd a8 a1 a0 bc 04 e0 c0 3b
       0.08087855 -0.083199725 -0.019608334 0.0058860797
000130 62 72 9b 3c 4b 12 c0 3d 4a b6 d4 3c 65 8f 25 bd
       0.01897544 0.09378489 0.025965828 -0.040419955
000140 94 28 8e bc 79 cd 48 bd a9 16 08 3d 71 dd 24 3d
       -0.017353334 -0.04902408 0.033224735 0.040250245
000150 41 06 95 bd 54 5f d4 3c 40 17 0c 3b a2 2f 74 3e
       -0.072765835 0.025924362 0.0021376163 0.23846295
000160 70 0c 32 3d d8 a8 bc 3b 07 5e 8d bc 93 d0 ea 3b
       0.043468893 0.0057574324 -0.01725675 0.0071659773
000170 60 64 2d 3c 05 58 c8 3c 37 66 af 3d 81 a7 d6 bd
       0.010583013 0.024456033 0.08564418 -0.104811676
000180 ea 35 9c bd 5d b2 d2 3d a0 da 6b bd bb f5 ac 3b
       -0.07627471 0.10287926 -0.057581544 0.005278317
000190 56 be d5 bc 8b 39 06 3c 37 7a fc bd ae 9f f2 3d
       -0.026091736 0.00819243 -0.12327998 0.11846863
0001a0 6e f3 cb 3c ee 6d 3c 3c b5 e2 c7 bc 14 4e 8c 3c
       0.02489635 0.011500819 -0.024400095 0.017127074
0001b0 27 d7 36 3c 68 3f e2 3c af d9 23 bd d6 85 9c bd
       0.011159695 0.027618125 -0.04000252 -0.07642715
0001c0 f0 cd 20 3e d8 df b4 3d 30 42 90 bd 07 6f 7d 3b
       0.15703559 0.08831757 -0.07043874 0.0038670914
0001d0 50 65 cb 3c 3b 6c 24 bc c5 0d 8d 3d 82 25 0b 3d
       0.024828583 -0.01003557 0.06887392 0.033971317
0001e0 96 fd 3a bd aa be 14 3d 4c ba 21 3c 5e 2a 58 3d
       -0.045651995 0.036314644 0.009871077 0.05277478
0001f0 5d 74 41 bc 31 27 72 bd a3 c1 e1 bc b0 cf 4e 3d
       -0.011807528 -0.059119407 -0.027558153 0.050491035
000200 7d 6a ba 3b eb 97 48 3b 5d f8 6f bb 24 2d f8 bc
       0.005688964 0.0030608128 -0.0036616542 -0.030294962
000210 8f 07 ef 3c 11 b2 21 3c 91 5c a3 3c 15 42 89 3b
       0.029178409 0.0098691145 0.0199416 0.004188786
000220 ea b7 ee 3d 0b 9e 33 bd d3 80 c8 bc 11 8d 4d 3c
       0.116561726 -0.043851893 -0.02447549 0.01254584
000230 d9 f4 1f 3a f0 b7 34 3d a9 cf 27 bd fc 65 5e 3c
       0.0006101854 0.04412073 -0.040969525 0.01357412
000240 67 be d8 bb 71 ea b3 bc ab 2b 79 3d 48 74 ca 3c
       -0.0066144946 -0.021962376 0.06083266 0.02471365
000250 60 49 8e bd 2f fb 31 3d 4a ee 9e bb 11 be be 3c
       -0.06947589 0.043452438 -0.0048501836 0.02328399
000260 5d 6d aa bd e5 ae 2b 3d 8a 91 ce bc 43 a6 83 3c
       -0.08321641 0.04191484 -0.025215883 0.01607049
000270 71 08 d1 bc 48 53 ae bc 1a 44 e3 3d 90 7b 03 3e
       -0.02551672 -0.021279946 0.11096974 0.12840104
000280 c7 66 74 bc 06 a7 48 3d 21 d3 59 bd 7f 6b 72 3c
       -0.014917082 0.04898741 -0.053179864 0.014796137
000290 e6 9d 21 bd 28 1d e8 3c 3c 1a 05 be 3f 65 25 3d
       -0.039457224 0.028334215 -0.12998289 0.04037976
0002a0 85 e9 6a 3c 89 ec cf 3b ef 77 33 3b 4d ba 1e 3d
       0.014337902 0.006345336 0.0027384718 0.03875189
0002b0 74 08 f4 bd 4e 8b fc bc 86 c9 98 bc 9b d4 71 3d
       -0.11915675 -0.030828144 -0.018650781 0.059040647
0002c0 4c d9 d5 3d 4a 49 ce b9 ca d1 65 bd 14 52 73 bd
       0.10441837 -0.00039345986 -0.056108274 -0.059404448
0002d0 d3 3a b9 3b da 03 f4 bd ac 80 81 3d aa 1e 81 3c
       0.0056527643 -0.11914797 0.0632337 0.015761692
0002e0 d9 8e 0f bd 71 c8 a1 3d d4 7d 08 3d ae a5 85 bd
       -0.03504834 0.07899559 0.033323124 -0.065257415
0002f0 30 8a 85 3b 9b 1d 89 be 2b 61 8f 3c e4 89 63 3d
       0.004075311 -0.267804 0.017502388 0.055551425
000300 ba d5 02 3d ba d9 9b bc ff bb f8 3c 65 c0 ea 39
       0.031942107 -0.019024719 0.030363081 0.00044775303
000310 41 d1 2e 3b 81 47 bb 3b 6a 9a f1 3c 60 cb ad 3c
       0.0026675018 0.005715311 0.029492576 0.02121514
000320 2f 56 d5 3d 4c 03 96 bd a6 49 c3 bb a1 51 67 3b
       0.10416829 -0.073248476 -0.0059597073 0.0035296457
000330 b2 c7 93 3e b4 6d 04 3c 9b f3 91 bc b6 06 88 bc
       0.28863293 0.008082796 -0.017816355 -0.016604763
000340 8c 21 a9 bc cd a9 8b bc 36 dc 7c 3d d2 86 e7 bb
       -0.02064588 -0.01704874 0.061733447 -0.0070656324
000350 33 ac 83 bd 79 f6 1b 3d 58 19 84 bc af 51 ac 3b
       -0.06429329 0.03807685 -0.016125366 0.005258761
000360 69 dc bd 3d 1c bc d7 bb 74 e3 f4 39 07 85 4e 3d
       0.092705555 -0.0065837037 0.00046708772 0.050419834
000370 e4 08 ec bc 1f 00 e7 3b 2d 53 dc 3d fa 90 c5 3d
       -0.028812833 0.007049575 0.10758052 0.09646793
000380 8c a0 73 bc 90 24 bd 3d 43 00 ba bd 58 ca 09 bd
       -0.01486982 0.09235489 -0.09082081 -0.033640236
000390 1b df 2a bd 35 97 08 3d ad c9 0c be bc 55 4f 3d
       -0.041716676 0.033347327 -0.13748808 0.050618872
0003a0 ad c0 ad 3b a5 d3 96 3c 66 67 a8 bc ba d6 a1 ba
       0.0053025098 0.018411467 -0.020557117 -0.0012347319
0003b0 24 e0 c6 3d 6f 2a b7 3c 41 bf 10 bd a2 ab 56 3d
       0.0971072 0.022359101 -0.035338644 0.052409776
0003c0 2a ef 9c bc 14 d3 cd bd dc c9 87 3b 56 f0 1e bd
       -0.019157011 -0.100500256 0.0041439366 -0.03880342
0003d0 2b 63 0b 3d f9 f5 54 bd dc 48 00 3e b3 6a 52 3c
       0.03403012 -0.05199239 0.12527794 0.012842822
0003e0 60 e6 d0 bb 9a f4 26 3e 41 8c e9 3c 04 88 4e 3c
       -0.006375119 0.16304246 0.028509261 0.012605671
0003f0 3c b4 62 bd de e5 23 be e4 1b 9f bb 4f 46 88 3c
       -0.055347666 -0.16005656 -0.0048556197 0.016635088

qo_head.fc.bias f4 [4]
000000 89 25 f0 3d 31 5d 0e 3e 86 34 bb 3d bf 48 bf 3c
       0.11725909 0.13902737 0.091408774 0.023350118
