trained-models/ppoc-mujoco-billiard.pth (torch_old, 80065 bytes, 39 tensors)

body.layers.0.weight f4 [64, 10]
-0.038875524 -0.1697647 -0.067934275 -0.44399846 0.41478655 0.15319154 -0.041881848 -0.053467
0.017548135 0.5602923 0.015313387 0.06040533 -0.08737348 0.24455708 -0.026214793 -0.09750673
-0.13851304 -0.07271881 -0.009333665 -0.08075595 -0.007852737 0.16308878 0.09040768 -0.024269238
-0.17076297 -0.19444071 0.0648388 0.21259195 0.027973643 -0.084453315 -0.14833912 -0.17730467
0.023394585 -0.14603971 -0.0740218 -0.10457032 -0.029770726 -0.034706783 -0.050901387 0.08711365
0.1276559 0.13947745 0.0049935114 0.05101736 0.017198378 -0.013556098 0.16545197 -0.02835901
-0.30782527 -0.01839265 0.032184906 -0.07146912 -0.062267307 -0.16629799 0.51514596 0.095676176
0.039897583 -0.15455575 0.006259021 -0.2791918 0.065566555 0.022013016 -0.066002026 0.33990365
0.032271046 0.0143022295 -0.07734058 -0.018082432 -0.042431083 -0.106827766 0.10526502 -0.00549074
-0.017736167 -0.37002125 0.35744298 -0.06836218 -0.19553751 -0.081454046 -0.057687175 0.08421375
0.08783806 -0.13963006 0.043127522 0.14178808 0.2395061 -0.07311003 -0.033385504 0.07127407
-0.06976089 -0.013887454 -0.078088515 0.063715965 0.110712536 -0.43486935 0.28532234 0.09215301
-0.017221617 -0.07723577 -0.038193792 0.55255103 -0.022322837 0.12135507 0.10193995 -0.14660442
-0.17893614 -0.02523323 -0.073365964 0.16442314 0.14262499 0.2567903 -0.043419182 0.024208965
-0.01644508 0.15529694 -0.12403219 0.15446246 -0.020152733 -0.0717425 -0.00854233 -0.4361629
0.09397164 -0.09654903 -0.10743635 -0.32273102 -0.16195373 0.059803247 0.06378104 0.054839406
-0.009110591 0.7297287 0.07011124 -0.09538752 0.3425407 -0.22452943 0.4087047 -0.0019680574
0.038897727 -0.0035428845 0.023798313 -0.22013928 -0.19568697 -0.34812972 0.13295484 0.24767856
-0.08944306 0.06896566 0.06526982 -0.0799261 -0.080690496 -0.2722787 -0.061505638 0.38425064
0.29946494 0.04315133 -0.2964985 0.013919532 -0.073047884 0.06012528 -0.006902344 0.37668923
-0.15970442 -0.0050075664 -0.043606993 0.24398838 -0.17435665 0.09931252 0.0710457 0.010310062
0.027366066 0.1524355 -0.047416534 -0.021234198 0.019261671 0.24213149 0.72688717 -0.015228253
0.008682579 0.044501696 -0.048508514 -0.09070282 0.14334548 0.07415429 -0.489819 -0.06821043
0.047082506 -0.07415245 -0.0053354 0.06032528 -0.096221775 -0.14197573 -0.047625914 0.014420723
0.27883166 -0.2333502 0.089268 -0.1112858 0.007506889 0.036304116 -0.017659944 0.1542419
0.012724235 -0.035318226 -0.03379421 0.29470018 0.3292614 -0.120607875 0.095211715 -0.061200235
-0.029512936 0.39343455 0.30027384 0.08338443 -0.28216326 -0.34468147 -0.24526826 0.045251764
0.041582953 -0.13563232 -0.06909794 -0.11401823 0.15827961 -0.02154232 -0.064423844 -0.14462675
-0.04254336 0.0934126 0.1305292 0.20889066 -0.046715587 0.033083607 -0.22764081 -0.2968366
0.33443296 -0.015200542 0.027900698 0.26006475 0.015735101 -9.314828e-05 0.09375244 -0.04524333
-0.06765367 -0.30707574 0.4133737 0.059196245 0.20620498 -0.0023660527 -0.12036894 -0.055767935
-0.091797866 0.2172539 -0.20335566 0.08146691 0.010919364 0.17181027 -0.13951881 -0.077194326
00000000: f13b 1fbd ccd6 2dbe 2021 8bbd c453 e3be
00000010: e75e d43e 3ede 1c3e 4d8c 2bbd 3700 5bbd
00000020: 1bc1 8f3c 516f 0f3f 00e5 7a3c 946b 773d
00000030: def0 b2bd 2c6d 7a3e 68c0 d6bc 9cb1 c7bd
00000040: 5dd6 0dbe 99ed 94bd 3aec 18bc 6063 a5bd
00000050: c4a8 00bc bf00 273e a927 b93d 48d0 c6bc
00000060: 7ddc 2ebe 771b 47be 34ca 843d b4b1 593e
00000070: fb28 e53c dcf5 acbd 36e6 17be 5b8f 35be
00000080: 00a6 bf3c 6f8b 15be be98 97bd f728 d6bd
00000090: bde1 f3bc b328 0ebd f97d 50bd a468 b23d
000000a0: 3ab8 023e 2dd3 0e3e 9ca0 a33b 94f7 503d
000000b0: 9de3 8c3c 651a 5ebc 3e6c 293e 2851 e8bc
000000c0: 469b 9dbe 2fac 96bc 52d4 033d 675e 92bd
000000d0: 010c 7fbd 054a 2abe 9be0 033f dff1 c33d
000000e0: a66b 233d dd43 1ebe 7918 cd3b 3af2 8ebe
000000f0: c247 863d a454 b43c 122c 87bd da07 ae3e
00000100: a52e 043d e653 6a3c bd64 9ebd 9c21 94bc
00000110: 37cc 2dbd 84c8 dabd 3095 d73d aaeb b3bb
00000120: 704b 91bc 6d73 bdbe c402 b73e 7801 8cbd
00000130: fc3a 48be 61d1 a6bd 6349 6cbd 4278 ac3d
00000140: 71e4 b33d 2ffb 0ebe 7ca6 303d e530 113e
00000150: 1641 753e b6ba 95bd 3dbf 08bd 24f8 913d
00000160: ccde 8ebd 3488 63bc dfec 9fbd 847d 823d
00000170: 41bd e23d 32a7 debe c515 923e b8ba bc3d
00000180: 5914 8dbc ca2d 9ebd 1871 1cbd fc73 0d3f
00000190: 62de b6bc 0289 f83d e4c5 d03d 781f 16be
000001a0: 093b 37be ebb5 cebc e540 96bd 8a5e 283e
000001b0: 490c 123e 057a 833e 50d8 31bd e151 c63c
000001c0: d5b7 86bc 2906 1f3e 9704 febd 682b 1e3e
000001d0: 5817 a5bc bbed 92bd 21f5 0bbc be50 dfbe
000001e0: 3474 c03d 7fbb c5bd 9707 dcbd 003d a5be
000001f0: 33d7 25be 40f4 743d a29f 823d 499f 603d
00000200: 9744 15bc 80cf 3a3f 7b96 8f3d 885a c3bd
00000210: 7f61 af3e 0beb 65be be41 d13e 86fa 00bb
00000220: 3953 1f3d bd2f 68bb aef4 c23c 316c 61be
00000230: 2a62 48be 0f3e b2be 5025 083e 739f 7d3e
00000240: ec2d b7bd de3d 8d3d 2fac 853d 4cb0 a3bd
00000250: 0f41 a5bd 1d68 8bbe 56ed 7bbd 80bc c43e
00000260: 7853 993e 73bf 303d a7ce 97be c00e 643c
00000270: 219a 95bd ed45 763d 0f2d e2bb 69dd c03e
00000280: 8e89 23be 8316 a4bb 3f9d 32bd 17d8 793e
00000290: 8d8a 32be 5d64 cb3d 6880 913d 89eb 283c
000002a0: cd2e e03c 0d18 1c3e d737 42bd 57f3 adbc
000002b0: a7ca 9d3c 51f1 773e 4715 3a3f ec7f 79bc
000002c0: 6041 0e3c 6947 363d ddb0 46bd 66c2 b9bd
000002d0: 28c9 123e 34de 973d 8ec9 fabe e9b1 8bbd
000002e0: 96d9 403d 3ddd 97bd 94d4 aebb a417 773d
000002f0: ec0f c5bd 1662 11be 6413 43bd e544 6c3c
00000300: 06c3 8e3e 5bf3 6ebe 24d2 b63d cfe9 e3bd
00000310: 59fc f53b a0b3 143d 96ab 90bc 97f1 1d3e
00000320: 4f79 503c d8a9 10bd cc6b 0abd f1e2 963e
00000330: f394 a83e 4301 f7bd 5cfe c23d 19ad 7abd
00000340: 1dc5 f1bc 4170 c93e 7ebd 993e 75c5 aa3d
00000350: b477 90be 177a b0be 9a27 7bbe ea59 393d
00000360: e352 2a3d 33e3 0abe 3983 8dbd 6482 e9bd
00000370: 0d14 223e 8579 b0bc a6f0 83bd 0919 14be
00000380: f241 2ebd 1b4f bf3d 72a9 053e 6fe7 553e
00000390: d858 3fbd ad82 073d ac1a 69be f8fa 97be
000003a0: cc3a ab3e b20b 79bc 0190 e43c 3527 853e
000003b0: e6e6 803c 9a58 c3b8 4701 c03d 1251 39bd
000003c0: 028e 8abd 0839 9dbe b8a5 d33e c377 723d
000003d0: 6627 533e c70f 1bbb fe83 f6bd eb6c 64bd
000003e0: 8500 bcbd ce77 5e3e 773c 50be 20d8 a63d
000003f0: 22e7 323c 08ef 2f3e 05de 0ebe 0f18 9ebd

body.layers.0.bias f4 [64]
0.2530008 -0.023652192 -0.057418097 0.009296669 0.022484351 0.13538024 0.14892726 0.26996765
-0.100493975 0.110153735 0.09036442 -0.20323019 -0.24368894 -0.22793354 0.1817311 0.23038873
0.07142436 0.10182108 0.071609885 0.21157332 0.0036739835 0.023571283 -0.01375373 -0.052076146
0.020674268 0.1489848 0.03792558 0.21288918 0.11394211 -0.3401227 -0.02693408 0.007105064
-0.13954097 -0.02678191 -0.023150474 0.10086913 0.14943334 -0.05775805 0.14722331 -0.00073950324
0.088797584 -0.092286095 0.07091411 -0.068958335 0.028174806 -0.14823148 0.036184214 0.05728486
0.2542709 -0.023915045 -0.0448182 -0.10235624 0.07854907 0.02868837 0.29725805 0.023768337
-0.1180229 -0.07063994 0.21861799 0.09548337 0.14055416 0.05965606 0.13880342 -0.11695224
00000000: 5289 813e 3ec2 c1bc 3d2f 6bbd 0e51 183c
00000010: 1a31 b83c 1ea1 0a3e 6380 183e 3339 8a3e
00000020: c9cf cdbd 4898 e13d fb10 b93d 931b 50be
00000030: 9889 79be 6967 69be b817 3a3e 06eb 6b3e
00000040: ef46 923d 9287 d03d 34a8 923d ada6 583e
00000050: 37c7 703b 9018 c13c 5357 61bc cc4d 55bd
00000060: 155d a93c 798f 183e da57 1b3d 9fff 593e
00000070: 7b5a e93d 9024 aebe dca4 dcbc 99d1 e83b
00000080: d4e3 0ebe bc65 dbbc 10a6 bdbc 7994 ce3d
00000090: 0e05 193e b493 6cbd b5c1 163e 39db 41ba
000000a0: 82db b53d 7e00 bdbd 6b3b 913d 073a 8dbd
000000b0: dace e63c fec9 17be e635 143d 88a3 6a3d
000000c0: cc2f 823e 7ce9 c3bc 4a93 37bd 26a0 d1bd
000000d0: 56de a03d df03 eb3c 3532 983e d1b5 c23c
000000e0: fdb5 f1bd acab 90bd 65dd 5f3e c98c c33d
000000f0: 6eed 0f3e ea59 743d 7c22 0e3e a884 efbd

body.layers.1.weight f4 [64, 64]
0.07800275 0.036743093 0.21411277 -0.15130594 0.25360173 -0.11991552 0.116971396 -0.059427492
0.0054107173 -0.0310877 -0.122302406 0.23514837 -0.072660044 -0.07650357 0.034212984 -0.1520516
0.25244206 -0.4433292 0.11815568 -0.16717048 0.10358683 -0.37006864 0.010299781 -0.026526168
-0.13919191 0.044780787 -0.16022183 0.16012122 -0.23584312 -0.10492287 0.086982794 0.011205703
-0.4850489 -0.06884741 -0.21800514 -0.022243159 0.26545617 0.06189607 -0.012799433 0.039630204
0.029439 0.24712084 -0.33649787 0.14056137 -0.10537229 -0.18426713 -0.003415415 -0.092247866
0.07213137 -0.09671126 -0.038449783 -0.331233 0.15685539 0.03346958 -0.006688956 0.012655768
0.056992926 -0.12942608 -0.13461792 0.060071163 -0.012660013 -0.1851909 0.11820492 0.0534691
-0.16268992 -0.17718689 0.13036138 0.16857316 0.12019715 -0.34313127 -0.21078525 0.01394731
0.15711504 -0.05193786 -0.15275182 -0.043601327 -0.1579029 0.24325228 0.058466226 -0.22535571
0.18150608 -0.055043794 -0.051684238 -0.12172802 -0.03945704 0.13196422 0.11485041 0.32494667
0.17540972 -0.010072321 -0.051138654 0.09842316 -0.006205285 0.31056786 -0.3350032 -0.07407
0.08951307 -0.06887479 -0.07479744 0.1632974 -0.042743593 0.024270179 0.09971863 0.0029813997
-0.2335419 0.11803429 0.035760544 0.1177241 0.14150141 -0.29707918 -0.3857326 -0.03156392
-0.3799986 0.111520976 -0.00047040664 0.108736716 0.022517946 -0.010268954 -0.13384803 -0.24563615
-0.15417601 -0.13459653 0.10505512 0.34189013 -0.3421833 0.042695463 -0.007931086 -0.17344941
-0.0147760995 -0.07275513 0.037584063 -0.076304235 -0.043998316 0.06438807 0.084967494 -0.10886343
0.28979176 -0.24557507 -0.20009977 -0.04110594 0.32853752 0.0057006287 -0.24366684 0.01666425
0.018140841 -0.20781173 -0.3601911 -0.12683454 0.10637259 0.11048044 0.102909654 -0.10398929
0.042859003 -0.13506635 0.08563222 -0.2828147 -0.19034131 -0.02798886 -0.06839439 0.3536706
0.15558201 0.26505956 -0.08597536 0.05186365 0.1197724 0.047627494 -0.06611615 -0.24353068
-0.22931938 0.061052322 -0.17152469 0.0969168 0.09635724 0.017860804 0.05574056 0.052890677
-0.08441145 -0.08974031 -0.06070866 0.05391329 -0.014637795 -0.06979542 -0.16477294 -0.017354885
-0.14484239 -0.2652147 0.06384749 0.22212899 0.19944611 -0.24856165 -0.19041018 -0.31456336
-0.101381496 -0.046532676 -0.19120702 -0.029673602 0.12624507 0.08612096 -0.13778213 -0.17394565
0.33733696 -0.0727176 -0.12562138 0.034134574 0.094166055 -0.09123637 -0.09707707 -0.1132214
-0.38331977 0.019686598 0.25014818 -0.033974484 -0.029564023 0.18773784 0.142388 -0.014391501
-0.1188029 -0.06665485 0.10035006 -0.3012173 0.24501112 0.07281853 -0.04605227 0.036254175
0.14690048 -0.07930473 -0.15903752 0.22900862 0.351047 -0.22963563 -0.19979165 0.14197163
-0.15826479 0.009007575 0.044293504 -0.14312248 0.1456521 -0.03203533 0.009532901 -0.047157053
-0.09062943 0.073733136 -0.0645723 0.30151814 0.11051569 -0.15925695 0.13438328 -0.22985575
-0.13608064 0.11158276 -0.28125018 -0.29862675 -0.21357973 -0.06639588 0.18052699 0.0030452283
00000000: e8bf 9f3d ed7f 163d 6140 5b3e f2ef 1abe
00000010: 16d8 813e 4596 f5bd b38e ef3d 3e6a 73bd
00000020: 634c b13b a2ab febc af79 fabd bcca 703e
00000030: cace 94bd e7ad 9cbd ea22 0c3d 6ab3 1bbe
00000040: 1640 813e 0bfc e2be 9bfb f13d bd2e 2bbe
00000050: 5525 d43d a379 bdbe 6ac0 283c 684d d9bc
00000060: 5388 0ebe 0f6c 373d 3111 24be d1f6 233e
00000070: dc80 71be cde1 d6bd 0924 b23d 2098 373c
00000080: 5458 f8be dfff 8cbd bd3c 5fbe 4937 b6bc
00000090: dfe9 873e bc86 7d3d b7b4 51bc 4853 223d
000000a0: 0f2a f13c 3f0d 7d3e 7349 acbe 52ef 0f3e
000000b0: 6dcd d7bd 86b0 3cbe 28d5 5fbb 73ec bcbd
000000c0: 9db9 933d 8e10 c6bd 857d 1dbd 5f97 a9be
000000d0: b39e 203e 6617 093d 082f dbbb 235a 4f3c
000000e0: 6a71 693d 4588 04be 48d9 09be 2e0d 763d
000000f0: f16b 4fbc afa2 3dbe 6c15 f23d 6a02 5b3d
00000100: 3098 26be 7b70 35be 747d 053e 719e 2c3e
00000110: ec29 f63d e7ae afbe 17d8 57be 4283 643c
00000120: c4e2 203e cbbc 54bd f96a 1cbe 4e97 32bd
00000130: 4cb1 21be 2017 793e 487a 6f3d a6c3 66be
00000140: bbdc 393e 9a75 61bd dab2 53bd 8a4c f9bd
00000150: b59d 21bd a121 073e b136 eb3d 695f a63e
00000160: 9b9e 333e 6006 25bc c476 51bd 1592 c93d
00000170: b455 cbbb c002 9f3e 8a85 abbe 03b2 97bd
00000180: a152 b73d 3a0e 8dbd 662f 99bd 6f37 273e
00000190: e813 2fbd 41d2 c63c 4839 cc3d 9663 433b
000001a0: 9c25 6fbe f6bb f13d a679 123d 5519 f13d
000001b0: bfe5 103e c31a 98be be7e c5be 2b49 01bd
000001c0: 2d8f c2be 1c65 e43d e9a0 f6b9 5bb1 de3d
000001d0: 8e77 b83c 1d3f 28bc 750f 09be 0b88 7bbe
000001e0: 51e0 1dbe acd3 09be 2427 d73d 390c af3e
000001f0: a632 afbe 70e1 2e3d 63f1 01bc b99c 31be
00000200: 7417 72bc a400 95bd bff1 193d 6545 9cbd
00000210: 9437 34bd e4dd 833d 7003 ae3d caf3 debd
00000220: 965f 943e 0878 7bbe f4e6 4cbe b45e 28bd
00000230: 1236 a83e 57cc ba3b cd83 79be 7783 883c
00000240: 1a9c 943c 99cc 54be f86a b8be eae0 01be
00000250: dfd9 d93d 9243 e23d 4cc2 d23d 56f8 d4bd
00000260: ec8c 2f3d d54e 0abe f25f af3d 17cd 90be
00000270: d5e8 42be e548 e5bc 5c12 8cbd 5014 b53e
00000280: e450 1f3e e3b5 873e d913 b0bd fb6e 543d
00000290: 3b4b f53d 0c15 433d e767 87bd 1b60 79be
000002a0: b3d2 6abe 0012 7a3d 2ba4 2fbe 517c c63d
000002b0: f256 c53d d250 923c 3750 643d e5a3 583d
000002c0: e9df acbd c5c9 b7bd a5a9 78bd 2fd4 5c3d
000002d0: 5dd3 6fbc e7f0 8ebd 3dba 28be d52b 8ebc
000002e0: 9051 14be 39ca 87be 79c2 823d c875 633e
000002f0: 9a3b 4c3e f286 7ebe e3fa 42be 730e a1be
00000300: 1aa1 cfbd 0c99 3ebd c6cb 43be 0e16 f3bc
00000310: 6346 013e 3060 b03d c216 0dbe cf1e 32be
00000320: 6eb7 ac3e f7ec 94bd e4a2 00be b2d0 0b3d
00000330: 22da c03d 22da babd 58d0 c6bd 9fe0 e7bd
00000340: 7d42 c4be ca45 a13c 6c13 803e d428 0bbd
00000350: 4030 f2bc 593e 403e 29ce 113e 55ca 6bbc
00000360: ef4e f3bd 5782 88bd 5584 cd3d 2739 9abe
00000370: 32e4 7a3e e221 953d 4ea1 3cbd 427f 143d
00000380: 146d 163e 856a a2bd bbda 22be 3c81 6a3e
00000390: 6fbc b33e 9a25 6bbe 2f96 4cbe 0361 113e
000003a0: 2a10 22be 8294 133c 1b6d 353d b38e 12be
000003b0: d325 153e 7a37 03bd e32f 1c3c c127 41bd
000003c0: ec9b b9bd 6601 973d 7b3e 84bd 9660 9a3e
000003d0: 0d56 e23d 4114 23be c59b 093e 4e5f 6bbe
000003e0: b958 0bbe 8185 e43d 0600 90be 9be5 98be
000003f0: a5b4 5abe 90fa 87bd 11dc 383e 7492 473b

body.layers.1.bias f4 [64]
0.096413694 -0.056941003 -0.045896295 -0.008699102 0.15746106 -0.06661683 0.08842312 0.0874517
-0.019377103 0.010029645 0.19308242 0.10196276 -0.035868637 0.07710081 0.11628806 0.0822201
0.00019517493 0.12869935 0.03188064 0.08067741 0.15155825 0.12748218 0.16155538 0.025600422
0.11274777 0.17174384 -0.07247314 0.25557262 0.09421519 -0.1783074 -0.010572137 0.117271535
0.18819514 -0.10968356 0.097204626 0.014596322 0.021371437 -0.033570684 0.122916594 0.021784259
-0.069942325 -0.07851483 -0.05514203 0.116421744 -0.005001101 0.15631494 -0.20746887 0.20288448
-0.063849986 0.1087665 -0.010352547 0.13747999 -0.04602512 0.024977384 0.08911016 0.005732793
0.0012558708 0.2681768 0.28564325 -0.0808141 0.10472497 -0.035118468 0.23631105 0.057603646
00000000: 8b74 c53d f83a 69bd c1fd 3bbd ae86 0ebc
00000010: 793d 213e 686e 88bd 2e17 b53d e019 b33d
00000020: bbbc 9ebc 6153 243c 66b7 453e dad1 d03d
00000030: feea 12bd 08e7 9d3d 6f28 ee3d 0363 a83d
00000040: dfa7 4c39 c3c9 033e 4695 023d 333a a53d
00000050: 1632 1b3e b08a 023e c66e 253e fab7 d13c
00000060: 4ee8 e63d 9edd 2f3e cc6c 94bd 6ada 823e
00000070: e5f3 c03d 3796 36be c236 2dbc 0f2c f03d
00000080: 3ab6 403e c6a1 e0bd 3813 c73d 6925 6f3c
00000090: 2713 af3c 6a81 09bd b2bb fb3d e774 b23c
000000a0: ec3d 8fbd 62cc a0bd 9cdc 61bd 866e ee3d
000000b0: 47e0 a3bb 0611 203e b872 54be f3c0 4f3e
000000c0: c8c3 82bd f9c0 de3d bb9d 29bc 8ec7 0c3e
000000d0: d684 3cbd 5f9d cc3c 637f b63d 27da bb3b
000000e0: 089c a43a 784e 893e d53f 923e dd81 a5bd
000000f0: 0c7a d63d 62d8 0fbd 86fb 713e cdf1 6b3d

actor_head.fc.weight f4 [8, 64]
-0.013926961 0.01844021 0.0062176217 0.0043533323 -0.0021168534 -0.017387012 -0.0010266316 -0.0029659492
0.0072243963 0.00065231667 -0.009817039 0.003584076 0.024131209 0.014006644 -0.010197898 -0.0012886235
-0.0031227781 0.0077302917 -0.0005384405 0.01617997 -0.012580035 -0.013257601 -0.0037603904 0.013939429
0.019552758 -0.017244374 -0.0037874125 -0.016631167 -0.0026120397 0.009659299 0.0047179544 -0.012308194
0.0031408798 0.018880274 0.037190612 0.025163116 0.0037752741 0.019413838 -0.004391137 -0.016943472
0.010563393 -0.00011535928 -0.007001547 0.014211566 0.0046929023 -0.0028699688 0.0110971 0.00590382
0.009436031 0.0031762319 0.0018103316 0.029275224 -0.002708358 0.017396143 0.0074807554 0.029194368
0.0031127073 -0.022503594 -0.029919565 -0.0056153457 0.021738289 -0.007040963 -0.004169345 -0.0058213705
-0.015630422 0.0010034792 -0.0058673616 0.0028833214 -0.0045602485 -0.010704062 -0.010341038 0.004530059
-0.015400078 0.0013349808 -0.008231076 0.0042016176 -0.022557588 -0.0080901515 0.005795779 -0.0019080433
-0.019762212 -0.008872433 -0.015777066 0.0039983974 -0.013779298 -0.007682981 -0.018999415 0.0059883515
-0.026821269 -0.012315856 -0.022640828 -0.0034748379 0.0036974372 0.01766212 0.00677676 0.01252083
-0.005175683 -0.0067312946 -0.008886858 0.009522028 -0.012147129 -0.00074278447 0.020377848 0.021525567
-0.0063170977 -0.0055848197 0.012864268 -0.0031003729 -0.019157227 -0.0101383645 0.010701422 -0.00019007549
0.016281035 0.0013391699 0.003971901 -0.00022795264 0.016158674 0.0008625214 0.025088646 0.016866565
-0.015426063 -0.009668951 -0.0025988228 -0.0029633455 0.023695432 -0.0006492832 -0.0018228558 0.022861132
-0.063661754 0.26736742 -0.2613576 0.13742383 -0.010632103 0.18378302 0.05952967 -0.11780198
-0.016377034 -0.041216884 -0.29904893 0.014585801 -0.060753155 -0.08909267 -0.02379329 0.11940285
-0.1387452 0.00010279126 -0.10731943 0.005522796 0.026163328 -0.035059065 0.017264938 -0.29201895
-0.23652104 0.033048708 0.06965217 -0.021104753 -0.043431696 0.023609556 -0.054106064 -0.060339663
0.025924437 0.122341186 -0.2598829 0.2900278 0.07676307 0.13318995 -0.025094852 -0.09802322
0.034377303 0.6302947 0.05722576 -0.18695205 -0.16351709 -0.019736314 0.09371293 -0.0156214405
0.15619408 -0.3018697 0.14460424 0.10006111 0.04037717 0.11928195 -0.019931892 0.24969508
0.03843202 -0.04774196 -0.2968823 0.06312396 -0.1760002 -0.060790326 -0.20476283 0.2488667
-0.09176286 -0.23137715 0.30951485 -0.30919057 -0.03675178 0.18964624 -0.00093257194 0.2709303
0.17971076 -0.015129033 0.022333961 -0.01196529 0.07867149 -0.13942616 0.013447333 -0.071046226
-0.011954726 -0.06260244 0.014129091 0.47119454 0.009971785 0.0035904294 -0.014562758 -0.21460207
-0.014467488 -0.044794053 -0.094074495 -0.023300575 -0.10437007 0.20423068 0.13304846 0.0012483279
-0.0082469005 0.089118056 0.02970394 -0.19291814 0.042319905 0.09884403 0.09400326 0.015910976
0.026625931 -0.09849818 -0.06582248 -0.029242733 0.19368623 -0.059733115 -0.047596954 -0.0627422
-0.13756925 0.02566107 0.09322463 0.021870589 0.060841095 -0.03008823 0.16879016 0.19735941
0.0139022 -0.015688417 -0.12501551 -0.0004187645 -0.12144319 0.4816189 -0.15738945 -0.22073998
00000000: e92d 64bc ec0f 973c 31bd cb3b 66a6 8e3b
00000010: e8ba 0abb 356f 8ebc 0a90 86ba 5f60 42bb
00000020: a1ba ec3b 3b00 2b3a a5d7 20bc d1e2 6a3b
00000030: d0ae c53c 1f7c 653c 1615 27bc 08e7 a8ba
00000040: 86a7 4cbb 634e fd3b 2126 0dba db8b 843c
00000050: 7e1c 4ebc 6936 59bc e270 76bb 3462 643c
00000060: 1b2d a03c 1344 8dbc 3d36 78bb 163e 88bc
00000070: c12e 2bbb 0942 1e3c 1299 9a3b 4fa8 49bc
00000080: 38d7 4d3b ceaa 9a3c 2f55 183d e122 ce3c
00000090: 976a 773b c509 9f3c 87e3 8fbb 09cd 8abc
000000a0: 1512 2d3c 0bed f1b8 3c6d e5bb a1d7 683c
000000b0: ebc6 993b 1616 3cbb 9cd0 353c d574 c13b
000000c0: 9599 1a3c 5428 503b a648 ed3a 98d2 ef3c
000000d0: b57e 31bb 5b82 8e3c 2021 f53b 0729 ef3c
000000e0: 90fe 4b3b 7559 b8bc e019 f5bc ef00 b8bb
000000f0: 7f14 b23c e1b7 e6bb 009f 88bb 32c1 bebb
00000100: 5f0b 80bc 2d87 833a ff42 c0bb 1bf6 3c3b
00000110: 236e 95bb 1760 2fbc 756d 29bc e470 943b
00000120: 9c50 7cbc 86fa ae3a a3db 06bc b9ad 893b
00000130: b1ca b8bc 8e8c 04bc 85ea bd3b 4f17 faba
00000140: 5de4 a1bc ae5d 11bc e83e 81bc fd04 833b
00000150: 91c2 61bc 84c1 fbbb a9a4 9bbc ef39 c43b
00000160: 47b8 dbbc 72c8 49bc 4279 b9bc 1bba 63bb
00000170: b450 723b 26b0 903c 950f de3b 2b24 4d3c
00000180: c798 a9bb 3192 dcbb 2f9a 11bc 4802 1c3c
00000190: c004 47bc 6cb7 42ba 72ef a63c 6356 b03c
000001a0: a8ff cebb dd00 b7bb a7c4 523c a02f 4bbb
000001b0: 9eef 9cbc 621b 26bc 0455 2f3c 004f 47b9
000001c0: ce5f 853c 1687 af3a b826 823b 9206 6fb9
000001d0: 325f 843c d51a 623a b486 cd3c c02b 8a3c
000001e0: 99bd 7cbc 856a 1ebc 0351 2abb b034 42bb
000001f0: ec1c c23c a834 2aba e4ec eeba 4547 bb3c
00000200: 1861 82bd 62e4 883e aad0 85be d5b8 0c3e
00000210: 4632 2ebc 9e31 3c3e 62d5 733d 2a42 f1bd
00000220: 2129 86bc 09d3 28bd f11c 99be 49f9 6e3c
00000230: 4dd8 78bd 3876 b6bd 25ea c2bc 7b89 f43d
00000240: 3913 0ebe a391 d738 4aca dbbd 92f8 b43b
00000250: 7a54 d63c 189a 0fbd 336f 8d3c 8283 95be
00000260: 9232 72be 155e 073d cca5 8e3d e0e3 acbc
00000270: 6fe5 31bd d468 c13c 529e 5dbd b926 77bd
00000280: 7c5f d43c 048e fa3d 5f0f 85be 867e 943e
00000290: f535 9d3d f262 083e b893 cdbc 66c0 c8bd
000002a0: 37cf 0c3d fe5a 213f 8f65 6a3d 5c70 3fbe
000002b0: 0671 27be 0dae a1bc 91ec bf3d 12f1 7fbc
000002c0: 57f1 1f3e aa8e 9abe 2213 143e d7ec cc3d
000002d0: 8862 253d 184a f43d 3548 a3bc 11b0 7f3e
000002e0: e56a 1d3d 138d 43bd f500 98be 2247 813d
000002f0: 6539 34be 47ff 78bd 59ad 51be ead6 7e3e
00000300: 2bee bbbd 22ee 6cbe bb78 9e3e 3a4e 9ebe
00000310: 0989 16bd a032 423e d877 74ba 60b7 8a3e
00000320: 1906 383e c3df 77bc b6f5 b63c 100a 44bc
00000330: 851e a13d bbc5 0ebe 3452 5c3c af80 91bd
00000340: c1dd 43bc b535 80bd b47d 673c 6940 f13e
00000350: b360 233c 694d 6b3b a298 6ebc a5c0 5bbe
00000360: 0b09 6dbc f879 37bd 21aa c0bd d9e0 bebc
00000370: fabf d5bd d921 513e db3d 083e ef9e a33a
00000380: 021e 07bc 8783 b63d ad55 f33c 558c 45be
00000390: a357 2d3d bd6e ca3d c884 c03d bc57 823c
000003a0: a01e da3c 6ab9 c9bd f0cd 86bd 758e efbc
000003b0: af55 463e b6aa 74bd 06f5 42bd fc7e 80bd
000003c0: f4de 0cbe 2a37 d23c 8eec be3d f329 b33c
000003d0: 8334 793d 977b f6bc 54d7 2c3e 9618 4a3e
000003e0: 0ec6 633c ff84 80bc 1104 00be 9f8d dbb9
000003f0: 35b7 f8bd c196 f63e b32a 21be a909 62be

actor_head.fc.bias f4 [8]
-0.010101435 -0.007722371 -0.13527907 -0.055625748 -0.0094168065 -0.01032387 0.0034392227 -0.0037252249
00000000: 7d80 25bc f10b fdbb 9986 0abe d3d7 63bd
00000010: f348 1abc 7325 29bc 9564 613b e722 74bb

qo_head.fc.weight f4 [4, 64]
0.080946594 -0.018839614 -0.1109694 0.036167648 -0.074791476 -0.032198366 0.1475907 -0.084960274
-0.10579761 0.21106994 -0.16996583 -0.043787222 -0.02607794 -0.033170845 -0.06319202 -0.08845982
0.06829977 -0.16615412 -0.16537924 -0.39427847 0.13199407 0.036057085 0.14547229 0.06984875
0.06314459 -0.06422255 0.055187806 -0.11567277 -0.23558228 -0.005828684 0.043940563 0.101763435
0.03365382 -0.0532157 0.016726628 0.102136895 0.075914964 -0.057714354 0.09605054 0.18138579
0.100984834 0.0150719965 0.07815012 -0.018691938 0.036933687 0.1335371 -0.05183806 0.1001024
0.20499253 0.13333978 0.09239849 -0.09346633 -0.026580995 -0.009354709 0.08557077 -0.05342602
0.10817776 -0.16786706 -0.04478763 0.099966705 -0.15148905 0.02115818 0.18859868 -0.024226807
-0.12017466 0.0045885947 0.036101907 -0.002416944 -0.00044720224 -0.038416814 0.010202396 -0.01586713
0.0047189635 -0.020619826 -0.0059639113 -0.0020638183 0.082943656 0.020458756 -0.0021280795 0.04893289
0.08458904 0.024856765 -0.025745427 -0.01852932 0.005365534 -0.002905106 0.0013486493 0.034953367
0.0077636116 0.009330128 0.07543515 -0.0031173716 -0.010022623 -0.04869636 0.030514222 0.0018512658
0.006037429 0.00084778905 -0.04817461 0.008229887 -0.01424397 0.006504037 0.061929364 -0.06587826
-0.09298511 -0.009334945 -0.086371586 -0.023067925 0.01573118 0.0028549142 -0.065975 0.012657685
-0.013068832 0.005055865 -0.003514765 0.029053997 -0.026038911 0.0060107303 0.08281754 0.014321615
-0.006369303 0.020085229 0.008367805 0.11511267 0.026041633 0.036043093 0.0064360765 -0.0068651605
0.03961436 -0.10676065 -0.086512245 0.19467255 0.18086018 0.10073364 -0.14003564 0.040669896
-0.027003983 0.031710047 0.119255535 -0.17393817 0.07031366 -0.08000612 -0.03068673 0.009780712
-0.26090354 -0.010304546 -0.030726789 0.005876472 0.21494886 -0.027949164 0.12195576 0.09725316
0.099105425 0.08536554 0.0029939918 0.11829339 -0.03410571 0.1844211 0.19388348 0.21501444
-0.008214327 0.04689259 0.17679013 0.121973865 -0.077744246 -0.016263796 0.18427022 0.014840501
-0.1457947 -0.05673842 -0.035569746 -0.12372614 0.14300545 -0.009791945 0.089664966 -0.053164054
0.1528022 -0.06648789 0.20750871 0.20246567 -0.040858585 -0.15594918 -0.13065349 0.21368356
-0.0725291 -0.057263024 -0.030857366 0.079786666 0.065160505 0.066250734 -0.105806 0.017544767
-0.056594424 0.102147855 -0.03317587 -0.14685248 -0.10017025 0.07039611 -0.07638979 -0.031445518
0.044493027 0.029177306 0.18869263 0.07065082 -0.051147357 -0.003893293 0.04897084 -0.027941037
0.079627134 -0.033260692 -0.0036044624 -0.027261876 0.0041325213 0.042377517 -0.2197816 -0.06411573
-0.08473546 -0.06797996 0.25991815 -0.12373965 0.13617694 -0.10591175 -0.03775614 0.03775445
0.071682364 -0.15224509 -0.1467302 0.18279909 -0.07018719 -0.12888798 0.058961414 0.019171115
0.10334361 0.10759215 -0.06063758 0.15767787 0.109950975 0.16953577 0.06002185 -0.093210995
0.11476307 -0.04594352 0.19564082 0.03140179 0.08617062 -0.13869908 -0.07844493 0.1749844
0.2380614 -0.038472787 0.019288471 -0.022567134 0.30212688 0.30758756 0.007931094 0.059734665
00000000: 54c7 a53d 8955 9abc ed43 e3bd 8724 143d
00000010: 462c 99bd 6fe2 03bd 0422 173e a7ff adbd
00000020: 6bac d8bd b822 583e 860b 2ebe 3b5a 33bd
00000030: 67a1 d5bc 27de 07bd d16a 81bd 6c2a b5bd
00000040: c0e0 8b3d 4e24 2abe 2d59 29be dede c9be
00000050: 7429 073e 98b0 133d b0f6 143e dd0c 8f3d
00000060: f351 813d 1d87 83bd 9c0c 623d d8e5 ecbd
00000070: 7b3c 71be 8cfe bebb 05fb 333d 5969 d03d
00000080: 97d8 093d b5f8 59bd 4806 893c 262d d13d
00000090: 4e79 9b3d e365 6cbd 25b6 c43d 32bd 393e
000000a0: 23d1 ce3d 89f0 763c 2c0d a03d d61f 99bc
000000b0: c747 173d f3bd 083e 2554 54bd 7d02 cd3d
000000c0: 90e9 513e 398a 083e 6b3b bd3d 466b bfbd
000000d0: 63c0 d9bc 7e44 19bc ba3f af3d 3ed5 5abd
000000e0: 4d8c dd3d 58e5 2bbe 3c73 37bd 58bb cc3d
000000f0: f21f 1bbe eb53 ad3c 0320 413e 4c77 c6bc
00000100: 221e f6bd ec5b 963b 98df 133d 9765 1ebb
00000110: 7876 eab9 f35a 1dbd f327 273c c9fb 81bc
00000120: 89a1 9a3b e9ea a8bc ea6c c3bb 2041 07bb
00000130: 5dde a93d 1f99 a73c 4077 0bbb db6d 483d
00000140: 053d ad3d 6aa0 cb3c 13e8 d2bc cdca 97bc
00000150: 5dd1 af3b 9763 3ebb 29c5 b03a 432b 0f3d
00000160: e565 fe3b 65dd 183c be7d 9a3d d14c 4cbb
00000170: ee35 24bc d675 47bd f6f8 f93c 2ca6 f23a
00000180: a0d5 c53b 293e 5e3a bd52 45bd a6d6 063c
00000190: 8a5f 69bc d11f d53b a5a9 7d3d 2eeb 86bd
000001a0: fa6e bebd 99f1 18bc 96e3 b0bd f2f8 bcbc
000001b0: adde 803c 8319 3b3b e71d 87bd 2e62 4f3c
000001c0: a81e 56bc abab a53b f957 66bb a602 ee3c
000001d0: 8e4f d5bc a9f5 c43b 3e9c a93d 35a5 6a3c
000001e0: 96b5 d0bb c789 a43c 1e19 093c 31c0 eb3d
000001f0: 4355 d53c eca1 133d b9e5 d23b 24f5 e0bb
00000200: ab42 223d 54a5 dabd 552d b1bd 3e58 473e
00000210: 6933 393e 704d ce3d 8165 0fbe 7a95 263d
00000220: 7537 ddbc 65e2 013d 3f3c f43d d91c 32be
00000230: 9c00 903d 40da a3bd bd62 fbbc 483f 203c
00000240: 2695 85be 66d4 28bc bfb6 fbbc 6c8f c03b
00000250: 8e1b 5c3e a5f5 e4bc f1c3 f93d aa2c c73d
00000260: c9f7 ca3d 21d4 ae3d d936 443b ce43 f23d
00000270: 6eb2 0bbd e3d8 3c3e 6489 463e bf2c 5c3e
00000280: 6295 06bc 7212 403d 7908 353e 6fcd f93d
00000290: 6038 9fbd a73b 85bc 55b1 3c3e 9325 733c
000002a0: 354b 15be 8c66 68bd 95b1 11bd 2164 fdbd
000002b0: 0570 123e 656e 20bc 44a2 b73d 8dc2 59bd
000002c0: 2e78 1c3e ce2a 88bd 2a7d 543e 2953 4f3e
000002d0: 555b 27bd 24b1 1fbe 07ca 05be ddcf 5a3e
000002e0: 238a 94bd a28c 6abd 96c8 fcbc 3167 a33d
000002f0: df72 853d 77ae 873d d1b0 d8bd 0bba 8f3c
00000300: 8ecf 67bd e532 d13d 6ce3 07bd 7f60 16be
00000310: 0f26 cdbd d62b 903d 4072 9cbd 04cd 00bd
00000320: 523e 363d 3f05 ef3c a438 413e 61b1 903d
00000330: e47f 51bd 9e26 7fbb a695 483d 9ae4 e4bc
00000340: 8d13 a33d 5d3c 08bd d838 6cbb 4c54 dfbc
00000350: 1a6a 873b 0c94 2d3d 6e0e 61be 1c4f 83bd
00000360: c989 adbd 1439 8bbd fe13 853e 376b fdbd
00000370: f871 0b3e 42e8 d8bd 2fa6 1abd 69a4 1a3d
00000380: 34ce 923d 23e6 1bbe 7140 16be af2f 3b3e
00000390: 4dbe 8fbd 36fb 03be 8681 713d be0c 9d3c
000003a0: d1a5 d33d 4659 dc3d 1c5f 78bd 4f76 213e
000003b0: fa2d e13d c99a 2d3e 79d9 753d 68e5 bebd
000003c0: e708 eb3d 462f 3cbd 1156 483e 2a9f 003d
000003d0: 397a b03d 2207 0ebe bca7 a0bd 1c2f 333e
000003e0: 5ec6 733e a495 1dbd db02 9e3c b6de b8bc
000003f0: 60b0 9a3e 1e7c 9d3e 6bf1 013c 56ac 743d

qo_head.fc.bias f4 [4]
0.037640113 0.12191744 0.017627893 0.0050124316
00000000: 852c 1a3d daaf f93d 5f68 903c 533f a43b

beta_head.fc.weight f4 [4, 64]
0.013414925 0.037808992 0.010245701 -0.06810239 -0.09564196 -0.018971827 0.04192504 0.04756896
0.13956974 0.026591506 0.1237043 0.08138291 0.2596235 -0.20193513 0.02475627 0.017504953
-0.3274178 -0.04534956 0.21567012 -0.08941395 -0.19751903 0.09652506 -0.10137925 -0.2133565
-0.058247972 0.1222036 -0.0655845 0.22305955 0.33919534 0.03639467 0.13666189 0.06773917
-0.013341917 -0.05221692 -0.05921799 -0.08000946 -0.00151139 0.06006598 0.07858007 0.06085799
0.07067342 0.12381757 2.198584e-05 -0.19160374 -0.27391416 0.109924614 -0.02888141 -0.06534574
0.03719066 -0.0654492 0.17677481 0.1199096 -0.03135873 0.05128873 -0.06286677 -0.09573919
-0.09129723 -0.1806154 -0.045734573 0.089970134 0.1667031 -0.02542376 -0.08284492 0.061201196
-0.1285441 -0.05547014 0.3174522 -0.09649224 -0.09377585 -0.21229175 -0.13660228 -0.2752419
0.0880896 -0.124714956 -0.24820879 0.011680704 -0.24250394 -0.33844933 -0.38825458 -0.21399464
-0.14139637 -0.21498151 -0.28677857 -0.17289935 -0.3015608 -0.36169213 -0.16342634 0.0839726
-0.10532257 -0.20229723 -0.17113079 -0.45392177 -0.069691695 -0.122276634 0.06719425 -0.31814143
-0.16124734 -0.10295948 0.13810463 0.15752696 -0.34167436 -0.18260896 -0.18916206 0.047889113
-0.21641892 -0.1050883 0.02747705 -0.23990172 0.013465762 -0.32744715 -0.035640888 -0.197978
-0.044954184 0.057627667 0.19113351 -0.31083173 -0.3322833 -0.028796418 -0.13652754 -0.0174787
-0.332834 -0.6025164 -0.23993017 -0.12547167 0.044377796 -0.1762161 -0.28411865 -0.18891965
0.09573745 0.1293752 -0.17877409 0.008615677 -0.25747186 0.33070913 0.031347692 -0.220311
0.041039277 -0.3684297 -0.03191112 -0.021265654 0.018079072 -0.0907732 -0.17620492 0.14435035
0.1193613 -0.031628426 -0.121603414 -0.1265747 -0.1567015 -0.2944309 -0.117208585 0.07779795
-0.010176122 0.015797228 -0.273631 -0.07734488 -0.029622883 0.07775238 0.05870262 -0.12945077
-0.14615026 -0.11385581 -0.28745928 0.18232022 0.06485508 -0.14793801 0.11687529 0.1262723
-0.025344955 0.16481796 -0.038355574 -0.004350546 0.058993384 -0.38436896 -0.16201779 -0.13294594
-0.06882417 0.13666584 0.024793461 0.023906589 -0.006498558 0.09541799 -0.044179525 -0.101749204
-0.029517183 -0.21468095 0.019925646 0.060526177 0.12938201 -0.051780917 0.0022211962 0.026608223
-0.0037608852 0.120319754 0.081793435 0.00045498635 -0.28267568 -0.11145194 -0.00609873 -0.123967685
0.109910354 0.16144244 -0.15052375 0.0035936746 0.053584315 0.0022799647 -0.073547676 -0.039995767
-0.0049763364 -0.12933768 0.06971266 0.016967125 -0.20136663 -0.30660293 -0.15948895 -0.27201277
0.011910748 -0.019990416 -0.16703239 -0.21280031 -0.3353654 0.009704453 -0.16848862 -0.023049533
-0.17226085 -0.092145905 0.0022522314 -0.08307109 -0.06300142 0.20520286 0.050295845 -0.050613847
-0.111873694 0.14224315 -0.16385622 -0.061661184 0.025181642 -0.20246723 0.108100176 -0.01196286
0.09320389 0.017269747 -0.11653279 -0.063360885 -0.086658835 -0.22161858 0.22642002 -0.11341809
-0.025301533 -0.27944198 -0.22712617 -0.050961435 -0.1089844 0.1254776 -0.33218378 0.06466896
00000000: 46ca 5b3c 9add 1a3d 96dd 273c 4479 8bbd
00000010: efdf c3bd ce6a 9bbc 97b9 2b3d abd7 423d
00000020: 5feb 0e3e 6ed6 d93c ae58 fd3d 15ac a63d
00000030: 5fed 843e 15c8 4ebe a9cd ca3c 8c66 8f3c
00000040: 4ea3 a7be 76c0 39bd a1d8 5c3e a91e b7bd
00000050: 6e42 4abe eeae c53d ed9f cfbd 207a 5abe
00000060: 6d95 6ebd e245 fa3d 2b51 86bd b969 643e
00000070: 03ab ad3e 9412 153d 18f1 0b3e d5ba 8a3d
00000080: 0e98 5abc 69e1 55bd 908e 72bd 00dc a3bd
00000090: d519 c6ba bf07 763d 96ee a03d 3a46 793d
000000a0: 3abd 903d 1194 fd3d 3b6e b837 c533 44be
000000b0: 7a3e 8cbe 2820 e13d b598 ecbc fdd3 85bd
000000c0: 3c55 183d 3b0a 86bd 7504 353e 2a93 f53d
000000d0: 0372 00bd 2214 523d 4bc0 80bd e912 c4bd
000000e0: 0bfa babd 3ef3 38be 2d54 3bbd 4342 b83d
000000f0: 38b4 2a3e 7d45 d0bc 99aa a9bd 1bae 7a3d
00000100: 11a1 03be a834 63bd 1889 a23e b99d c5bd
00000110: 8e0d c0bd 0263 59be 78e1 0bbe 82ec 8cbe
00000120: 5268 b43d 8e6a ffbd 722a 7ebe 6c60 3f3c
00000130: f452 78be 3b49 adbe 4ec9 c6be 6921 5bbe
00000140: 36ca 10be 1d24 5cbe a4d4 92be 870c 31be
00000150: 2d66 9abe b62f b9be 3c59 27be d4f9 ab3d
00000160: 5cb3 d7bd 0127 4fbe e93c 2fbe 6f68 e8be
00000170: 85ba 8ebd 2c6c fabd 249d 893d 6fe3 a2be
00000180: 061e 25be 6bdc d2bd 4d6b 0d3e bf4e 213e
00000190: f1ef aebe d8fd 3abe b3b3 41be 6027 443d
000001a0: ec9c 5dbe 8938 d7bd 8d17 e13c cca8 75be
000001b0: 809f 5c3c 27a7 a7be 2efc 11bd bfba 4abe
000001c0: e121 38bd fd0a 6c3d 81b8 433e 5625 9fbe
000001d0: 0921 aabe 77e6 ebbc e0cd 0bbe 7e2f 8fbc
000001e0: 3869 aabe 843e 1abf 41b0 75be a57b 00be
000001f0: 7ec5 353d fe71 34be 0078 91be 2774 41be
00000200: ff11 c43d ef7a 043e 8e10 37be c528 0d3c
00000210: 5ad3 83be b552 a93e 7066 003d 3599 61be
00000220: cd18 283d d1a2 bcbe 3cb5 02bd 4f35 aebc
00000230: 901a 943c 4de7 b9bd 106f 34be 94d0 133e
00000240: b273 f43d cf8c 01bd 360b f9bd cc9c 01be
00000250: 5c76 20be a6bf 96be 0e0b f0bd 8854 9f3d
00000260: c0b9 26bc 3069 813c 5d19 8cbe fe66 9ebd
00000270: b0ab f2bc a43c 9f3d 2972 703d be8e 04be
00000280: 6aa8 15be 3c2d e9bd dd2d 93be 27b2 3a3e
00000290: bdd2 843d 107d 17be 505c ef3d 874d 013e
000002a0: 39a0 cfbc 0ac6 283e bc1a 1dbd 068f 8ebb
000002b0: 0ca3 713d 02cc c4be fee7 25be fb22 08be
000002c0: b0f3 8cbd 21f2 0b3e a81b cb3c c0d7 c33c
000002d0: dbf1 d4bb 826a c33d 97f5 34bd e361 d0bd
000002e0: 05ce f1bc 53d5 5bbe 1c3b a33c 4cea 773d
000002f0: b87c 043e 3a18 54bd 7d91 113b 7df9 d93c
00000300: 2f79 76bb 346a f63d 5183 a73d 3c8b ee39
00000310: deba 90be ea40 e4bd dbd7 c7bb c5e2 fdbd
00000320: ae18 e13d 2b51 253e e622 1abe db83 6b3b
00000330: 3a7b 5b3d 766b 153b 2aa0 96bd 9ad2 23bd
00000340: 8910 a3bb 1971 04be 83c5 8e3d a4fe 8a3c
00000350: 0e33 4ebe 0ffb 9cbe 1251 23be 4245 8bbe
00000360: 4c25 433c f1c2 a3bc 8a0a 2bbe 53e8 59be
00000370: 04b5 abbe 6dff 1e3c 4888 2cbe 60d2 bcbc
00000380: 2665 30be feb6 bcbd 2c9a 133b 2d21 aabd
00000390: e306 81bd b320 523e 0403 4e3d 7750 4fbd
000003a0: 091e e5bd 30a8 113e edc9 27be 7090 7cbd
000003b0: bb49 ce3c 9253 4fbe a063 dd3d dfff 43bc
000003c0: aee1 be3d 4979 8d3c bea8 eebd 5ac3 81bd
000003d0: 307a b1bd fbef 62be a6da 673e be47 e8bd
000003e0: 2945 cfbc 0513 8fbe c393 68be f0bc 50bd
000003f0: 3733 dfbd 337d 003e fe13 aabe 2971 843d

beta_head.fc.bias f4 [4]
-0.014498041 -0.2042114 -0.06751974 -0.048451968
00000000: 3189 6dbc cb1c 51be ca47 8abd 9275 46bd

policy_dist.stddev f4 [4, 2]
-0.030678464 0.016901944 0.17798448 0.4553724 0.0016180136 -0.025048232 0.008908645 -0.00016433286
00000000: 6751 fbbc f275 8a3c 9041 363e 9226 e93e
00000010: 8713 d43a f331 cdbc 91f5 113c c450 2cb9

mu_head.fc.weight f4 [4, 64]
-0.012596948 -0.039629217 0.0010314628 -0.10865337 -0.15863192 0.00069472904 -0.14189132 0.04310732
-0.026379814 -0.15571707 -0.20778827 -0.104617596 -0.01359746 -0.11326908 -0.1811082 -0.08365743
-0.16152234 -0.15162972 -0.16584425 -0.054702144 -0.14395452 -0.15253325 -0.142184 -0.038361665
-0.091403864 -0.12850074 -0.026829919 -0.19000632 -0.12129912 -0.053464755 -0.13220659 -0.15925017
-0.1320882 -0.047337428 -0.026506802 -0.051579494 -0.084176674 -0.052107256 -0.11446407 0.003668715
-0.15297753 -0.06346749 -0.030645587 -0.05594539 -0.03236853 -0.14733592 -0.06850942 -0.08485346
-0.023107706 -0.14029117 -0.048461754 -0.07013368 -0.12441427 -0.093033105 -0.07896849 -0.06634789
-0.15723105 -0.20385428 -0.19532385 -0.024519254 -0.06448171 -0.010512251 -0.21004757 -0.04571879
-0.0006106439 0.10190929 -0.010954006 0.11645445 0.40298688 0.06961811 0.3105043 0.08890802
0.07022028 0.38250947 0.3986838 0.28402197 0.12370848 0.2814203 0.38264173 0.12674181
0.28114587 0.37607726 0.40167096 0.04067468 0.36638615 0.41362774 0.364772 0.018429155
0.2423116 0.32491902 0.16850692 0.43752247 0.28185344 0.27497897 0.2675907 0.36254394
0.34774184 0.118633464 0.061266623 0.13660964 0.31601164 0.20658782 0.18459503 0.023081262
0.3544033 0.044446703 0.13816744 0.066697784 0.126727 0.3578202 0.1690238 0.27737787
0.06736371 0.2710309 0.07934671 0.22824615 0.31457332 0.18799853 0.17835557 0.09016491
0.40382043 0.46147716 0.4321081 0.06453057 0.055191234 0.043157443 0.38313982 0.19545184
-0.012897001 -0.045830935 0.011558195 -0.056058783 -0.15809762 -0.053335417 -0.17520213 -0.016052483
-0.06826941 -0.16349265 -0.16433465 -0.10967581 -0.029416515 -0.1552814 -0.18383816 -0.04837903
-0.08402757 -0.10513391 -0.14018956 0.04623366 -0.12143158 -0.20536643 -0.1454117 0.0035971664
-0.06381579 -0.1282913 -0.09427658 -0.19545259 -0.09883676 -0.01674159 -0.09947678 -0.16071352
-0.15024479 0.01450982 0.0085869115 -0.10013528 -0.12707734 -0.06617548 -0.07851808 -0.003640647
-0.13969588 -0.014828331 -0.062141623 -0.00578004 -0.013602244 -0.13605501 0.006307956 -0.14061463
0.012574882 -0.12583382 0.0006354066 -0.071749106 -0.16683409 -0.027363472 -0.11447731 -0.02100903
-0.16702084 -0.22871292 -0.19426154 -0.004582046 0.018092934 -0.06735609 -0.17520124 -0.05501262
-0.0026317756 -0.0102759525 0.0021652551 0.028019533 -0.14333002 -0.05665196 -0.14215252 -0.10346013
0.00047185365 -0.13702522 -0.08808065 -0.124558 -0.06393878 -0.0665752 -0.13428363 -0.065103784
-0.07561519 -0.1212119 -0.12640204 -0.015970044 -0.14108968 -0.14171082 -0.13532797 0.018237783
-0.0841794 -0.14392173 -0.08812776 -0.15560777 -0.085349195 -0.19557853 -0.06812848 -0.12990208
-0.10621719 -0.09286723 -0.042765304 -0.048038434 -0.15421383 -0.14561506 -0.03813729 -0.026863657
-0.117905036 0.026219085 -0.10033762 -0.0038145478 -0.071988136 -0.12350007 -0.10521303 -0.09397051
-0.03189201 -0.04262505 -0.03242404 -0.13375232 -0.1298917 -0.08284856 -0.060365826 -0.017963165
-0.1543767 -0.17236072 -0.11473121 -0.035661772 -0.021831695 0.002118127 -0.08244656 -0.09960104
00000000: 6e63 4ebc 3f52 22bd 2632 873a a885 debd
00000010: 6870 22be 7a1e 363a f54b 11be 4d91 303d
00000020: 7b1a d8bc 4c74 1fbe 73c6 54be c041 d6bd
00000030: e2c7 5ebc 9ff9 e7bd 6e74 39be 9654 abbd
00000040: 1d66 25be d244 1bbe 13d3 29be 5b0f 60bd
00000050: d068 13be ad31 1cbe af98 11be 1f21 1dbd
00000060: f331 bbbd b395 03be 6bca dbbc 0491 42be
00000070: ac6b f8bd dcfd 5abd 2a61 07be 7a12 23be
00000080: 2142 07be e4e4 41bd cb24 d9bc 0545 53bd
00000090: d264 acbd 6b6e 55bd 236c eabd d36e 703b
000000a0: 24a6 1cbe 3efb 81bd 740c fbbc fe26 65bd
000000b0: dd94 04bd 3adf 16be ab4e 8cbd a7c7 adbd
000000c0: 5f4c bdbc 7da8 0fbe d57f 46bd 3fa2 8fbd
000000d0: e9cc febd 2488 bebd 3bba a1bd 67e1 87bd
000000e0: 2d01 21be 2dbf 50be fa02 48be 9adc c8bc
000000f0: fd0e 84bd 943b 2cbc b616 57be a043 3bbd
00000100: 9e13 20ba d1b5 d03d 6e78 33bc ac7f ee3d
00000110: 4c54 ce3e f193 8e3d 6bfa 9e3e 6815 b63d
00000120: a6cf 8f3d 48d8 c33e 4820 cc3e 546b 913e
00000130: df5a fd3d 5216 903e 9ee9 c33e 9bc8 013e
00000140: 5af2 8f3e 338d c03e d1a7 cd3e 7e9a 263d
00000150: f796 bb3e 04c7 d33e 65c3 ba3e bdf8 963c
00000160: 8820 783e c95b a63e 148d 2c3e f202 e03e
00000170: 184f 903e 0bca 8c3e a601 893e 5c9f b93e
00000180: 380b b23e 1af6 f23d b6f2 7a3d 66e3 0b3e
00000190: 47cc a13e c28b 533e 7b06 3d3e ea14 bd3c
000001a0: 5974 b53e bf0d 363d c47b 0d3e d998 883d
000001b0: b9c4 013e 3634 b73e 9314 2d3e 7904 8e3e
000001c0: fcf5 893d 90c4 8a3e 8780 a23d 5cb9 693e
000001d0: c10f a13e b082 403e d8a2 363e 61a8 b83d
000001e0: 8dc1 ce3e bc46 ec3e 463d dd3e 9a28 843d
000001f0: 3410 623d dcc5 303d e72a c43e 8724 483e
00000200: f14d 53bc 38b9 3bbd 955e 3d3c e59d 65bd
00000210: 58e4 21be 3d76 5abd 3068 33be 7f80 83bc
00000220: d5d0 8bbd 9e6a 27be 5847 28be b69d e0bd
00000230: e7fa f0bc 1602 1fbe 1240 3cbe 1729 46bd
00000240: a616 acbd 7350 d7bd da8d 0fbe 825f 3d3d
00000250: 1fb1 f8bd 944b 52be cee6 14be 70be 6b3b
00000260: dab1 82bd cb5e 03be 1414 c1bd b924 48be
00000270: ed6a cabd a925 89bc 7bba cbbd 1692 24be
00000280: c5d9 19be 99ba 6d3c 1eb0 0c3c ba13 cdbd
00000290: 9020 02be 0387 87bd 16ce a0bd ec97 6ebb
000002a0: 700c 0fbe 87f2 72bc 3788 7ebd 7d66 bdbb
000002b0: f2db 5ebc 0152 0bbe f8b2 ce3b 48fd 0fbe
000002c0: e106 4e3c 95da 00be 6a91 263a 32f1 92bd
000002d0: 8ed6 2abe 5c29 e0bc 1473 eabd 211b acbc
000002e0: 8307 2bbe b833 6abe 7fec 46be fd24 96bb
000002f0: a237 943c fdf1 89bd f467 33be ea54 61bd
00000300: de79 2cbb 785c 28bc f4e6 0d3b 3889 e53c
00000310: 1bc5 12be e30b 68bd 6e90 11be e8e2 d3bd
00000320: 2063 f739 5750 0cbe a163 b4bd 4418 ffbd
00000330: 56f2 82bd 9458 88bd a681 09be 2255 85bd
00000340: 23dc 9abd f23d f8bd 896f 01be 9cd3 82bc
00000350: d079 10be a41c 11be 6a93 0abe 6767 953c
00000360: 4066 acbd 3860 13be 547c b4bd a557 1fbe
00000370: 8fcb aebd bd45 48be f286 8bbd 0d05 05be
00000380: 6688 d9bd 2d31 bebd ac2a 2fbd f3c3 44bd
00000390: 3bea 1dbe 1d1c 15be d935 1cbd 2c11 dcbc
000003a0: 3278 f1bd 68c9 d63c cf7d cdbd 7efd 79bb
000003b0: 846e 93bd 9bed fcbd ee79 d7bd 9c73 c0bd
000003c0: 32a1 02bd 9b97 2ebd 12cf 04bd 5ef6 08be
000003d0: 5402 05be 81ac a9bd 2842 77bd 7d27 93bc
000003e0: ed14 1ebe 547f 30be 32f8 eabd 1412 12bd
000003f0: 62d8 b2bc 46d0 0a3b bed9 a8bd a1fb cbbd

mu_head.fc.bias f4 [4]
-0.16788627 0.36223856 -0.12341624 -0.10075824
00000000: 61ea 2bbe 5577 b93e a7c1 fcbd 565a cebd

exp_avg f4 [64, 10]
0.0010748319 -0.0019056007 0.00022274087 -0.00076554186 0.00035648805 0.0 -0.0012162103 -0.0013740679
-0.0021753435 -1.2350183e-05 -0.00020453136 -0.0018375849 -0.0003072246 -0.0002147508 -0.0034783569 0.0
-0.0007816552 -0.0028400992 -0.0050620143 7.480863e-05 -0.0003224133 -6.674082e-05 0.0002560683 0.0003731955
5.5955294e-05 0.0 -0.00060233095 0.000150272 -0.0005139945 2.641547e-05 0.0006267794 -0.0004251339
0.000126219 -1.6974556e-05 0.000376737 0.0 3.3088345e-05 -0.0003999428 -0.0007986571 -2.8990396e-05
-0.0007201237 0.0005911507 0.0006861485 -0.0003417004 -0.00031269217 0.0 0.0020871738 0.0021076906
0.0025763032 -6.0933555e-05 0.0009432403 -1.5330466e-05 -0.00055304996 0.0013574121 0.0004443913 0.0
-0.0010471719 -0.0015367848 -0.0032648002 0.000116373994 -0.00038673394 -0.0005785856 -0.00087432505 1.0594505e-05
-0.00077917124 0.0 0.0001040182 -0.0013658636 -0.0011511925 -6.3748803e-06 -0.0007111093 -0.00037259792
-0.0014518287 0.00034800777 7.4367235e-05 0.0 0.0023836507 -0.0010769406 -0.00052993774 -0.00020979592
-0.0002077655 0.0012860923 -3.2900858e-05 0.00057339814 -0.0006497696 0.0 0.00037303093 -0.00089902274
0.0023064876 -0.000115245835 0.0009274447 -0.00054299855 0.00020751153 -0.00012176965 0.00042206756 0.0
0.0004612675 -0.0026918235 -0.0005279122 -0.00014365616 -5.457992e-05 4.218825e-05 6.588722e-05 -0.00030997038
0.0011636629 0.0 9.341917e-05 -0.0006262554 0.00011533359 -1.0990976e-07 0.00054868846 0.00022351694
-0.00021164883 0.00044920458 0.00025135727 0.0 0.0010733902 -0.00026715474 0.0006134551 3.517914e-05
-0.00034433222 0.0006454233 -1.4138241e-05 -0.00063020823 0.002434135 0.0 0.0009773306 0.000598362
-2.9698655e-05 -0.00011092436 -9.064273e-05 7.278016e-05 -0.0003844853 0.00028001037 0.00051338365 0.0
-0.0010612401 0.00035086973 -0.0014334737 3.0023957e-05 0.00061842427 0.00026658914 -0.0005195724 0.00024728038
-1.2351739e-05 0.0 -2.7328497e-05 1.536618e-05 0.0027976432 3.5646055e-05 -0.0021801367 -0.0001385204
0.0009804302 -0.0013667034 0.0007076434 0.0 -0.0009992041 -0.003948449 -0.0036890176 2.3431166e-06
-0.00020307323 -0.0011266636 -0.00086965866 -2.248376e-06 -0.0018820427 0.0 -0.00013835939 -0.0014769158
-0.0014870873 -1.0618539e-05 0.0011266114 -0.0016129368 0.00037666774 0.0015029348 0.00038867738 0.0
-0.00048930757 -0.002051255 -0.004505761 0.0002233855 -0.0011793503 0.0012362022 0.0008549683 -0.00095003645
0.0016293009 0.0 -8.8738336e-05 0.0011373397 0.0012366609 -0.00013154841 0.0002663488 -0.0006930423
-6.896075e-05 -0.00024155583 0.000168845 0.0 0.000114888644 -0.0013822619 -0.00079081045 -1.1973182e-05
0.0002580778 -0.00042990234 4.9521575e-05 0.0002536602 -0.000801009 0.0 0.0002932926 -0.00027427432
-1.1249497e-05 -3.6948055e-05 -0.00022996702 -0.00010396681 8.616942e-05 -0.00067729305 0.00088802655 0.0
-0.0004219142 0.0006777339 -0.0008423017 1.0725377e-05 1.3179035e-05 -0.0005474642 0.00012786394 -0.0005309994
-0.0012736792 0.0 -0.0016152147 0.00014006194 -0.00090490206 2.6515534e-05 0.0011073166 0.0006642438
-0.00019521313 -0.00011714075 -0.00083933293 0.0 -0.00017052512 0.0014483151 0.0020849 0.00010503818
0.0020487804 0.001640638 0.0005822634 0.0004022604 0.00018943669 0.0 0.00018510708 0.00067846384
0.005000636 -2.0052252e-05 -0.00075224915 -0.0003327088 -0.00025793156 -0.00065193215 -0.0011482539 0.0
00000000: 60e1 8c3a 59c5 f9ba 8c8f 6939 a5ae 48ba
00000010: 04e7 ba39 0000 0000 3f69 9fba 111a b4ba
00000020: 3590 0ebb a233 4fb7 7877 56b9 1edb f0ba
00000030: fd12 a1b9 bb2e 61b9 25f5 63bb 0000 0000
00000040: fee7 4cba f520 3abb 41df a5bb 94e2 9c38
00000050: 9509 a9b9 34f7 8bb8 e840 8639 74a9 c339
00000060: 8ab1 6a38 0000 0000 bfe5 1dba 5592 1d39
00000070: 96bd 06ba ca96 dd37 744e 243a 82e4 deb9
00000080: a859 0439 9564 8eb7 c984 c539 0000 0000
00000090: 57c8 0a38 6aaf d1b9 f95c 51ba 6730 f3b7
000000a0: afc6 3cba 74f7 1a3a a5de 333a 4026 b3b9
000000b0: d5f0 a3b9 0000 0000 f7c8 083b 2e21 0a3b
000000c0: 32d7 283b e892 7fb8 c943 773a ed99 80b7
000000d0: 8efa 10ba 31eb b13a 31fd e839 0000 0000
000000e0: 4241 89ba f16d c9ba 42f6 55bb d00d f438
000000f0: 8dc2 cab9 39ac 17ba f632 65ba 0dbf 3137
00000100: 4c41 4cba 0000 0000 5924 da38 c706 b3ba
00000110: 9ce3 96ba cee7 d5b6 bd69 3aba 3f59 c3b9
00000120: 4a4b beba d074 b639 9bf5 9b38 0000 0000
00000130: 0637 1c3b 2128 8dba 85eb 0aba aafc 5bb9
00000140: a0db 59b9 1992 a83a 07ff 09b8 1950 163a
00000150: 4d55 2aba 0000 0000 5d93 c339 65ac 6bba
00000160: 7128 173b 23b0 f1b8 c31f 733a 0458 0eba
00000170: 7497 5939 955e ffb8 f348 dd39 0000 0000
00000180: 47d6 f139 4e69 30bb 9763 0aba 68a2 16b9
00000190: beec 64b8 4af3 3038 ef2c 8a38 8583 a2b9
000001a0: 0c86 983a 0000 0000 09ea c338 4a2b 24ba
000001b0: 40df f138 8807 ecb3 dcd5 0f3a df5f 6a39
000001c0: 0dee 5db9 3883 eb39 9ac8 8339 0000 0000
000001d0: 00b1 8c3a e710 8cb9 46d0 203a 508d 1338
000001e0: 7d87 b4b9 a031 293a 4833 6db7 8f34 25ba
000001f0: 0286 1f3b 0000 0000 c619 803a 65db 1c3a
00000200: 6021 f9b7 10a0 e8b8 7217 beb8 8da1 9838
00000210: be94 c9b9 5bce 9239 9894 063a 0000 0000
00000220: 4f19 8bba f0f4 b739 65e3 bbba f5db fb37
00000230: c01d 223a fdc4 8b39 ea33 08ba 69a5 8139
00000240: 513a 4fb7 0000 0000 803f e5b7 9fe6 8037
00000250: aa58 373b a982 1538 a0e0 0ebb c93f 11b9
00000260: c781 803a f522 b3ba 2581 393a 0000 0000
00000270: baf7 82ba fe61 81bb 72c3 71bb 703e 1d36
00000280: 0ef0 54b9 8fac 93ba cef9 63ba cee2 16b6
00000290: e0ae f6ba 0000 0000 9114 11b9 1295 c1ba
000002a0: 5fea c2ba 4726 32b7 ceaa 933a 2e69 d3ba
000002b0: 7d7b c539 20fe c43a 65c7 cb39 0000 0000
000002c0: e044 00ba 596e 06bb 10a5 93bb 973c 6a39
000002d0: 6e94 9aba 1008 a23a f41f 603a de0b 79ba
000002e0: 448e d53a 0000 0000 0819 bab8 ca12 953a
000002f0: 7417 a23a 42f0 09b9 bba4 8b39 48ad 35ba
00000300: 059f 90b8 264a 7db9 fc0b 3139 0000 0000
00000310: 5ff0 f038 032d b5ba 644e 4fba 6de0 48b7
00000320: 9e4e 8739 8464 e1b9 63b5 4f38 b2fd 8439
00000330: cefa 51ba 0000 0000 11c5 9939 7acc 8fb9
00000340: 39bc 3cb7 acf8 1ab8 4d23 71b9 c208 dab8
00000350: dbb5 b438 5e8c 31ba 74ca 683a 0000 0000
00000360: 5e34 ddb9 f4a9 313a e9cd 5cba 25f1 3337
00000370: 861b 5d37 b383 0fba 3713 0639 c432 0bba
00000380: 95f1 a6ba 0000 0000 9db5 d3ba 97dd 1239
00000390: f336 6dba ad6d de37 6123 913a a620 2e3a
000003a0: 20b2 4cb9 76a9 f5b8 ae06 5cba 0000 0000
000003b0: fdce 32b9 64d5 bd3a d1a2 083b f247 dc38
000003c0: d544 063b ad0a d73a 09a3 183a 7ae6 d239
000003d0: 86a3 4639 0000 0000 4e19 4239 f0da 313a
000003e0: 60dc a33b e235 a8b7 9632 45ba 6b6f aeb9
000003f0: fd3a 87b9 6de6 2aba 0281 96ba 0000 0000
