trained-models/ppoc-mujoco-four-rooms.pth (torch_old, 77755 bytes, 39 tensors)

body.layers.0.weight f4 [64, 7]
0.19331047 -0.21195826 -0.016724182 0.38004294 -0.17633288 -0.14406472 0.14377202 -0.1906906
-0.17143254 0.15286194 0.15856822 0.23671713 -0.41892266 0.01683936 0.15480737 -0.039071713
0.7483594 0.18297055 -0.05485141 0.021067465 -0.037748013 -0.1490068 0.011165595 0.85821295
0.27635834 -0.04004818 -0.17536354 0.028771782 0.32245177 0.18448095 0.85405785 0.0067532444
-0.13289458 0.2946075 -0.045665346 0.036800466 -0.30549514 0.62782264 0.10083446 0.03125624
-0.12273038 0.43401098 -0.20488794 -0.122382395 0.25489232 0.14200209 0.113227405 -0.5157136
-0.12856585 -0.09594991 -0.20634663 0.68055797 0.06706445 -0.06859229 -0.056879528 0.05888737
0.15689823 0.11617667 0.7950116 0.14555831 -0.29564312 0.21629755 0.10240615 -0.1500187
-0.012533362 0.5244302 0.4157661 0.105407916 -0.13949655 -0.15916324 0.19590311 -0.09812273
-0.6783959 0.18327233 0.31286275 0.39144656 0.17013195 -0.24430744 -0.120476976 0.49003094
0.3841599 0.19999713 -0.20214786 -0.032147527 -0.27510235 -0.22147825 0.4865247 0.3802374
-0.27854034 -0.33246917 -0.13453695 0.0610827 -0.2512765 0.08452469 0.52405864 -0.26686165
-0.07731513 0.107792296 0.10571123 0.10850634 0.6888242 -0.05631517 -0.10945969 0.119392216
0.044279944 0.038198978 -0.07952826 0.69631237 0.1879108 -0.0226731 -0.26521388 0.19661938
0.2548148 0.0068079815 0.80419916 0.19293986 -0.04288675 -0.040004145 -0.022344416 0.0006761244
-0.13829528 0.52835244 0.2320024 -0.17417908 -0.08970606 -0.017179359 -0.1300212 -0.109744176
0.18471017 0.265201 0.2651714 -0.37987033 -0.064560495 0.083692916 -0.34346324 -0.4235475
-0.54801756 0.46908352 -0.028270645 0.14446048 -0.24230646 -0.21770875 -0.14832756 -0.36357188
0.47814724 0.04100393 0.12154415 0.2630658 -0.13741876 -0.6823847 -0.44297045 0.522327
-0.05516701 0.30206966 -0.033735372 -0.3390531 0.2341868 -0.09924171 0.291181 -0.39734143
0.024697928 0.099448785 -0.25640482 0.2812435 0.38668832 -0.2148904 -0.23967998 0.34683058
-0.02237442 -0.28551808 -0.72483754 0.34305423 0.3323742 0.35089314 0.2147459 0.2871178
0.113440864 0.6024731 0.13448605 -0.23586066 0.43817905 0.0013690321 -0.5747943 -0.16721179
0.59918386 0.20961052 -0.13889794 0.039675824 0.11104078 0.05413628 0.08871626 0.59986997
0.1492414 -0.08348037 0.016680742 -0.060854428 0.2117415 -0.21572874 -0.73836946 -0.4492779
0.5008277 -0.08472032 0.06813088 0.06561814 -0.19826022 0.26600578 0.23582935 -0.28440863
-0.23639838 0.16007836 0.3373423 0.1363074 0.5401701 0.056633256 -0.20067635 0.39893457
0.21944615 0.016415449 -0.34218928 0.6444104 0.09569184 -0.12521182 -0.14568222 0.21796662
0.33813116 0.23318826 0.51061434 0.005876601 -0.17087023 0.4463574 0.20826782 0.14070207
-0.40990227 -0.4052183 -0.19761911 0.18751107 -0.18183962 0.20599706 0.22118708 -0.77136755
-0.58527535 0.33930933 -0.0064455094 -0.21569496 0.20623805 0.17387989 -0.048641466 0.8939666
0.41492942 -0.12817605 -0.08518843 0.14876522 0.09815977 -0.0695247 0.701967 0.1835138
00000000: 2ef3 453e 960b 59be 2701 89bc fd94 c23e
00000010: 9b90 34be b485 13be f938 133e 6644 43be
00000020: 038c 2fbe d787 1c3e b55f 223e fa65 723e
00000030: 087d d6be b3f2 893c d385 1e3e a909 20bd
00000040: 7b94 3f3f a25c 3b3e dfab 60bd ad95 ac3c
00000050: a99d 1abd 3d95 18be e6ef 363c d8b3 5b3f
00000060: d77e 8d3e 8f09 24bd 8092 33be cdb2 eb3c
00000070: 6618 a53e 93e8 3c3e 89a3 5a3f 524a dd3b
00000080: 8415 08be cbd6 963e 960b 3bbd 16bc 163d
00000090: dc69 9cbe fcb8 203f 4c82 ce3d 8b06 003d
000000a0: 115a fbbd b036 de3e 25ce 51be 9fa3 fabd
000000b0: 3f81 823e ff68 113e c5e3 e73d ce05 04bf
000000c0: c4a6 03be 6381 c4bd 884c 53be 0c39 2e3f
000000d0: 1659 893d 1d7a 8cbd 82fa 68bd e233 713d
000000e0: eea9 203e 09ee ed3d e185 4b3f 3d0d 153e
000000f0: 895e 97be 1b7d 5d3e 51ba d13d 819e 19be
00000100: bb58 4dbc 0f41 063f 4bdf d43e 1be0 d73d
00000110: 2fd8 0ebe b0fb 22be d39a 483e 92f4 c8bd
00000120: 5bab 2dbf beab 3b3e 8c2f a03e af6b c83e
00000130: 1237 2e3e bb2b 7abe a2bc f6bd 56e5 fa3e
00000140: 9bb0 c43e 0ccc 4c3e d9ff 4ebe 20ad 03bd
00000150: 37da 8cbe 32cb 62be c419 f93e 7aae c23e
00000160: d79c 8ebe 6639 aabe 0ec4 09be da31 7a3d
00000170: 50a7 80be 481b ad3d b528 063f 17a2 88be
00000180: 6557 9ebd 35c2 dc3d 217f d83d 9238 de3d
00000190: c856 303f bcaa 66bd 672c e0bd e883 f43d
000001a0: e35e 353d 8876 1c3d b6df a2bd 8741 323f
000001b0: b06b 403e f0bc b9bc 1dca 87be 9756 493e
000001c0: 1677 823e 7d15 df3b ffdf 4d3f 0792 453e
000001d0: 04aa 2fbd 63db 23bd a30b b7bc f13d 313a
000001e0: 479d 0dbe 1b42 073f 0a92 6d3e 005c 32be
000001f0: d0b7 b7bd babb 8cbc 4724 05be 8ec1 e0bd
00000200: aa24 3d3e 6dc8 873e 8cc4 873e 5d7e c2be
00000210: 4b38 84bd 3167 ab3d 6ada afbe 38db d8be
00000220: e14a 0cbf b72b f03e d797 e7bc 73ed 133e
00000230: 2f1f 78be 0bef 5ebe 2ee3 17be 1826 babe
00000240: b7cf f43e bdf3 273d 24ec f83d 8fb0 863e
00000250: 81b7 0cbe c4b0 2ebf 06cd e2be 39b7 053f
00000260: cdf6 61bd e0a8 9a3e 1a2e 0abd 5e98 adbe
00000270: aace 6f3e 3d3f cbbd ad15 953e 5670 cbbe
00000280: 4f53 ca3c ceab cb3d 7e47 83be 26ff 8f3e
00000290: 03fc c53e 3b0c 5cbe ab6e 75be c793 b13e
000002a0: 8f4a b7bc 6d2f 92be f48e 39bf cea4 af3e
000002b0: f32c aa3e 44a8 b33e 59e6 5b3e 1b01 933e
000002c0: af53 e83d ad3b 1a3f b6b6 093e 7585 71be
000002d0: 0159 e03e 1871 b33a b825 13bf 9139 2bbe
000002e0: 1d64 193f 24a4 563e 433b 0ebe 1e83 223d
000002f0: 5969 e33d 01be 5d3d dfb0 b53d 1491 193f
00000300: bdd2 183e c2f7 aabd 0da6 883c 7e42 79bd
00000310: c4d2 583e ffe7 5cbe c805 3dbf c107 e6be
00000320: 3f36 003f d981 adbd 3488 8b3d ce62 863d
00000330: ba04 4bbe e931 883e 407d 713e 029e 91be
00000340: 6b12 72be 95eb 233e 21b8 ac3e 2b94 0b3e
00000350: 9648 0a3f 46f8 673d 1a7e 4dbe 2741 cc3e
00000360: 7eb6 603e b179 863c 6f33 afbe 14f8 243f
00000370: 15fa c33d 8737 00be b82d 15be a432 5f3e
00000380: 871f ad3e e7c8 6e3e 9fb7 023f 8190 c03b
00000390: 9bf8 2ebe f588 e43e 2944 553e 3414 103e
000003a0: b6de d1be c678 cfbe aa5c 4abe e702 403e
000003b0: 2a34 3abe e5f0 523e de7e 623e 5878 45bf
000003c0: 9bd4 15bf f4b9 ad3e da34 d3bb 24df 5cbe
000003d0: 1130 533e 920d 323e 463c 47bd ffda 643f
000003e0: a171 d43e 9540 03be 4677 aebd e955 183e
000003f0: fd07 c93d f762 8ebd 1cb4 333f 0beb 3b3e

body.layers.0.bias f4 [64]
0.22721183 -0.014520851 0.21125472 0.16376957 0.27017146 0.27370957 0.1813512 0.34136784
0.091948494 0.28002793 0.19353655 0.09228593 -0.0062400317 0.2626969 0.10372777 0.3019044
0.22497481 0.18730238 0.38148537 0.00831963 -0.1593208 0.16574125 0.050197273 0.38390398
0.05255147 0.354267 0.2083008 0.07025828 0.17171568 0.22968704 0.3242024 0.20155871
0.2441653 0.13658857 0.34871027 0.18022755 0.33840367 0.12943302 0.009368112 0.2908083
0.16198432 0.24841143 0.10893511 0.40641955 0.123038396 0.031923503 0.2893163 0.116075255
0.10779929 -0.106295794 -0.055260368 0.17282899 0.23171431 0.1903019 0.20270525 0.109260276
-0.02502389 -0.038681652 0.11179821 0.06672089 -0.0003647508 0.18077432 0.01941569 0.111129165
00000000: 38aa 683e dde8 6dbc 2853 583e 36b3 273e
00000010: ea53 8a3e a923 8c3e 21b4 393e c4c7 ae3e
00000020: 7e4f bc3d d25f 8f3e 722e 463e 6800 bd3d
00000030: 2e79 ccbb 3580 863e 3a6f d43d 3793 9a3e
00000040: cc5f 663e 32cc 3f3e 0d52 c33e 0f4f 083c
00000050: fe24 23be 13b8 293e a89b 4d3d 108f c43e
00000060: 3640 573d 7c62 b53e ce4c 553e 93e3 8f3d
00000070: 3cd6 2f3e 1433 6b3e dbfd a53e 6865 4e3e
00000080: 7806 7a3e e0dd 0b3e 278a b23e 928d 383e
00000090: 3f43 ad3e 178a 043e b67c 193c d3e4 943e
000000a0: 38df 253e 915f 7e3e 5f19 df3d 3916 d03e
000000b0: 8efb fb3d 38c2 023d 4421 943e ddb8 ed3d
000000c0: e0c5 dc3d 9cb1 d9bd b258 62bd 15fa 303e
000000d0: 8446 6d3e 80de 423e f791 4f3e dac3 df3d
000000e0: e7fe ccbc a770 1ebd 76f6 e43d f6a4 883d
000000f0: 063c bfb9 e71c 393e a70d 9f3c b097 e33d

body.layers.1.weight f4 [64, 64]
-0.17247276 0.029330648 0.21049841 0.32052785 -0.051134653 0.00025765176 -0.015761785 0.13000807
0.1667566 0.05491286 -0.025750056 0.14051516 0.3067861 -0.1011399 -0.068047784 0.25236526
-0.10134536 0.037445396 0.08749505 -0.49111527 -0.13162547 -0.16828912 0.21843426 -0.19250141
-0.16003215 -0.06634825 0.09409439 -0.05566073 -0.33992416 0.08865736 0.30614728 0.119560234
0.12983906 -0.53555065 -0.07645333 0.29441792 0.3370279 -0.39315644 0.11116669 0.27722296
0.24694286 -0.4175376 -0.07779416 0.31050152 -0.13716534 -0.29699835 0.08050092 0.19050933
0.19952086 0.08104414 -0.10058136 0.103939824 -0.12876253 0.072119206 -0.09065463 -0.21848129
0.12739141 0.47735995 -0.13740717 0.059777647 0.096914984 0.30021593 0.07071899 0.22031817
0.13326438 -0.025261695 0.13191535 0.08100757 -0.35093498 0.04615481 -0.11339647 -0.123680964
-0.31968927 0.0771129 -0.22045076 0.18896286 0.18239915 0.30308807 -0.38735127 -0.119418345
-0.104134426 -0.05656862 -0.009713061 0.035717413 -0.12148899 -0.08913614 -0.16845605 0.039670084
-0.32385916 -0.2034865 0.14168534 -0.06263154 0.09357668 -0.16866332 -0.31175283 0.09135444
-0.2673376 -0.17136645 0.025113542 -0.21723142 0.24572732 -0.46555084 -0.105314724 -0.30532596
0.13983893 -0.35319638 0.08330611 0.091547824 0.02562526 -0.3607325 0.23130178 0.18343388
-0.18556638 -0.05838926 0.12340499 -0.28118703 -0.26240245 -0.033928044 0.024927609 0.0121462485
-0.04974351 0.20853548 -0.2835808 0.047337297 0.056921497 -0.13434596 0.058907453 -0.0015031595
-0.07250467 -0.01848149 0.13685149 0.4847357 0.011819964 0.24581698 -0.058152586 0.17091234
-0.04133163 -0.10578517 0.1320657 0.18292828 0.11859025 -0.20467071 0.043928035 0.1868038
0.011493185 0.0005875799 0.07314415 -0.2333593 -0.08144356 -0.46233344 0.20539029 0.021017479
-0.08786939 -0.11459311 0.21268265 0.116223745 -0.34402236 -0.2071717 -0.034362935 0.19545487
0.11448019 -0.17254525 -0.12827477 0.08088993 0.08019718 -0.42896816 -0.040203616 0.45520893
0.19620502 -0.4213867 -0.05641313 0.3591022 -0.037606552 -0.39010686 0.08076449 -0.19109912
0.027613591 -0.10144362 -0.024727685 0.21427241 -0.26625255 -0.010200919 -0.027445028 -0.23920807
0.19431353 0.031827968 -0.27495676 -0.15191914 0.31438935 0.5246411 -0.16356577 0.2423401
0.06034495 0.20698656 0.062731735 0.16929059 0.19848843 0.094840534 -0.15802255 0.051242556
-0.037282813 -0.30549917 -0.01031404 0.07864558 0.1400182 -0.15942751 0.08243619 0.028516041
-0.0074317227 0.25153166 -0.08316705 -0.26164076 -0.20776775 -0.5175688 0.010600541 -0.062615216
-0.39911726 0.07033804 0.1418744 0.017083112 -0.5375612 0.020050474 0.03110553 0.048095625
-0.019512488 -0.39442584 0.027128503 -0.015604968 0.13451323 -0.31789473 0.1763564 0.43754134
0.07218867 -0.2907573 0.0034971978 0.5151778 -0.04190112 -0.30493304 -0.37123182 0.28646016
0.15590328 -0.020445634 0.051468693 0.19208506 -0.1595638 0.31738594 0.043117236 -0.20899512
0.3822475 0.063010365 -0.010325101 -0.3246356 0.08827084 0.045828495 0.22695954 0.09073904
00000000: b39c 30be d446 f03c e58c 573e 3a1c a43e
00000010: 9272 51bd 6f15 8739 dc1e 81bc d620 053e
00000020: 3ec2 2a3e 4fec 603d c8f1 d2bc 35e3 0f3e
00000030: 1113 9d3e 7022 cfbd a35c 8bbd 0536 813e
00000040: 288e cfbd 5860 193d 9b30 b33d 7673 fbbe
00000050: d4c8 06be fc53 2cbe 3bad 5f3e 171f 45be
00000060: 78df 23be 97e1 87bd 8fb4 c03d 81fc 63bd
00000070: 8a0a aebe fd91 b53d 56bf 9c3e ffdb f43d
00000080: 88f4 043e d919 09bf 9093 9cbd f2bd 963e
00000090: ec8e ac3e cd4b c9be 5dab e33d 2bf0 8d3e
000000a0: 97de 7c3e 7dc7 d5be 8b52 9fbd 0efa 9e3e
000000b0: 1275 0cbe 2b10 98be abdd a43d e114 433e
000000c0: 324f 4c3e 78fa a53d 9afd cdbd 67de d43d
000000d0: 53da 03be 3cb3 933d 22a9 b9bd 8fb9 5fbe
000000e0: e572 023e 8668 f43e 77b4 0cbe 68d9 743d
000000f0: 5d7b c63d e7b5 993e 1ed5 903d 169b 613e
00000100: 7576 083e 9df1 cebc d114 073e 4ce7 a53d
00000110: c0ad b3be d30c 3d3d 693c e8bd 724c fdbd
00000120: 50ae a3be 5eed 9d3d d8bd 61be 7b7f 413e
00000130: d8c6 3a3e 5c2e 9b3e e852 c6be 9b91 f4bd
00000140: 6e44 d5bd 7fb4 67bd 8823 1fbc 6c4c 123d
00000150: 38cf f8bd 028d b6bd be7f 2cbe 197d 223d
00000160: ded0 a5be c45e 50be f615 113e f744 80bd
00000170: 21a5 bf3d 14b6 2cbe 119e 9fbe 0918 bb3d
00000180: 79e0 88be b07a 2fbe eaba cd3c ea71 5ebe
00000190: f19f 7b3e ae5c eebe 3faf d7bd af53 9cbe
000001a0: f031 0f3e 28d6 b4be 659c aa3d 6d7d bb3d
000001b0: 11ec d13c eeb1 b8be 60da 6c3e 17d6 3b3e
000001c0: 1d05 3ebe 9429 6fbd c1bb fc3d bff7 8fbe
000001d0: 9d59 86be 22f8 0abd fc34 cc3c 0f01 473c
000001e0: dabf 4bbd 538a 553e 8131 91be c1e4 413d
000001f0: 8426 693d fd91 09be f148 713d aa05 c5ba
00000200: 547d 94bd 7e66 97bc cc22 0c3e 472f f83e
00000210: 86a8 413c 72b7 7b3e 6831 6ebd a503 2f3e
00000220: 5b4b 29bd e5a5 d8bd 3b3c 073e 8d51 3b3e
00000230: 72df f23d 3395 51be e2ed 333d 7f49 3f3e
00000240: e94d 3c3c d207 1a3a 9acc 953d bef5 6ebe
00000250: e2cb a6bd f8b6 ecbe d551 523e d92c ac3c
00000260: def4 b3bd cbaf eabd 7bc9 593e b706 ee3d
00000270: b323 b0be d124 54be 26c0 0cbd 5225 483e
00000280: 9774 ea3d b4af 30be 765a 03be 9fa9 a53d
00000290: 6b3e a43d b7a1 dbbe 8cac 24bd 2511 e93e
000002a0: f8e9 483e ffbf d7be 7411 67bd 3edc b73e
000002b0: 5409 1abd 16bc c7be da67 a53d 7daf 43be
000002c0: e635 e23c acc1 cfbd b791 cabc 3a6a 5b3e
000002d0: 4152 88be c121 27bc 65d4 e0bc f6f2 74be
000002e0: 20fa 463e 0b5e 023d 22c7 8cbe b190 1bbe
000002f0: a4f7 a03e e14e 063f c97d 27be 0128 783e
00000300: 442c 773d 49f4 533e 7f79 803d 835a 2d3e
00000310: 8d40 4b3e c13b c23d aad0 21be b7e3 513d
00000320: ddb5 18bd 636a 9cbe 38fc 28bc ef10 a13d
00000330: ee60 0f3e f740 23be 4ed4 a83d 799a e93c
00000340: cf85 f3bb c2c8 803e 7c53 aabd c7f5 85be
00000350: 12c1 54be 647f 04bf e4ad 2d3c 683c 80bd
00000360: 1959 ccbe 640d 903d 8647 113e e2f1 8b3c
00000370: 9c9d 09bf e440 a43c 06d1 fe3c ebff 443d
00000380: a7d8 9fbc 2ff2 c9be 983c de3c fbab 7fbc
00000390: d6bd 093e 19c3 a2be c696 343e 6b05 e03e
000003a0: a7d7 933d 24de 94be 3e31 653b b1e2 033f
000003b0: 82a0 2bbd 2f20 9cbe 1912 bebe e8aa 923e
000003c0: 1ca5 1f3e 9a7d a7bc d6d0 523d f2b1 443e
000003d0: b164 23be 6980 a23e b39b 303d d102 56be
000003e0: f2b5 c33e 940b 813d 9d2a 29bc a336 a6be
000003f0: 58c7 b43d a9b6 3b3d 1568 683e 64d5 b93d

body.layers.1.bias f4 [64]
-0.020868734 -0.11008206 0.035526898 -0.030070743 0.09035194 -0.11065081 -0.05970377 0.03794232
-0.13620996 -0.058746915 0.0372514 0.08645056 0.1012016 0.3702074 0.052237656 0.035597455
0.034369245 -0.0486886 0.023739526 -0.13036719 -0.08790962 -0.14141482 0.07949924 0.06909374
0.01047942 0.058025025 0.21117751 -0.011741109 -0.09073457 -0.021608127 0.06280324 -0.034845382
0.21449219 0.04692217 0.014720393 0.19243746 -0.080645144 -0.03003911 0.00072122295 -0.0070331846
0.056678988 0.06261741 0.06516657 0.040205795 -0.08230125 0.24435383 0.3678151 0.00082963303
-0.015398399 0.03875303 0.010404602 -0.10338701 0.29039982 0.04832031 0.08730521 0.47313967
0.37938604 -0.01872492 -0.0691141 0.40561923 0.1850935 0.0026182488 -0.004387616 -0.084830984
00000000: e8f4 aabc b472 e1bd a784 113d eb56 f6bc
00000010: 700a b93d e49c e2bd f18b 74bd 6869 1b3d
00000020: a07a 0bbe 9ba0 70bd ed94 183d fe0c b13d
00000030: c942 cf3d d38b bd3e 27f7 553d a3ce 113d
00000040: c4c6 0c3d b36d 47bd 6579 c23c fa7e 05be
00000050: f509 b4bd 0ccf 10be 7fd0 a23d 0581 8d3d
00000060: e0b1 2b3c a6ab 6d3d eb3e 583e c85d 40bc
00000070: 0cd3 b9bd 8703 b1bc fc9e 803d 08ba 0ebd
00000080: d7a3 5b3e 7631 403d ce2d 713c 530e 453e
00000090: 4829 a5bd 9414 f6bc 7410 3d3a a176 e6bb
000000a0: 3a28 683d 8f3d 803d 0d76 853d d5ae 243d
000000b0: 8f8d a8bd e437 7a3e 4352 bc3e bb7b 593a
000000c0: 9149 7cbc 7fbb 1e3d 1078 2a3c 92bc d3bd
000000d0: 49af 943e 84eb 453d 13cd b23d 5d3f f23e
000000e0: e33e c23e 0165 99bc b18b 8dbd 53ad cf3e
000000f0: 2789 3d3e ed96 2b3b fec5 8fbb debb adbd

actor_head.fc.weight f4 [8, 64]
0.011116576 -0.00041046803 0.027505642 -0.0021524343 0.0077308635 -0.018050073 0.001691199 0.0141950995
-0.029222207 0.009970209 -0.0023734118 0.0031214007 0.02166791 -0.002243013 -0.030224912 0.0059122248
-0.00041528858 0.0068387724 0.0067420257 -0.019029822 0.037239857 -0.016135646 0.01730146 0.013421487
0.010833576 0.008845276 0.0034708425 0.001173722 -0.026707517 0.0045138 0.0024116528 0.012775502
-0.009699158 0.01417473 -0.0046288315 0.0015995075 -0.014427924 -0.004221723 0.0022935763 0.0046427585
0.010905004 -0.0026674904 -0.0019333962 0.004411943 -0.0052862098 -0.027617399 0.017040325 -0.005590898
0.0043072584 0.005030104 0.0057127043 -0.0029346023 0.009037904 -0.006255609 0.017443456 -0.014877472
-0.00563367 0.004632937 -0.009295928 -0.019419584 0.016334152 0.011730381 0.010776755 -0.0119781615
0.0022861615 -0.0066886726 -0.01709218 0.010661287 -0.007523168 0.008065975 -0.005568411 0.0034736106
0.0019268753 -0.018368792 -0.0018574556 -0.014447501 -0.009599405 -0.010727226 0.017886352 0.006712255
0.0042547537 0.0073034847 0.006671188 0.00083339436 -0.0071395757 -0.0083987 0.013026088 0.008298093
-0.000328972 0.0047678924 -0.012653416 0.0105757555 -0.0057768715 -0.0023718777 0.0030819094 0.00057170296
-5.378825e-05 -0.00837377 0.0059335018 0.0008181364 -0.0009490607 -0.0024814801 -0.004689118 0.0064459317
-0.00047948863 -0.011637505 0.006009484 -0.0037490097 0.0116674425 -0.0058530048 0.0068098675 0.008560809
-0.00070366805 -0.0010292695 0.0026043912 -0.0058582015 0.0026626268 0.0016901362 -0.0074994923 -0.008085054
-0.01844113 0.001726917 -0.0008515498 0.016170552 -0.0053437576 -0.0021969653 -0.0036927257 0.010839635
0.009599423 0.008766813 0.022662828 0.0023543506 0.014543846 0.011194675 0.015237261 -0.0027360083
0.00845433 0.0075836256 0.014616789 0.0052993186 0.0066398485 0.015478737 0.012061131 0.00020800457
0.024168571 0.016046235 0.001983594 -0.0023339961 -0.028668912 0.013921315 -0.000904025 0.01742574
-0.0018030338 0.0002063118 0.00080499507 -0.011115493 0.001744264 0.008084112 -0.0056927227 0.013461411
0.012120776 0.0034242626 0.021062924 0.010330064 -0.00071845186 0.024957014 -0.006650752 -0.0004565663
0.008901915 0.00920104 0.0005010295 0.012289517 0.0030732027 0.0013913675 -0.0052931174 -0.0046995184
-0.00020807238 0.016430954 -0.006238743 -0.004172211 0.0059399614 0.0002411827 -0.009885815 0.016544938
0.0020193874 -0.006727331 -0.006451205 -0.00388109 0.019993838 -0.0012206413 0.013319285 -0.0022357549
0.004079872 -0.0027401866 -0.007355557 0.009355193 -0.0113583915 -0.0035539372 -0.009962162 -8.504415e-05
-0.016137425 -0.0018203828 -0.0009840566 -0.03809434 0.0012722875 -0.059391007 -0.003411191 -0.0034694844
-0.012669711 -0.0009970865 -0.014014074 -0.015510498 -0.013382492 0.012355047 -0.011811742 0.007826835
0.007606204 -0.007456013 0.002197758 0.009032994 0.0065163383 -0.01422541 -0.001958502 -0.014956713
-0.011923763 -0.012385759 -0.014183223 -0.01301509 -0.015171769 -0.020383613 -0.0130187925 -0.0014168749
-0.005309878 -0.015543474 -0.015949577 -0.010750185 -0.0015714567 -0.010154948 -0.0721821 0.0028326272
0.0011407228 -0.0037397414 -0.004209628 -0.01015149 -0.014275002 0.0025703267 -0.015076378 0.0012285465
-0.0013082989 -0.004119228 -0.006961275 0.004495576 0.012511444 0.002060774 -0.025074366 -0.00773121
00000000: 4d22 363c 1634 d7b9 8353 e13c db0f 0dbb
00000010: 2f53 fd3b bfdd 93bc 39ab dd3a 9092 683c
00000020: 6963 efbc 165a 233c 3e8b 1bbb 6a90 4c3b
00000030: e780 b13c 83ff 12bb 3c9a f7bc 56bb c13b
00000040: 17bb d9b9 c817 e03b 36ec dc3b 6ee4 9bbc
00000050: d288 183d e72e 84bc cbbb 8d3c cce5 5b3c
00000060: 507f 313c c7eb 103c 1377 633b 93d7 993a
00000070: b9c9 dabc 80e8 933b d20c 1e3b 5750 513c
00000080: 38e9 1ebc 203d 683c 74ad 97bb 91a6 d13a
00000090: 1963 6cbc 6156 8abb d34f 163b 4822 983b
000000a0: e7aa 323c 10d1 2ebb 036a fdba 0f92 903b
000000b0: f137 adbb e23d e2bc 2798 8b3c da33 b7bb
000000c0: e723 8d3b 92d3 a43b a331 bb3b 7552 40bb
000000d0: b813 143c dafb ccbb 94e5 8e3c a4c0 73bc
000000e0: a69a b8bb e4cf 973b f34d 18bc d215 9fbc
000000f0: 33cf 853c c930 403c fd90 303c 0d40 44bc
00000100: 6dd3 153b a72c dbbb e604 8cbc aeac 2e3c
00000110: e884 f6bb 2727 043c 3877 b6bb 84a5 633b
00000120: 358f fc3a 267a 96bc de75 f3ba 36b5 6cbc
00000130: d346 1dbc 3fc1 2fbc 6686 923c 7af2 db3b
00000140: 766b 8b3b 1252 ef3b fb99 da3b 2678 5a3a
00000150: 1af3 e9bb b39a 09bc 5f6b 553c baf4 073c
00000160: e079 acb9 fb3b 9c3b 4650 4fbc ef45 2d3c
00000170: e94b bdbb 8171 1bbb dcf9 493b 56de 153a
00000180: b29a 61b8 2332 09bc d26d c23b 3478 563a
00000190: 63ca 78ba 54a0 22bb 2ca7 99bb 6538 d33b
000001a0: e063 fbb9 3cab 3ebc 35eb c43b f2b1 75bb
000001b0: cd28 3f3c 90ca bfbb 4f25 df3b a342 0c3c
000001c0: 5d76 38ba 8ee8 86ba 6fae 2a3b 28f6 bfbb
000001d0: 777f 2e3b 8f87 dd3a 4dbe f5bb 2d77 04bc
000001e0: da11 97bc b859 e23a 8a3a 5fba 1b78 843c
000001f0: b01a afbb f6fa 0fbb a801 72bb b998 313c
00000200: e646 1d3c aea2 0f3c 65a7 b93c 734b 1a3b
00000210: 5049 6e3c df69 373c b4a5 793c 9a4e 33bb
00000220: 0884 0a3c 1080 f83b 427b 6f3c e8a5 ad3b
00000230: 1693 d93b 879a 7d3c 0d9c 453c cd1b 5a39
00000240: 2bfd c53c 6573 833c 2fff 013b f5f5 18bb
00000250: 11db eabc 3a16 643c 17fc 6cba 6dc0 8e3c
00000260: c653 ecba 6755 5839 4e06 533a c21d 36bc
00000270: ca9f e43a 3973 043c 058a babb 408d 5c3c
00000280: 3896 463c 9869 603b 278c ac3c 6e3f 293c
00000290: 7d56 3cba a772 cc3c 8dee d9bb 4b5f efb9
000002a0: 56d9 113c f5bf 163c 8557 033a f859 493c
000002b0: c967 493b 8c5e b63a e371 adbb 6bfe 99bb
000002c0: 012e 5ab9 359a 863c 5f6e ccbb 0bb7 88bb
000002d0: 02a4 c23b fde5 7c39 1df8 21bc 4089 873c
000002e0: b357 043b f170 dcbb a164 d3bb e359 7ebb
000002f0: 1eca a33c edfd 9fba 2139 5a3c be85 12bb
00000300: 72b0 853b b494 33bb e206 f1bb 8646 193c
00000310: 8c18 3abc 2ce9 68bb 5638 23bc bb59 b2b8
00000320: a232 84bc e999 eeba 76fb 80ba d008 1cbd
00000330: e2c2 a63a fc43 73bd 4a8e 5fbb 4a60 63bb
00000340: 9f94 4fbc acb0 82ba 499b 65bc be1f 7ebc
00000350: 3d42 5bbc d36c 4a3c 0986 41bc 203c 003c
00000360: 773d f93b 9251 f4bb 4308 103b 1fff 133c
00000370: 0287 d53b b211 69bc 365a 00bb 000d 75bc
00000380: e35b 43bc a3ed 4abc c060 68bc 3e3d 55bc
00000390: 0393 78bc 89fb a6bc c64c 55bc 6fb6 b9ba
000003a0: 7cfe adbb 0eaa 7ebc b0a8 82bc 8b21 30bc
000003b0: 56f9 cdba f060 26bc 35d4 93bd 99a3 393b
000003c0: 4e84 953a 7316 75bb ebf0 89bb 6f52 26bc
000003d0: b3e1 69bc ed72 283b ea02 77bc 2e07 a13a
000003e0: 3a7b abba 97fa 86bb 681b e4bb a04f 933b
000003f0: cdfc 4c3c 0d0e 073b c268 cdbc 1756 fdbb

actor_head.fc.bias f4 [8]
-0.030719433 -0.02057302 0.0088304095 -0.021307928 0.030785553 0.0034003824 -0.15560998 0.035468042
00000000: 52a7 fbbc c088 a8bc 6cad 103c f78d aebc
00000010: fc31 fc3c f3d8 5e3b 3958 1fbe f046 113d

qo_head.fc.weight f4 [4, 64]
-0.051808987 -0.07238599 -0.044626996 -0.04636511 -0.011806268 -0.05299638 0.10352052 -0.037234697
-0.12813275 0.062197562 0.11072045 0.12872276 -0.0187564 -0.054342963 0.050450865 -0.1920663
-0.042502653 -0.17343459 0.027056592 0.09587292 0.03280011 0.037651677 0.01980934 0.12932827
-0.037298888 0.1347554 0.050485097 -0.0053889267 0.051919647 0.17223279 -0.023007574 -0.14518824
-0.006023366 0.08520806 -0.025765534 -0.111528546 0.022978293 0.2893518 -0.13298823 0.034140036
-0.097106576 -0.07428256 -0.104088664 -0.15561791 0.08065334 -0.025616402 0.0018341201 -0.22523205
-0.06791293 0.08709141 -0.040317707 -0.03856263 0.11561143 -0.08453357 0.028270321 0.015745645
-0.07864662 0.024500316 0.070891626 -0.013267954 0.035280533 0.16643825 -0.045339543 -0.023315027
-0.010235403 0.08483237 0.031141806 0.14754543 0.032011822 -0.029559387 0.12328508 -0.088958524
-0.08917623 0.04912623 0.008023655 -0.05428184 -0.20293528 -0.069282636 0.027521843 0.24737646
0.09734373 -0.08188635 -0.16090211 -0.093523294 0.09168174 0.13893044 -0.043421593 -0.039445587
0.012290544 -0.0688042 -0.05695767 -0.03260002 0.071769245 0.008244931 0.14460665 -0.09095118
0.20950817 -0.054093644 0.0051417626 0.14174068 -0.02629389 0.14383051 -0.1920386 -0.07833104
0.12467391 -0.026665855 0.17814928 -0.1660535 -0.12794478 -0.037556604 0.15515968 0.040623333
-0.053851377 -0.020042317 -0.001399037 0.24231781 -0.15935485 0.036250327 0.006336212 -0.17060114
0.17886102 -0.15076314 -0.071812734 0.1270611 0.11347112 -0.1516347 0.05584973 0.11164637
-0.036268257 -0.077637255 0.097375244 0.051186923 0.28990585 -0.06790878 -0.09003736 -0.043447062
0.015896786 0.004498527 0.103353746 0.012625687 0.05798825 0.0019832992 -0.03942215 0.14312963
-0.106844164 -0.06553942 -0.04858838 0.11048619 0.06340726 0.07114185 -0.08192916 -0.12652077
0.028977217 -0.14945227 -0.17264089 -0.15711783 -0.089519 -0.09757985 0.01689968 0.07286089
-0.107828304 0.2302826 -0.05604296 0.068602934 0.073118724 0.013623573 -0.023100553 -0.13816354
-0.21033807 0.17316529 -0.058529135 0.057595685 0.01994074 0.034736235 -0.11342359 0.12162431
-0.09710347 -0.028917894 0.053259857 0.17776345 0.086731866 0.040805057 0.029198416 0.0037069425
-0.038643673 -0.12688465 -0.2573099 -0.018674046 -0.16781446 -0.011883495 0.14340378 -0.10501327
-0.18678084 0.02299965 0.030246118 -0.005558996 -0.058637097 0.0047801402 -0.06671591 0.032925867
-0.0039576935 -0.17803758 -0.0042230547 0.0060102707 0.015690299 0.037970316 0.011161523 -0.016614925
0.0057277847 -0.015462306 -0.11306855 0.005081171 -0.017031465 0.020742552 -0.039592583 0.1520853
0.0018921397 0.12238746 -0.0051113744 -0.08662717 0.050880086 -0.05074336 0.060251296 -0.08892975
0.0089694895 -0.0036932311 0.06874614 0.034038085 0.0016583471 0.101065546 -0.04266455 -0.017226545
0.0027764733 0.13700941 0.052255034 0.029639054 -0.002972713 -0.004666355 0.013634372 -0.010105411
-0.06479779 0.12524648 -0.0028598288 -0.0035517535 0.06357855 -0.0028022225 0.025344072 0.019714277
0.027382249 -0.051613353 0.0027535928 -0.0043105455 -0.082459666 -0.010279838 -0.014548716 -0.00067608565
00000000: a935 54bd 1b3f 94bd ccca 36bd 57e9 3dbd
00000010: 146f 41bc bb12 59bd 9102 d43d 6983 18bd
00000020: 3b35 03be dfc2 7e3d 67c1 e23d e6cf 033e
00000030: 06a7 99bc ba96 5ebd 91a5 4e3d 07ad 44be
00000040: 4317 2ebd d698 31be c9a5 dd3c 0559 c43d
00000050: 6859 063d a538 1a3d 3247 a23c a16e 043e
00000060: b8c6 18bd 52fd 093e 76c9 4e3d 9895 b0bb
00000070: b2a9 543d cb5d 303e 617a bcbc 3aac 14be
00000080: a85f c5bb 9081 ae3d 3e12 d3bc 1469 e4bd
00000090: f93c bc3c eb25 943e 112e 08be 6cd6 0b3d
000000a0: d0df c6bd 7421 98bd 702c d5bd 4d5a 1fbe
000000b0: 942d a53d 7dd9 d1bc dc66 f03a 3ba3 66be
000000c0: ef15 8bbd fb5c b23d 2e24 25bd d9f3 1dbd
000000d0: afc5 ec3d f01f adbd 2997 e73c 03fd 803c
000000e0: 7b11 a1bd e3b4 c83c a12f 913d d561 59bc
000000f0: 5282 103d ca6e 2a3e f5b5 39bd 28ff bebc
00000100: 64b2 27bc 98bc ad3d 1a1d ff3c 2616 173e
00000110: d41e 033d 8726 f2bc e37c fc3d e32f b6bd
00000120: 07a2 b6bd 9638 493d a675 033c a256 5ebd
00000130: 44ce 4fbe 0ee4 8dbd 7d75 e13c 4150 7d3e
00000140: 265c c73d 08b4 a7bd 86c3 24be 2489 bfbd
00000150: a3c3 bb3d c843 0e3e d7da 31bd b291 21bd
00000160: 475e 493c 37e9 8cbd 724c 69bd 9987 05bd
00000170: c1fb 923d bf15 073c c413 143e 9d44 babd
00000180: 4f89 563e 4c91 5dbd 3b7c a83b 7824 113e
00000190: 4966 d7bc 4e48 133e c4a5 44be 066c a0bd
000001a0: 0955 ff3d 5a72 dabc c46c 363e ee09 2abe
000001b0: f503 03be f4d4 19bd 2ee2 1e3e a764 263d
000001c0: 4393 5cbd c92f a4bc e45f b7ba 2922 783e
000001d0: eb2d 23be 397b 143d 00a0 cf3b 11b2 2ebe
000001e0: 5827 373e a761 1abe 8e12 93bd 4e1c 023e
000001f0: 8c63 e83d 2046 1bbe b0c2 643d daa6 e43d
00000200: 068e 14bd 4800 9fbd ac6c c73d 61a9 513d
00000210: 8a6e 943e c213 8bbd 8265 b8bd 8cf5 31bd
00000220: fa39 823c 6168 933b 21ab d33d f8db 4e3c
00000230: 1685 6d3d 3dfa 013b 1f79 21bd 9390 123e
00000240: 1dd1 dabd 8839 86bd 9c04 47bd 9546 e23d
00000250: aadb 813d d1b2 913d 7aca a7bd a98e 01be
00000260: a161 ed3c 040a 19be c6c8 30be 7fe3 20be
00000270: bd55 b7bd f2d7 c7bd 3371 8a3c 1738 953d
00000280: 16d5 dcbd 34cf 6b3e 4e8d 65bd b27f 8c3d
00000290: 45bf 953d 6835 5f3c 5f3d bdbc be7a 0dbe
000002a0: dd62 57be 3e52 313e 3fbc 6fbd 74e9 6b3d
000002b0: c35a a33c 9547 0e3d a14a e8bd 2b16 f93d
000002c0: 2fde c6bd 38e5 ecbc 0227 5a3d 9f07 363e
000002d0: 7aa0 b13d 3423 273d 8431 ef3c 2df0 723b
000002e0: d448 1ebd 0dee 01be 20be 83be 50fa 98bc
000002f0: 8ed7 2bbe feb2 42bc 71d8 123e 3311 d7bd
00000300: 7a43 3fbe c369 bc3c b5c6 f73c 3d28 b6bb
00000310: 742d 70bd b9a2 9c3b 5aa2 88bd 46dd 063d
00000320: 8aaf 81bb 7c4f 36be 8d61 8abb cef1 c43b
00000330: f188 803c c386 1b3d d2de 363c 061c 88bc
00000340: 24b0 bb3b 9d55 7dbc 7c90 e7bd f47f a63b
00000350: 9285 8bbc 49ec a93c d52b 22bd 40bc 1b3e
00000360: ac01 f83a 47a6 fa3d 517d a7bb 9669 b1bd
00000370: a367 503d 45d8 4fbd 10ca 763d cd20 b6bd
00000380: c4f4 123c 230a 72bb c7ca 8c3d 856b 0b3d
00000390: e55c d93a 74fb ce3d 06c1 2ebd af1e 8dbc
000003a0: 7ef5 353b 324c 0c3e 6009 563d 9acd f23c
000003b0: d9d1 42bb 39e8 98bb b362 5f3c 2a91 25bc
000003c0: b4b4 84bd 9d40 003e f76b 3bbb 89c4 68bb
000003d0: 7935 823d 7ea5 37bb 5f9e cf3c d67f a13c
000003e0: bd50 e03c 8668 53bd 9f75 343b 7a3f 8dbb
000003f0: 9de0 a8bd c46c 28bc bd5d 6ebc 573b 31ba

qo_head.fc.bias f4 [4]
0.009013834 0.015190079 -0.0008190967 0.120879725
00000000: c3ae 133c cfdf 783c a6b8 56ba ca8f f73d

beta_head.fc.weight f4 [4, 64]
-0.40755793 0.18792482 -0.22113593 0.06907697 0.006405051 -0.13691343 -0.07905066 -0.2693188
-0.08430056 0.06045346 -0.010510536 -0.3085774 -0.030920524 -0.16669275 -0.06440786 0.03908783
-0.058119673 -0.16946235 0.00026941186 -0.21848421 0.03691829 0.017431153 -0.0016704627 -0.09734537
0.13216327 -0.14120682 0.22624834 -0.33189324 0.1976097 -0.3639935 -0.23740788 -0.344421
0.19311258 -0.31015965 -0.06031675 -0.15754762 -0.06761079 0.04860101 -0.14818342 -0.08949547
-0.20434144 -0.24094093 -0.020808648 -0.08995739 -0.2699035 0.029447043 -0.19096024 -0.10706549
-0.14853173 -0.06887435 -0.22654453 -0.11599483 0.13614225 -0.036709066 0.03491859 0.1645527
0.20474842 -0.050881594 -0.12853038 -0.20103456 0.17280108 -0.08384391 -0.2583946 -0.26161468
-0.24112882 0.16655934 -0.016344925 -0.060742278 -0.037081115 0.07221075 -0.14210469 -0.21694975
-0.16609475 -0.07592735 0.15043204 0.15910201 -0.043551583 -0.0010036008 -0.0402206 -0.20258915
0.16587085 -0.017472072 -0.05010223 0.076399624 -0.23338953 -0.16808257 -0.08271263 -0.23185074
0.103697784 -0.13226877 0.082914405 -0.11638128 -0.11744605 -0.08971419 -0.17993131 0.20669842
-0.11178261 -0.072568275 -0.19339496 -0.16044867 -0.16028711 0.12040273 0.16953589 0.05678748
-0.0019577409 -0.20690994 -0.21844524 -0.024999522 0.04608176 -0.063557245 0.03830059 0.12891693
-0.13617875 -0.10114004 -0.23364252 -0.290976 0.12357611 -0.19467676 -0.12843835 -0.08369622
0.01861409 0.059227884 -0.011615551 0.10790338 -0.050403286 -0.0149469795 0.11895449 -0.252609
0.17170496 0.1697287 0.083801724 0.30556986 -0.061533373 -0.18111403 0.036934003 -0.17450634
-0.13393347 0.057140034 -0.110174626 -0.16363242 0.0021500054 -0.15368208 0.0020526547 -0.082279675
0.04743201 0.1587378 -0.21491906 -0.15156527 0.10311833 -0.07685042 0.11958438 -0.109742776
-0.020448102 -0.13996178 0.29723653 -0.25245836 -0.1663585 -0.011919637 0.015417712 -0.084409125
0.104667746 -0.23306057 0.061635464 -0.1331414 -0.2700439 0.020161273 0.09768243 -0.14070183
-0.15720835 -0.0137267625 0.018670995 -0.17196414 -0.015608692 -0.23394035 -0.2823781 0.07540575
0.053272597 -0.2960968 0.08907638 -0.16657251 -0.09634293 0.03938642 -0.25048846 -0.12009355
0.020033201 -0.092378154 -0.1562422 -0.10543413 -0.047586296 -0.23116545 -0.13207476 -0.102885425
-0.3037884 -0.2048189 -0.21771933 -0.12674984 -0.35286453 -0.05272838 -0.030212527 -0.24665365
0.06238397 -0.17544739 -0.069004685 -0.09828555 -0.08086748 -0.57061666 -0.09857174 -0.3080166
-0.023132818 0.15244271 0.11614737 -0.18334715 -0.21998979 -0.030540075 -0.014973865 -0.20014314
0.087448955 -0.22748297 -0.11886486 -0.043134306 0.03677145 0.09024056 -0.13936177 -0.18403158
-0.053899948 -0.30516934 0.026296752 -0.4625783 -0.054153737 -0.091263175 -0.17522988 -0.111405924
-0.31585076 0.003925066 -0.06542297 -0.23594859 -0.022008777 -0.2711775 -0.51228875 -0.06433727
-0.097985916 -0.25426385 -0.083000734 -0.1974858 -0.12060889 -0.02719303 -0.094549336 -0.27254975
0.065216765 -0.15533243 -0.14898169 -0.13597427 -0.038472686 -0.20197982 -0.21151696 -0.12909135
00000000: 6fab d0be 5d6f 403e 7571 62be 3a78 8d3d
00000010: 76e1 d13b 0933 0cbe 50e5 a1bd 27e4 89be
00000020: c6a5 acbd 0c9e 773d 6234 2cbc dbfd 9dbe
00000030: 0a4d fdbc 81b1 2abe 45e8 83bd 8f1a 203d
00000040: e50e 6ebd 8a87 2dbe d93f 8d39 53ba 5fbe
00000050: a237 173d c7cb 8e3c 6df3 daba 025d c7bd
00000060: cf55 073e 8598 10be a5ad 673e e9ed a9be
00000070: 325a 4a3e 5b5d babe 0d1b 73be f357 b0be
00000080: 4ebf 453e 3fcd 9ebe b20e 77bd 2a54 21be
00000090: 8777 8abd da11 473d 65bd 17be 6749 b7bd
000000a0: e23e 51be 38b9 76be e676 aabc 953b b8bd
000000b0: cb30 8abe ed3a f13c 158b 43be 2745 dbbd
000000c0: b418 18be ff0d 8dbd 4afb 67be b38e edbd
000000d0: e068 0b3e 3f5c 16bd cc06 0f3d 8180 283e
000000e0: 92a9 513e 3869 50bd 789d 03be 01dc 4dbe
000000f0: c4f2 303e 5bb6 abbd 4c4c 84be 5cf2 85be
00000100: 79ea 76be 888e 2a3e cbe5 85bc e5cc 78bd
00000110: 5ee2 17bd 3be3 933d e483 11be 1328 5ebe
00000120: be14 2abe cc7f 9bbd db0a 1a3e a3eb 223e
00000130: 2563 32bd 418b 83ba 5bbe 24bd 8873 4fbe
00000140: 0cda 293e 9721 8fbc ff37 4dbd 6877 9c3d
00000150: aafd 6ebe d61d 2cbe 3d65 a9bd 486a 6dbe
00000160: 815f d43d 7771 07be 07cf a93d 4f59 eebd
00000170: 8e87 f0bd 13bc b7bd ea3f 38be c0a8 533e
00000180: 48ee e4bd ad9e 94bd 5409 46be a84c 24be
00000190: 4e22 24be b595 f63d d19a 2d3e fd99 683d
000001a0: 714d 00bb 33e0 53be 1cb0 5fbe cccb ccbc
000001b0: 3ac0 3c3d 4d2a 82bd 14e1 1c3d cd02 043e
000001c0: 7172 0bbe 8222 cfbd fc3f 6fbe cefa 94be
000001d0: 7915 fd3d 5859 47be 5885 03be ec68 abbd
000001e0: 937c 983c f098 723d 274f 3ebc 73fc dc3d
000001f0: ad73 4ebd 2de4 74bc 699e f33d f855 81be
00000200: 6dd3 2f3e 5ccd 2d3e 3da0 ab3d a773 9c3e
00000210: 6b0a 7cbd f575 39be 1c48 173d cab1 32be
00000220: db25 09be ab0b 6a3d 3ca3 e1bd 428f 27be
00000230: 1be7 0c3b d65e 1dbe d585 063b 3f82 a8bd
00000240: 1148 423d 298c 223e be13 5cbe ed33 1bbe
00000250: b42f d33d c163 9dbd a8e8 f43d d2c0 e0bd
00000260: c782 a7bc 2452 0fbe 632f 983e 3942 81be
00000270: e259 2abe 954a 43bc 929a 7c3c b1de acbd
00000280: 0b5c d63d 6ea7 6ebe 7875 7c3d 3856 08be
00000290: 3243 8abe 4129 a53c ba0d c83d 2414 10be
000002a0: 3afb 20be 37e6 60bc eaf3 983c 5e17 30be
000002b0: 99bb 7fbc 0f8e 6fbe dd93 90be 546e 9a3d
000002c0: 5e34 5a3d 009a 97be ad6d b63d fc91 2abe
000002d0: 714f c5bd a853 213d 0640 80be 9bf3 f5bd
000002e0: ab1c a43c c230 bdbd f5fd 1fbe d9ed d7bd
000002f0: d9e9 42bd a3b6 6cbe 9b3e 07be 98b5 d2bd
00000300: 278a 9bbe 0cbc 51be d1f1 5ebe b6ca 01be
00000310: a9aa b4be b7f9 57bd 4380 f7bc c692 7cbe
00000320: 5586 7f3d 7ba8 33be 5452 8dbd ef49 c9bd
00000330: d99d a5bd ef13 12bf fbdf c9bd 5ab4 9dbe
00000340: 0981 bdbc f119 1c3e acde ed3d 5bbf 3bbe
00000350: 0145 61be 2e2f fabc f154 75bc 53f2 4cbe
00000360: 7018 b33d 4cf1 68be 6b6f f3bd 99ad 30bd
00000370: a99d 163d 0bd0 b83d dab4 0ebe c672 3cbe
00000380: 31c6 5cbd 283f 9cbe 496c d73c 10d7 ecbe
00000390: 4fd0 5dbd 30e8 babd 766f 33be ca28 e4bd
000003a0: 31b7 a1be d79d 803b 7afc 85bd 829c 71be
000003b0: c04b b4bc c7d7 8abe 5b25 03bf 42c3 83bd
000003c0: d7ac c8bd df2e 82be 4afc a9bd b839 4abe
000003d0: cb01 f7bd ebc3 debc 15a3 c1bd a48b 8bbe
000003e0: 5e90 853d 770f 1fbe a88e 18be d73c 0bbe
000003f0: 8995 1dbd ccd3 4ebe e797 58be 8630 04be

beta_head.fc.bias f4 [4]
-0.19521104 -0.17252411 -0.18695492 -0.19374205
00000000: 67e5 47be 29aa 30be 1c71 3fbe 5164 46be

policy_dist.stddev f4 [4, 2]
0.22092366 0.11945579 0.0044012764 0.0043711723 0.049094852 -0.012532357 0.4598574 0.7403513
00000000: d039 623e 3da5 f43d 9538 903b 0d3c 8f3b
00000010: af17 493d 8454 4dbc 6e72 eb3e aa87 3d3f

mu_head.fc.weight f4 [4, 64]
0.40935096 0.11633175 0.31634426 0.25208154 -0.03939262 0.13743006 0.32826358 0.23673657
0.12190358 0.38999635 0.28390118 0.26339856 0.21781771 -0.26288682 0.3593746 0.21447292
0.27444682 0.30436602 0.36713558 0.15296824 0.14529327 0.3908689 -0.42061323 0.26484114
0.2734024 0.33282933 -0.55648345 0.41979724 0.08535371 0.24933068 0.21206525 0.25802907
-0.37785572 0.2656223 0.2809833 0.12048771 0.25635472 0.36914557 0.2234471 0.31447393
0.19590013 0.25660065 0.2689209 0.2609832 0.05046076 -0.4374342 -0.23233826 0.19776599
-0.0045082024 0.2543241 0.23798326 0.17614564 -0.21941875 0.23073271 0.2868576 -1.0428939
-0.70264643 0.099544935 0.14046484 -0.67362887 -0.5019315 0.16800503 0.21790874 0.06852159
-0.12576759 -0.064682215 -0.15975535 -0.041459143 -0.14213468 -0.070664 -0.07662098 -0.07287139
-0.13877957 -0.075054295 -0.14990097 -0.16289774 -0.13328856 -0.1936429 -0.09303621 -0.074934214
-0.14682868 -0.11814258 -0.1208684 -0.04790545 -0.022979656 -0.06854751 -0.04021373 -0.11460704
-0.11881558 -0.1141025 0.004708569 -0.085708655 -0.030784322 -0.091388665 -0.073885225 -0.0761768
0.008967641 -0.07894008 -0.11031709 -0.109040745 -0.16761981 -0.110858835 -0.15534623 -0.16299438
-0.07039789 -0.19053778 -0.0729312 -0.09719326 -0.074103095 -0.102355435 -0.18190585 -0.08710705
-0.0010248151 -0.092242025 -0.09416303 -0.03805156 -0.11529433 -0.13828573 -0.06246287 -0.050016068
-0.07851661 -0.10603484 -0.052737694 -0.026467932 -0.076139346 -0.05920579 -0.14450163 -0.075493485
-0.24221306 0.12850843 -0.14455035 0.032674916 -0.33534005 0.06118222 -0.03120137 -0.0063467356
0.028187227 -0.17660615 -0.18397911 -0.37875313 0.05570634 -0.16572414 -0.14798102 0.0011508914
-0.23199472 -0.14809175 0.05303011 0.08466293 0.13739902 0.11782092 -0.07091991 -0.05553712
-0.027463825 -0.043008402 0.02417703 -0.013781721 -0.11887476 -0.078925 -0.03115483 0.028425133
-0.040120423 0.022034248 -0.065002 -0.26509133 -0.27166092 -0.11248262 -0.30156073 -0.21537654
-0.016479757 -0.26109624 -0.062040552 0.008352428 0.07020612 -0.09145335 -0.27898878 -0.04459176
-0.0022678995 -0.024966154 0.08571906 0.156389 -0.26992568 -0.31308916 -0.026477532 -0.1538638
-0.10597193 -0.22852756 0.1064643 -0.033824544 -0.23660327 0.021879563 -0.28300908 0.06290586
-0.25883412 -0.18487266 -0.17554447 -0.2686202 0.3362408 -0.06808469 -0.16864426 -0.09596403
-0.037691105 -0.27807924 -0.1503013 -0.009044926 -0.3008881 0.4520495 -0.27817553 -0.07834495
-0.09271021 -0.17401831 -0.26122183 -0.09092938 -0.14931604 -0.4062567 0.47075412 -0.14317602
-0.1894142 -0.18107115 0.52671653 -0.28790274 -0.008662975 -0.06602279 -0.08879197 -0.16352046
0.4268848 -0.1690665 -0.11443282 0.100965045 -0.042577557 -0.17880064 0.010413806 -0.16813624
-0.057179157 -0.04221418 -0.10862277 -0.12760572 0.020007141 0.50313866 0.49467793 -0.055060256
0.00866533 -0.10809631 -0.18040664 -0.11768636 0.44271386 -0.04584663 -0.22438711 1.1388472
0.7989355 0.23033573 -0.080247834 0.71184415 0.6511948 -0.05896521 0.016827768 0.018336529
00000000: 7396 d13e 573f ee3d e0f7 a13e d510 813e
00000010: 285a 21bd 77ba 0c3e 2a12 a83e 126b 723e
00000020: 96a8 f93d 9aad c73e 7f5b 913e 2ddc 863e
00000030: 9b0b 5f3e 1a99 86be f3ff b73e ca9e 5b3e
00000040: 4b84 8c3e ddd5 9b3e 32f9 bb3e b5a3 1c3e
00000050: c2c7 143e f81f c83e 9e5a d7be 4299 873e
00000060: 66fb 8b3e 9b68 aa3e b375 0ebf aaef d63e
00000070: edcd ae3d 8b50 7f3e a227 593e 631c 843e
00000080: 4e76 c1be a5ff 873e 0bdd 8f3e 43c2 f63d
00000090: ed40 833e a600 bd3e 51cf 643e ba02 a13e
000000a0: 0b9a 483e 2961 833e 00b0 893e 979f 853e
000000b0: f1af 4e3d 60f7 dfbe 15ea 6dbe 2b83 4a3e
000000c0: 8bb9 93bb c536 823e e2b1 733e 865f 343e
000000d0: 4faf 60be 3245 6c3e 00df 923e 8c7d 85bf
000000e0: a3e0 33bf 37de cb3d 04d6 0f3e f172 2cbf
000000f0: 957e 00bf 8309 2c3e 7823 5f3e 0c55 8c3d
00000100: 38c9 00be 1c78 84bd e896 23be 10d1 29bd
00000110: c18b 11be 4ab8 90bd 76eb 9cbd 983d 95bd
00000120: 3b1c 0ebe 11b6 99bd a47f 19be aace 26be
00000130: cc7c 08be 534a 46be c589 bebd 1c77 99bd
00000140: 425a 16be bdf4 f1bd da89 f7bd 8138 44bd
00000150: d53f bcbc a362 8cbd 27b7 24bd 19b7 eabd
00000160: 9555 f3bd 92ae e9bd 574a 9a3b 0588 afbd
00000170: 672f fcbc fb29 bbbd 2351 97bd 9502 9cbd
00000180: 03ed 123c 56ab a1bd eded e1bd c150 dfbd
00000190: 87a4 2bbe f509 e3bd 1513 1fbe 00e8 26be
000001a0: c52c 90bd 561c 43be f45c 95bd 430d c7bd
000001b0: 5dc3 97bd ba9f d1bd 8745 3abe 2e65 b2bd
000001c0: 1753 86ba 63e9 bcbd 8cd8 c0bd f4db 1bbd
000001d0: 6f1f ecbd c69a 0dbe 11d9 7fbd a6dd 4cbd
000001e0: 51cd a0bd cb28 d9bd 7b03 58bd 47d3 d8bc
000001f0: f2ee 9bbd c581 72bd 3cf8 13be 549c 9abd
00000200: b306 78be b797 033e 0205 14be 22d6 053d
00000210: b1b1 abbe 359a 7a3d 049a ffbc 47f8 cfbb
00000220: e6e8 e63c 3ed8 34be 0565 3cbe eeeb c1be
00000230: 552c 643d 97b3 29be 5688 17be 82d9 963a
00000240: 0690 6dbe 5da5 17be 1a36 593d c263 ad3d
00000250: 54b2 0c3e 184c f13d 753e 91bd e47a 63bd
00000260: d1fb e0bc 9429 30bd e80e c63c bacc 61bc
00000270: 9c74 f3bd 6ea3 a1bd 6a38 ffbc d3db e83c
00000280: 5055 24bd 2b81 b43c c51f 85bd 0dba 87be
00000290: 2417 8bbe 4a5d e6bd 2b66 9abe ab8b 5cbe
000002a0: 8e00 87bc 68ae 85be 3c1e 7ebd 9fd8 083c
000002b0: 3ac8 8f3d e54b bbbd 9ed7 8ebe d9a5 36bd
000002c0: 0aa1 14bb d285 ccbc 798d af3d 7024 203e
000002d0: b333 8abe 394d a0be 69e7 d8bc 798e 1dbe
000002e0: d007 d9bd 2103 6abe f409 da3d 9b8b 0abd
000002f0: 2148 72be c53c b33c 91e6 90be cad4 803d
00000300: e885 84be 424f 3dbe eec1 33be 9688 89be
00000310: c127 ac3e fc6f 8bbd 15b1 2cbe ca88 c4bd
00000320: fd61 1abd 6760 8ebe 96e8 19be 2b31 14bc
00000330: 010e 9abe 0873 e73e 066d 8ebe 5173 a0bd
00000340: dade bdbd db31 32be debe 85be 2f39 babd
00000350: 4ee6 18be e100 d0be af06 f13e bc9c 12be
00000360: ccf5 41be b76a 39be e5d6 063f fd67 93be
00000370: 27ef 0dbc f536 87bd 90d8 b5bd e871 27be
00000380: a590 da3e c51f 2dbe c15b eabd c3c6 ce3d
00000390: ce65 2ebd 8417 37be ab9e 2a3c e82b 2cbe
000003a0: b134 6abd c7e8 2cbd 9d75 debd 13ab 02be
000003b0: 04e6 a33c b2cd 003f 6d46 fd3e dd86 61bd
000003c0: 07f9 0d3c 9961 ddbd 85bc 38be 8c05 f1bd
000003d0: 64ab e23e adc9 3bbd bcc5 65be bfc5 913f
000003e0: 0987 4c3f 21dd 6b3e fa58 a4bd 6b3b 363f
000003f0: b4b4 263f 8185 71bd 63da 893c 7d36 963c

mu_head.fc.bias f4 [4]
-0.07575306 -0.07189376 -0.027195416 0.15463498
00000000: 6c24 9bbd 093d 93bd ecc8 debc a258 1e3e

exp_avg f4 [64, 7]
-0.00011461158 -8.869682e-05 -4.15187e-05 -0.00010679334 -5.40218e-05 -3.5187684e-05 -3.4878935e-06 5.7842288e-05
7.6682976e-05 0.000104642284 -2.7200791e-05 4.959433e-06 4.618544e-05 4.4409825e-07 0.00067568565 2.1902822e-05
4.7092468e-05 -0.00016910816 -0.00023828285 -0.00029997274 6.459218e-06 -0.00026393143 0.00033689174 -3.0232672e-05
4.0361654e-05 9.310649e-05 -9.603282e-05 2.4815444e-08 0.00061076786 -0.00013686706 3.1394877e-05 -0.00029283017
-0.00011935118 -0.00031570654 3.5788812e-06 0.000990367 5.6456203e-05 3.1537802e-05 -7.314882e-05 -0.00033596327
-9.319823e-06 1.1093338e-05 -6.322789e-05 8.482047e-05 -2.868009e-05 9.537262e-05 -1.04869605e-05 1.9572653e-05
-1.8919701e-06 -7.2869174e-05 0.00023224052 1.4181156e-06 0.00016818066 -0.00014989232 -8.335729e-05 -2.5921074e-06
5.8453767e-05 -0.00014607434 -5.262635e-05 -9.284265e-05 0.00014897854 4.6856596e-05 3.3750823e-06 0.0002607565
3.2854707e-05 5.4377986e-05 1.656682e-05 -4.8713187e-05 -4.137254e-05 8.291165e-07 -0.00037078015 9.207551e-05
9.150566e-05 0.00023510038 0.00010554002 3.805985e-06 1.2717037e-06 4.966196e-05 0.00019844342 5.3400654e-05
9.067977e-05 -6.1026578e-05 0.00023442393 3.9478863e-07 -4.208442e-05 0.00014922385 6.0864018e-06 -0.000102252634
-4.3104187e-06 -8.1807564e-05 1.6863131e-08 -0.00024185014 -0.00010536461 -9.921734e-05 -0.00015163043 -0.00021288371
-0.00022518206 2.7301646e-06 -0.0001700599 -7.851769e-05 -1.29304835e-05 -0.000122026395 4.798297e-05 7.4902244e-05
-3.3536699e-06 0.0005557429 8.873443e-05 8.918151e-05 -7.680671e-05 -4.7667858e-05 7.7013916e-05 3.4540856e-06
0.00043535756 -3.756116e-05 6.66087e-05 -3.5702874e-06 -2.5792187e-05 -3.0320596e-05 9.600263e-07 0.0006677521
-4.3112563e-05 5.6054625e-05 -3.66964e-05 8.5512955e-05 6.875469e-05 3.1298798e-06 -1.600517e-05 9.857069e-05
-6.613247e-05 6.5742664e-05 -0.00010487947 -0.00013719949 -1.6337361e-06 -0.0008063639 -0.00011177664 -6.956321e-05
0.00020477174 -7.718918e-05 5.526295e-05 4.202125e-07 -8.938028e-05 7.742204e-06 -2.3727487e-05 9.706098e-05
1.5485224e-05 0.00012617334 -1.6139169e-06 -0.0017527917 9.835114e-05 -9.1168535e-05 9.977314e-05 -1.0699603e-05
-0.00017074478 -1.1276393e-05 -0.00027898554 0.00021893399 8.537114e-05 0.00013348018 -0.00030402665 -0.00015414845
-1.2800588e-07 -0.000104982566 -8.183337e-05 4.518068e-05 1.809134e-05 0.00013822409 -3.6432477e-05 -6.418341e-06
5.3678246e-05 -8.0411926e-05 -2.5848694e-05 -0.00026709668 0.00023601034 -5.286375e-05 -1.1736063e-06 0.00028776063
-0.00013229965 -2.3082288e-05 -0.00014902982 -0.00010713606 -0.00018175594 -1.6963506e-06 0.00010722385 -8.039059e-05
7.642942e-05 -3.1766704e-05 5.6243138e-05 9.1318354e-05 1.8592834e-07 1.29259115e-05 2.8652556e-05 2.2026841e-05
-0.00014285294 -4.934404e-05 -0.000110070294 7.6226354e-07 -0.0016253124 0.00012751279 -8.5272935e-05 0.00020952239
0.00011405037 -0.00023508946 -9.036397e-06 -1.1531676e-05 0.00018927945 -5.4180487e-06 0.000118445976 5.792731e-05
4.346996e-05 1.9540573e-06 5.8817197e-05 -3.2993514e-05 -7.045109e-05 2.212588e-05 -0.00018062752 -0.00013110325
1.6765612e-06 0.00037765328 0.00012464472 1.3345163e-05 1.0115259e-05 -0.00013893249 9.592186e-05 8.5637e-06
0.00030408133 -1.0702919e-05 -1.6828644e-05 1.0604155e-05 -0.00013796568 -0.00017207173 1.0367027e-05 -0.0027943158
-0.00023201905 -0.00032393364 -0.00027026903 0.0006181475 8.2104074e-05 -1.5813177e-05 -0.001031724 -7.610753e-05
-0.0001791142 -0.00018439369 9.9989506e-05 -0.0002486545 -9.481376e-06 0.0007407926 9.747269e-06 -5.7101992e-05
-0.00018851101 -0.00018094873 -6.459527e-05 5.480952e-06 0.001349636 0.00020052436 7.103261e-05 -9.580007e-05
00000000: a05b f0b8 be02 bab8 5d24 2eb8 3df6 dfb8
00000010: 7795 62b8 7d96 13b8 8e11 6ab6 af9b 7238
00000020: dcd0 a038 6673 db38 412d e4b7 3569 a636
00000030: 3db7 4138 666c ee34 7f20 313a f4bb b737
00000040: 2785 4538 a052 31b9 91db 79b9 a945 9db9
00000050: 43bc d836 4760 8ab9 d8a0 b039 2b9c fdb7
00000060: ff49 2938 2b42 c338 3a65 c9b8 bd29 d532
00000070: f01b 203a f983 0fb9 fead 0338 0087 99b9
00000080: 2d4c fab8 6a85 a5b9 b62c 7036 34cf 813a
00000090: 63cb 6c38 7547 0438 7967 99b8 3a24 b0b9
000000a0: 565c 1cb7 861d 3a37 3799 84b8 a5e1 b138
000000b0: 0696 f0b7 c902 c838 27f1 2fb7 f42f a437
000000c0: 99ef fdb5 57d1 98b8 9785 7339 1556 be35
000000d0: a759 3039 6a2c 1db9 1bd0 aeb8 11f4 2db6
000000e0: 412c 7538 882b 19b9 1dbb 5cb8 85b4 c2b8
000000f0: 1f37 1c39 e387 4438 797f 6236 25b6 8839
00000100: 79cd 0938 eb13 6438 faf8 8a37 6351 4cb8
00000110: 6d87 2db8 7490 5e35 4565 c2b9 aa18 c138
00000120: bae6 bf38 4785 7639 5e55 dd38 536a 7f36
00000130: 68af aa35 204c 5038 4015 5039 84fa 5f38
00000140: 552b be38 caf6 7fb8 b2cf 7539 56f3 d334
00000150: cd83 30b8 f978 1c39 cb39 cc36 7770 d6b8
00000160: 37a2 90b6 1a90 abb8 6bda 9032 2799 7db9
00000170: 32f7 dcb8 e712 d0b8 fcfe 1eb9 8939 5fb9
00000180: d91e 6cb9 df37 3736 1b52 32b9 dda9 a4b8
00000190: 01f0 58b7 6ce8 ffb8 5241 4938 d614 9d38
000001a0: 9c0f 61b6 46af 113a ef16 ba38 f506 bb38
000001b0: 4a13 a1b8 f9ee 47b8 8882 a138 bdcc 6736
000001c0: b440 e439 fd8a 1db8 46b0 8b38 1299 6fb6
000001d0: 4d5c d8b7 fc58 feb7 41da 8035 160c 2f3a
000001e0: c3d3 34b8 321c 6b38 76ea 19b8 6b55 b338
000001f0: 6530 9038 ed0a 5236 d742 86b7 bcb7 ce38
00000200: 99b0 8ab8 53df 8938 bdf2 dbb8 35dd 0fb9
00000210: bf46 dbb5 2a62 53ba a069 eab8 77e2 91b8
00000220: ffb7 5639 a0e0 a1b8 24ca 6738 9199 e134
00000230: ac71 bbb8 83e4 0137 640a c7b7 388d cb38
00000240: 44e6 8137 664d 0439 c39d d8b5 eebd e5ba
00000250: de41 ce38 bc31 bfb8 4c3d d138 7282 33b7
00000260: f409 33b9 bd2f 3db7 ce44 92b9 a591 6539
00000270: 4809 b338 d0f6 0b39 c465 9fb9 e9a2 21b9
00000280: fd71 09b4 162a dcb8 f59d abb8 6380 3d38
00000290: dbc2 9737 3ff0 1039 13cf 18b8 215d d7b6
000002a0: 9424 6138 d3a2 a8b8 a6d5 d8b7 1c09 8cb9
000002b0: 8b79 7739 05ba 5db8 ce84 9db5 94de 9639
000002c0: ebb9 0ab9 d6a0 c1b7 e344 1cb9 3cae e0b8
000002d0: bd95 3eb9 2aae e3b5 5edd e038 5f97 a8b8
000002e0: bb48 a038 3d3d 05b8 9ce6 6b38 2b82 bf38
000002f0: 98a3 4734 5edc 5837 e55a f037 48c6 b837
00000300: cbca 15b9 c2f6 4eb8 8ad5 e6b8 5a9e 4c35
00000310: 6f08 d5ba f4b4 0539 8fd4 b2b8 3db3 5b39
00000320: 532e ef38 5982 76b9 089b 17b7 2c78 41b7
00000330: 5179 4639 afcc b5b6 3366 f838 faf6 7238
00000340: 8453 3638 7322 0336 7cb2 7638 8462 0ab8
00000350: 24bf 93b8 f79a b937 d566 3db9 c378 09b9
00000360: 3406 e135 c4ff c539 10b3 0239 0ae5 5f37
00000370: b5b4 2937 68ae 11b9 a829 c938 d0ac 0f37
00000380: 1b6d 9f39 b090 33b7 3d2b 8db7 80e8 3137
00000390: e1aa 10b9 276e 34b9 0bee 2d37 d720 37bb
000003a0: 244a 73b9 a3d5 a9b9 e5b2 8db9 2d0b 223a
000003b0: 4a2f ac38 8aa6 84b7 ea3a 87ba eb9b 9fb8
000003c0: 9ad0 3bb9 ce59 41b9 75b1 d138 d85d 82b9
000003d0: 3312 1fb7 c031 423a 3488 2337 cc80 6fb8
000003e0: 0aab 45b9 0ebd 3db9 5277 87b8 05e9 b736
000003f0: 45e6 b03a d943 5239 58f7 9438 45e8 c8b8
